best_residual_mlp_model.pth (torch, 727355 bytes, 24 tensors)

entry.weight f4 [256, 52]
00000000: fc20 35bc c604 2f3e ef35 043d 4b96 acbc
00000010: 8bff b1bd 0718 c9bd 6e33 053d 3474 ea3d
00000020: b5b8 cdbc 63d7 fdbd 62a6 d8bd 538b ec3d
00000030: e9e7 6fbd e033 a7bd b5a5 143e fa22 9abc
00000040: 0259 54bd f495 80bc 8013 80bd 256e fc3d
00000050: 651b 2cbd e9ed 96bd 690b bb3d f05e 07be
00000060: e090 0ebe d289 12bd 958e 11be ceef ccbd
00000070: 5c39 4e3e eec2 b53d d1d0 abbd e6b2 f23d
00000080: 05c0 5a3e 790f 0a3e 9494 62be 5207 e6bd
00000090: 9ee9 c73d 1138 4ebd 3bb2 75bd 0333 02be
000000a0: 4a1a a4bd 6c5b 8abe bbcd 6e3e 8a54 8e3d
000000b0: aec9 9abc 2bab 2dbd 6ed2 15bd a29f 25bd
000000c0: eb94 853e 09cc b63d f128 32be 00f6 443c
000000d0: 3929 18bd d754 21be da45 dcbd 9c79 9c3d
000000e0: 5594 dfbd 543c b53d 20aa 0abe 6f87 2e3d
000000f0: ed9b c43c a0b3 9fbc 17c8 2f3d 2d42 4abd
00000100: 8ae7 c33b 9c3f 8fbc 10aa b73c 050c 5dbd
00000110: 32d3 b33d 722e bbbd 55b1 4fbe 4cc3 363e
00000120: 0bd7 0fbe cbdd e4bd 7457 da3d c3d9 4cbd
00000130: 9a0c 5abd 2854 7cbd 9df6 4d3e dcea 413d
00000140: 29eb 88bd ae24 a0bd 76bd bf3d 1f22 31bd
00000150: 89e3 6bbd 2115 cbbd c4bc 093e ce05 d03d
00000160: aa3d 043e cb21 543d 8788 a63d 9383 093e
00000170: c456 653d a136 243d 42c4 8d3d 4cd8 4cbd
00000180: d0dd 79bd 7ece efbc ac25 dfbd 0464 d0bc
00000190: b4dd a33d 4c6e d43d 7a4b 773d 3015 2c3c
000001a0: 0d93 953d bb9a 82bd 743d 8dba 5ca3 a23c
000001b0: 1165 50bc bae7 ef3d 37c2 cf3d de7f ed3d
000001c0: 82bc a0bd c47c e5bd be92 bd3d f681 29be
000001d0: 8253 8f3c c3aa e2bd 6fa1 d03d eefc aabb
000001e0: c18d 83bd 6e5c d73d 1abf ef3d 70a7 b63d
000001f0: 7da0 2c3d ee0f f3bd 908e c9bd 232b 42ba
00000200: e7fd 84bc 72e3 f03d 7b9b 3cbe a224 ac3d
00000210: 2a5c 8bbd c838 6fbc cf9f 973b b795 95be
00000220: 01af 103c a364 a7be 542f 813e 87dc f4bd
00000230: 2e5c bc3d 8600 afbd ea29 0dbe 50fd 653c
00000240: 38fa 243e 43a9 f23d 197f 29bd 32ed e23d
00000250: 01fc 82bd ea70 6dbe 9170 7c3e 38d9 a8bc
00000260: a6ad d3bc 182c bebd 2de0 833c 786f a13d
00000270: 30e8 cfbb 3e82 73bc a6eb c3bd 5cef 8c3c
00000280: 7645 febc 6013 f2bb cf9d e23d 6812 823d
00000290: 1cbd 4c3d 4294 af3d 6ba2 9e3d 0b58 1bbd
000002a0: 2b34 a73d 6ad9 923d 9c0d af3d 39c2 45bd
000002b0: 62e9 03bd 888f dd3c 7111 aebd 8491 f5be
000002c0: 3377 fd3e 601a 8f3d bed6 95bd 4ea2 81bd
000002d0: 6c59 9bbd 0028 17ba 1e73 9f3b 19c9 a9bd
000002e0: 5874 223e fc17 36bd 7f77 aabc 4ac4 22be
000002f0: b3e9 9c3d 45e5 febd cedf 1fbd c75d 01be
00000300: fff7 913d e067 f3bc 5366 a7bb f864 9c3c
00000310: c646 173c 49c0 063e cf92 7a3c 886a cfbd
00000320: 4f93 8dbd 5658 69bd b07c f9bd fa2c e63d
00000330: 79ba b7bd da68 c9bd 8896 9ebc 7839 543d
00000340: 0ede 40bc 36ff de3d 589d 51bd 56b8 b2bd
00000350: 3e51 d9bc 6394 cabd 34f3 2abd 56e5 ef3d
00000360: 618a 15bd a5c7 bbbd c952 91bc 97f7 97bd
00000370: e2c9 1d3d 20c3 5f3d 5fd6 0b3d 817d 2cbc
00000380: 0f91 19be 008a 4fbc 457b 1f3b 6c9f 783e
00000390: db01 78bd e06a c63d a037 08be 4315 153e
000003a0: cfeb 01be 88e3 5d3d 0bf0 b7bd 64f8 01be
000003b0: 5b21 c73d 5aec 9dbd eba5 ccbd b35b 8bbe
000003c0: 4336 b7bd eb4b 243b 6c24 f93d 8495 5c3d
000003d0: 7b53 f63d aab8 0ebd 3a2f 0c3e b2bb 993d
000003e0: c58a 6b3e 24bc 2f3e d43d c0bd c41c b8bc
000003f0: d5df d33c c976 d7bd b925 403d 7e2d 22bd
-0.011055227 0.17091665 0.032277998 -0.021067759 -0.08691319 -0.09819036 0.03251975 0.11447945
-0.02511249 -0.123945974 -0.1057861 0.115500115 -0.058570776 -0.08164191 0.14516337 -0.018815506
-0.051842697 -0.015696503 -0.06253719 0.12325696 -0.042018313 -0.073695965 0.09133036 -0.1321981
-0.13922453 -0.035775967 -0.14214547 -0.100066766 0.20139068 0.088750705 -0.08389438 0.118505284
0.21362312 0.13482465 -0.2212699 -0.11231865 0.09761356 -0.050346438 -0.059984427 -0.12714772
-0.08012827 -0.27022874 0.23320667 0.06949718 -0.018894996 -0.042399567 -0.036577635 -0.04043544
0.26090178 0.08925635 -0.1739843 0.012021542 -0.037148688 -0.1575502 -0.10755511 0.07640383
-0.10916964 0.08849397 -0.1354146 0.04260963 0.024000132 -0.019494832 0.04291543 -0.049379516
0.0059785293 -0.017486386 0.02241996 -0.05396654 0.08780517 -0.09139718 -0.2028249 0.17847937
-0.14046876 -0.11175116 0.106612116 -0.05001236 -0.053234674 -0.061603695 0.20113607 0.04734312
-0.06685478 -0.07819496 0.09362309 -0.04324543 -0.05759004 -0.099161394 0.13450915 0.10157357
0.12914148 0.05179004 0.08131509 0.13429098 0.05599095 0.04009116 0.06922199 -0.050010964
-0.061002553 -0.029273268 -0.10895857 -0.025438316 0.08001271 0.103726 0.060374714 0.010503098
0.07303438 -0.06377169 -0.0010775761 0.019853286 -0.012719409 0.1171412 0.101444654 0.11596654
-0.07848455 -0.11205438 0.092565045 -0.16553482 0.017495874 -0.110677265 0.10187041 -0.00521814
-0.06423522 0.105156764 0.117063716 0.08918655 0.04214524 -0.11868273 -0.09841645 -0.00074069406
-0.016234351 0.11762132 -0.18418686 0.08405425 -0.06804688 -0.01460094 0.004627205 -0.29215786
0.008830787 -0.32693967 0.2523142 -0.11956125 0.091972694 -0.08545022 -0.1378552 0.014037445
0.16111076 0.1184869 -0.041380975 0.11080398 -0.06395722 -0.23187605 0.24652316 -0.02061139
-0.025839638 -0.09285754 0.016098106 0.07882589 -0.0063448176 -0.014862595 -0.09566431 0.01720398
-0.03103898 -0.0073875636 0.11065256 0.06351167 0.049985036 0.085732 0.077458225 -0.03792576
0.08164247 0.07170375 0.08547518 -0.04828093 -0.032204993 0.02704598 -0.084994204 -0.47962582
0.49505004 0.069874525 -0.073163494 -0.06329785 -0.07585415 -0.00057661533 0.004866018 -0.082903095
0.15864694 -0.044456467 -0.020808933 -0.15895191 0.07661762 -0.124460734 -0.039031796 -0.1263343
0.071273796 -0.029712617 -0.0051086335 0.019091114 0.009233182 0.13159288 0.015293791 -0.10127741
-0.069128625 -0.05696901 -0.121819854 0.11239047 -0.08971114 -0.09834452 -0.019358888 0.05181262
-0.011771692 0.108885214 -0.051175445 -0.087265655 -0.026527997 -0.09891584 -0.041735843 0.11713664
-0.03650892 -0.091689385 -0.01773967 -0.07420271 0.03852261 0.054629445 0.034139987 -0.010527969
-0.14996742 -0.012667179 0.002433495 0.24279565 -0.060548645 0.096883535 -0.13302469 0.14558892
-0.1268761 0.05417207 -0.089813314 -0.1269241 0.09723159 -0.07711096 -0.09992584 -0.27218398
-0.089458965 0.0025069665 0.1216515 0.053853527 0.120276414 -0.034844078 0.1368989 0.07506503
0.23002155 0.17161614 -0.09386793 -0.022474654 0.025863567 -0.10520703 0.046910975 -0.039594166

entry.bias f4 [256]
00000000: be67 763d 6dd5 9e3d 2602 4bbc 499b 08be
00000010: 1a39 9fbd ac4f 70bd 7cef b9ba 0eb3 35be
00000020: 01bb 79bc 5e3f 043e c411 2abe d485 0e3d
00000030: 2b61 023d 5e34 a03d 91d0 173d 4773 2fbb
00000040: e9ed bfbd 16a1 c5ba 7d38 3ebe e358 5fbe
00000050: c40b 433d 662d f5bd d2a6 c0bd 5b57 0abe
00000060: 3030 08be 6983 983c 1c91 16bd 27cf 1f3c
00000070: df29 aabd 134c 373c a50a 3bbd daff dfbd
00000080: 1a10 e4bd 7e69 b33c c598 39be 7323 49be
00000090: 4759 17be 7476 c7bd 9da3 093d 0704 11be
000000a0: f7e3 8dbd 054c 00be ae7f 773d a560 033d
000000b0: 62a1 db3d 915d b0bd c991 353d 2e64 443d
000000c0: 7f7e 3abe f442 913d f93f 8fbd 20fa 883d
000000d0: 5bdf cd3d a67f 38bc 7f0b a2bb 2f6c 023e
000000e0: 2228 ecbc ba8d d6bd f230 8ebc 574e dbbc
000000f0: f4bf 563d 219d 1e3d 0f26 64bd 8865 72bc
00000100: 5fc5 f2bc b17d 2cbe 3712 13be b55b c8bd
00000110: fd69 a83d df0c 993c 577c 52bc cb9c 2d3d
00000120: fcea 9abd e4b6 c1bd 128e 39bd 2c9a 4a3c
00000130: a1b7 a03c edc8 d23c f360 2fbd ef13 1abd
00000140: 3d3a d5bd c3af c13d b410 06be ee69 af3d
00000150: 690a 9bbd 258d 48bd 9f7b a0bd 71b8 60bd
00000160: 0dca 3f3d a2f8 e63d e67b d83b 0cf1 8d3d
00000170: d6a0 8abc 5e2a d6bd 2571 893d a8b9 fabc
00000180: fe7c 8bbd 1dcd 843c 320e 403d 4528 7b3c
00000190: cce1 b7bd cca2 15be 539f c53b cc36 08bd
000001a0: 3c05 4abd ff1f 4cbd a1b6 54bc d9e7 cabc
000001b0: 54ea 733d b5b2 06be c557 6a3d b8bf ddbc
000001c0: fbbe b83c 4935 bbbd 9e8f 08bc 38a8 76bd
000001d0: bfb7 1b3d 24af 65bb 75c5 303d 3c95 3dbd
000001e0: 6624 1e3d 3d77 e8bd 84c3 8fbd b797 ccbd
000001f0: a40e 5d3d 8658 5f3d 33dc 57bd 002d 87bd
00000200: dd3b 303d fb79 babd 31ee d23d 064a 12be
00000210: 3dbc 4fbc 3595 2b3e e089 98bc fe96 1bbd
00000220: f5a7 ea3b 66a5 803d 9c6e aabd c8d2 fcbd
00000230: 5906 f9bd a8e5 e1bd ddb0 24be 0b56 5abd
00000240: ff1a 4c3d f7d2 a73c 70a3 c6bd d366 4e3d
00000250: 6943 14be 6118 30bd 472f 033d 4731 c73c
00000260: 1ad0 b4bd bf22 a6bd f7a6 03be 1e57 bd3c
00000270: ea05 2ebd ea8b 903d 7814 fa3a 5966 40bd
00000280: 30b3 1f3d 3632 523c 0c37 7bbb 84d7 09be
00000290: 6780 a43d 2917 00bd 7d3f 5e3b 12b2 3abd
000002a0: c292 6bbc 8ef0 88bd e8c4 59bd 1ca8 453c
000002b0: 22f4 22bd d392 10be 744a a43c dd30 1bbe
000002c0: a7b0 40bd 819b a5bd 0502 83bd f83a d53d
000002d0: 9f44 6e3c 578b 723d 9b51 58bb c5ba 4ebd
000002e0: 8a39 cd3c ced6 6cbd c9f2 eebd 3ef6 1dbe
000002f0: ea2f d7bc 2a95 93bd 8503 90bc 0805 0abd
00000300: b036 96bd 398b 88bd 3437 23be 54c9 71be
00000310: b3db 87bd e2cb b63d 9fea 2d3c f8a5 8ebd
00000320: ecb2 363d c255 c9bc 2f12 b7bd 1c53 4abd
00000330: d8af e13c 333d c9bd 34c4 5abd 549b 96bc
00000340: 91d1 00be 106d a53b 5917 00be a56c a5bd
00000350: 503d c23c 8a73 94bd 79c8 2bbe 5c98 25bd
00000360: e0fb c1bd f063 a4bc 1590 b83d d951 aabc
00000370: 4403 8cbd bb44 43bc ca9a 1cbd 576e b9bc
00000380: 5bf8 ab3d 118f 1bbe d3c0 d5bd 51d2 2c3d
00000390: 77ed f6bd 083c a33c 98f0 a7bc c7fc 603d
000003a0: 2d75 b43c 8d19 7e3b 0f29 303d 42ce 0e3d
000003b0: c6bd fcbd 8432 ad3c 8ee2 bebd b852 ebbc
000003c0: 391d 92bd 63e0 f0bd cde2 e6bd 2d4a 5b3d
000003d0: 4506 b23d 7868 943d c176 e2bd 9872 63bc
000003e0: 4b50 6f3d 0f20 4b3d 14c2 dcbd 0568 f63c
000003f0: 41c9 2ebd b730 343e 4602 573d 66dd bc3d
0.06015753 0.077555515 -0.012390649 -0.13340487 -0.07774563 -0.05866973 -0.0014185752 -0.17744085
-0.015242339 0.12914798 -0.1660834 0.034795597 0.031830948 0.07822488 0.03706414 -0.0026771592
-0.0937155 -0.0015077915 -0.18576236 -0.21811251 0.047618642 -0.1197155 -0.094068184 -0.13509886
-0.13299632 0.018617349 -0.03675948 0.009753979 -0.083087675 0.011187571 -0.04566445 -0.10937472
-0.11135884 0.021900889 -0.18124683 -0.19642429 -0.1478015 -0.0973939 0.0336033 -0.14161693
-0.069282465 -0.12528999 0.0604245 0.03207459 0.10724141 -0.086115964 0.044328485 0.0479471
-0.18212317 0.070928484 -0.06994624 0.066883326 0.10052367 -0.0112609025 -0.004945218 0.12736581
-0.02882773 -0.10476251 -0.017357323 -0.026770754 0.052429155 0.03872407 -0.055700358 -0.014794715
-0.02963513 -0.16844822 -0.14362417 -0.09783117 0.08223341 0.018682895 -0.012847028 0.042385858
-0.07564351 -0.09458712 -0.045301504 0.012365859 0.019618811 0.025730575 -0.042817067 -0.037616666
-0.10411499 0.09457352 -0.13092309 0.08565126 -0.07570345 -0.04896273 -0.07836079 -0.054863397
0.04682355 0.11277892 0.0066065667 0.06930742 -0.016922396 -0.104573 0.06711034 -0.030606106
-0.0681095 0.016211087 0.046888538 0.015329425 -0.08978614 -0.14612883 0.006030956 -0.033255383
-0.0493214 -0.0498352 -0.012982995 -0.024768757 0.059549645 -0.13154109 0.05721261 -0.027068958
0.022552004 -0.09141023 -0.008335022 -0.06021902 0.03801703 -0.003504702 0.04315706 -0.0462849
0.03860893 -0.11350868 -0.070197135 -0.09989875 0.05396904 0.054527782 -0.052700233 -0.0660038
0.04302584 -0.09105297 0.10299338 -0.1428605 -0.012679157 0.16756137 -0.018620431 -0.037985794
0.0071611353 0.06281547 -0.08321878 -0.12344891 -0.12159414 -0.110301316 -0.16083093 -0.053304713
0.049830433 0.020486338 -0.09699142 0.05039103 -0.1447884 -0.042992 0.03202751 0.02431549
-0.08828755 -0.08112096 -0.12856661 0.02311283 -0.04248611 0.070579365 0.0019079586 -0.046972606
0.038989246 0.012829354 -0.003833237 -0.13461119 0.08032303 -0.031272087 0.0033912354 -0.045579977
-0.0143782515 -0.06686507 -0.0531663 0.012064006 -0.039783604 -0.14118509 0.020055033 -0.15155359
-0.04704347 -0.08086301 -0.063968696 0.10411638 0.014542728 0.059214916 -0.0033007625 -0.050471086
0.02505185 -0.05782204 -0.11667401 -0.15425965 -0.026267964 -0.07206185 -0.017579803 -0.033696204
-0.073346496 -0.066671796 -0.15939027 -0.23611957 -0.06633701 0.08925606 0.01061502 -0.0696525
0.044604227 -0.024577025 -0.08939015 -0.049395666 0.02754967 -0.09826126 -0.05340977 -0.018384613
-0.12579943 0.0050484017 -0.12508906 -0.08077363 0.023710877 -0.072486 -0.16775693 -0.040428504
-0.094718695 -0.020067185 0.090118565 -0.020790981 -0.0683656 -0.011918242 -0.038233556 -0.022635622
0.083969794 -0.15191294 -0.10437169 0.04219276 -0.120570116 0.019926086 -0.020500466 0.054928567
0.02202853 0.0038772554 0.043007907 0.03486467 -0.12340884 0.021142252 -0.093205556 -0.028725967
-0.0713448 -0.11761548 -0.112737276 0.053537536 0.08692602 0.07246488 -0.11057807 -0.013882302
0.058426183 0.04959112 -0.10779205 0.030078897 -0.0426724 0.17596708 0.052492402 0.09221916

res_block1.fc.weight f4 [256, 256]
00000000: 7a89 9dbd 6736 123e d344 a03d 9f64 c43b
00000010: 7e17 d13d 7b7b 823b ddf3 e8bd 3364 2fbc
00000020: ef7d 743d bfef 2abc 0120 00bd affb 043e
00000030: 3d41 d1bc 11ca 7b3d c01e d0bd 1bf5 49bd
00000040: f1fb 00be 86c8 f8b9 6c07 b6bc 1031 423c
00000050: e61d 05bd 420c 933d aa29 18be d6f7 5fbc
00000060: fc29 c7bd 0566 ecbc 92c8 52bd 7766 fdbc
00000070: c46c dbbd 1517 113d 6e5a c93d 9f51 583d
00000080: 78d1 993d 239b bd3d 1594 cabc c813 833d
00000090: 9f63 943c ec7e 4d3d e076 43bc c015 9abd
000000a0: a17b b03c 9c05 973c cd71 b23b 9fc4 073e
000000b0: dca4 db3d 1ba0 80bb a38f 2b3d 7355 d03d
000000c0: 66ca b23c a175 183b 1b99 fbbd 6343 2c3d
000000d0: 1e2a d9bd 81c9 163d 04df 853d 7e5a fdbc
000000e0: 7ad5 8cbd bd26 933d 0d2c 2abb a7e8 3abd
000000f0: 84e8 a5bd 086b d53c 4263 24be 8086 ff3d
00000100: 7845 943d aba7 68bd 4b17 1e3e deb7 a23d
00000110: 90bc 8c3c f0f2 b8bb b0df 223d f1fb aebd
00000120: e9cb ce3d 3d28 0f3d ca3c 17bd 3681 2d3d
00000130: 73c6 8f3d 56fa acbc 4008 333d 3ae4 13be
00000140: 4622 813d 4050 a13c cfc9 cdbc 77d4 373c
00000150: 918a b23d 9530 673d eb08 5ebd f651 15be
00000160: 204c e23d 0546 c0bc c9b0 a4bd a984 863c
00000170: 565e b2bc 0dca 0c3d b267 3d3d 91f0 ef3c
00000180: 6695 00be c650 a03d 8497 03be e3f3 0cbd
00000190: 0823 2cbd fd8e 5c3d e0e6 bdbd 4cff 2e3d
000001a0: 23f9 e83b b238 3bbd 4909 e83b 03f8 7ebd
000001b0: 5780 8a3d 91af 903a 5e4a a2bd 1a55 a83d
000001c0: 0b7a 8bbd 8056 cf3c 1a45 b6bd 7436 6e3d
000001d0: 12fa 3d3b ed11 593d 66fc c9bd ac9b bd3d
000001e0: 8aae 953d cdf8 6fbc 7479 8a3d b6fe a23d
000001f0: 1476 76bc 23ce f33b 0dfb b93c 9cd8 fdbd
00000200: f7d7 e9bd f9b7 a9bd 54b5 cd3d ddd0 57bd
00000210: e123 953c 72c6 d7bc f58c 85bd 4a2e 91bd
00000220: 7039 9a3d efa7 973d eff1 d73a 4e02 c73d
00000230: 97ce 713d 0900 b7bb a832 1abc f12e 333d
00000240: 0fb8 59bd 00c7 5c3c 5d95 463d c013 c13d
00000250: b685 503d 174c 91bd 019c 1d3c 39cd 143b
00000260: 0452 26bd a973 3bbd c7cd bfbc 583c 82bc
00000270: 1250 b23d a121 e13c a82a 2fbd 7b23 1b3c
00000280: 14b0 debc 6531 71bc 89a1 cc3d 2f5c cc3c
00000290: 0374 aabd c13a babd d6db 80bd 93a1 7cbd
000002a0: 5c8d b4bd 8652 90bd f02e d63c 6038 9e3d
000002b0: 323b ae3c 290b c239 d4f1 cabc d434 ea3d
000002c0: e2dd 30bd 2426 c9ba ad82 9fbd cd65 1fbb
000002d0: c215 a53c 8778 26bd d129 73bd 065e 2f3d
000002e0: 5c5b 5e3d 36e4 fbbd 691b ec3c d610 9f3d
000002f0: 678b 17bd ffa1 8a3d fdc8 7ebd 57c9 dabd
00000300: f308 093e 1d9e 373d 89e6 283c 458a 8ebc
00000310: 9ad1 0f39 5e7a 22bd efa0 093d 8f6e cabc
00000320: 29d5 1d3e 71c7 3ebd 44da 6fbd d286 ae3d
00000330: 6ae7 623c 16da 3f3d bb89 b83d 87e6 33bd
00000340: dd9c d63d 2b6f 7dbd c61d e6bb be97 643d
00000350: 94b3 b93d 09a8 793d 3228 9bbd 1d37 c6bd
00000360: 55d1 c8bc 820b 3cbd de6a 0ebd 2a7e c03d
00000370: bb59 143c ca74 323d d1f2 e33b c148 a9bc
00000380: b8ce 153d 7d65 723c 3b64 883d 7088 f73d
00000390: ce70 cc3c 17e5 813d d2f1 2ebd a5bf 143c
000003a0: 78f5 11bb e96a c0bc ba40 fa3c 8797 10bd
000003b0: c0f4 f3bb e1ec 0cbd 869e 483d 3bdc 0fbd
000003c0: 2c87 8b3d aa5d 803c 0d0e 773e 2607 dcbb
000003d0: 0222 70ba 96fd 35bd 0e9d cbbc 67ac f53d
000003e0: d5f9 323d e3ac 2dbd 3b67 e73d 26a9 15bd
000003f0: 632b 56bc 5536 383c d2c7 983a 1cc3 e93d
-0.07692237 0.14278565 0.07825627 0.0059934403 0.10209559 0.003982005 -0.11374638 -0.010705042
0.059690412 -0.0104331365 -0.03128052 0.12986635 -0.025543803 0.061472002 -0.10162115 -0.049306016
-0.12596108 -0.00047451648 -0.022220336 0.011852518 -0.032499216 0.07180072 -0.14859644 -0.013669929
-0.09724805 -0.02885724 -0.05146081 -0.030932648 -0.10714105 0.035422403 0.09831701 0.052812215
0.07510656 0.092581056 -0.024728814 0.06400257 0.01811391 0.05016987 -0.0119301975 -0.0752368
0.021543326 0.018435292 0.005445695 0.13258599 0.10724804 -0.003925336 0.04188503 0.10172548
0.021825027 0.0023263472 -0.12285062 0.042056452 -0.10603736 0.036813263 0.065366775 -0.03092694
-0.06876655 0.07185123 -0.0025966198 -0.04563203 -0.081009895 0.026052013 -0.16053489 0.12476826
0.072398126 -0.056800526 0.15438573 0.07945226 0.017179757 -0.005644195 0.039764106 -0.08544148
0.100974865 0.034950484 -0.036923207 0.042359553 0.07020273 -0.021115463 0.04370904 -0.1444253
0.06305365 0.019691586 -0.025120644 0.011220089 0.08717836 0.056442816 -0.054207724 -0.14582047
0.11049676 -0.023470888 -0.080415316 0.01642068 -0.021773499 0.03437238 0.04624147 0.029289516
-0.12556991 0.07827906 -0.12850767 -0.034412276 -0.042025596 0.0538473 -0.092725515 0.04272394
0.0071097775 -0.045708366 0.007081185 -0.06224824 0.0676276 0.0011038651 -0.07924341 0.08219357
-0.06810387 0.025309801 -0.08899899 0.0581574 0.0028988165 0.05299561 -0.09862594 0.09258208
0.07308681 -0.014646721 0.067614466 0.079587385 -0.0150428 0.007440345 0.022702718 -0.123948306
-0.11418145 -0.08287043 0.10044351 -0.052689422 0.018205585 -0.026339743 -0.06521026 -0.07088907
0.075304866 0.07405078 0.00164753 0.097172365 0.05903491 -0.005584721 -0.009411491 0.04374594
-0.053154048 0.01347518 0.048482288 0.09427595 0.050908767 -0.07094591 0.009619714 0.002270533
-0.04060556 -0.0457646 -0.023413552 -0.015897915 0.087066785 0.027481856 -0.04276529 0.009468908
-0.02718357 -0.014721249 0.09991748 0.0249463 -0.08322909 -0.09093238 -0.062919304 -0.061677527
-0.08816025 -0.0704699 0.026145428 0.077255964 0.02126846 0.00037010878 -0.024773516 0.114358574
-0.043180354 -0.001534645 -0.07788596 -0.0024322153 0.020151976 -0.040642288 -0.05936605 0.042814277
0.054286346 -0.12299387 0.028821664 0.07766883 -0.03699818 0.067691796 -0.062203396 -0.10682934
0.1338232 0.044828523 0.01030887 -0.017399916 0.00013715625 -0.03966748 0.033600744 -0.024710922
0.15413345 -0.04657692 -0.058557764 0.08521809 0.013849119 0.046838842 0.09010645 -0.04392102
0.10479138 -0.061873596 -0.0070225922 0.055808775 0.09067455 0.060951266 -0.07576026 -0.09678481
-0.02451388 -0.045909412 -0.034769885 0.09399064 0.009054597 0.04356841 0.006956436 -0.020664575
0.036574095 0.0147947045 0.066597424 0.1208657 0.024956133 0.063425235 -0.042711087 0.009078895
-0.0022271555 -0.023488479 0.030548442 -0.035300758 -0.007444948 -0.034405593 0.048979305 -0.035122138
0.06812891 0.015669663 0.24126454 -0.0067147193 -0.0009160341 -0.04443129 -0.024855163 0.11995774
0.04369529 -0.042401206 0.112989865 -0.036538266 -0.013071868 0.0112434225 0.0011656231 0.11414167

res_block1.fc.bias f4 [256]
00000000: 1d96 72bd 6d91 a63d 33fc 11bd 2683 71bd
00000010: 35a1 cd3d ad3c 3fbd fdf4 43bd 5d17 f23d
00000020: 9b7a 4f3d 42dd 5f3d 396c 82bd 5934 4f3d
00000030: 3b45 6c3c 973b 3b3d cef4 883d 9423 8a3d
00000040: 59d0 c73c 5aab f139 65f0 d93d af6f c83d
00000050: 6e22 d83c 27bf 2cbd 3a1c 3a3d 05d4 7b3d
00000060: d396 f3bb cc95 15be 657d a13d 6420 ee3d
00000070: fe68 893d feaa b6bb 5447 b73c c15d bb3d
00000080: e18c 083d e2ba 03be 0ddb bf3d 5abd 4c3c
00000090: b9eb 693d adc2 4f3d 2690 c43c 573d a73d
000000a0: 03a6 1c3e ac36 9c3d b1c2 cdbd 7303 a43d
000000b0: 6dcc ab3d 53c1 9ebb 0dd8 08bd 89b2 0ebc
000000c0: 9d3c e43c 8b92 b73d 993a 36be e3b8 103d
000000d0: 3f90 edbd a609 ac3d 0dc1 653d c531 603d
000000e0: d6a9 4f3d de55 f73d 0d79 02bd 02ba b23d
000000f0: 3670 85bd 5f99 b3ba 0e66 24be 33f9 c53d
00000100: caf9 7ebc 8a3d 243c 8685 ebbc 05a9 2c3d
00000110: 84b5 1c3d 4031 a93c 942b 14bd a8a7 3f3c
00000120: d023 ad3b e250 f93d c348 ff3d c1e6 bd3d
00000130: f183 e73d 9d1f 233d 56cc ba3d 41f3 213e
00000140: b202 853d 0ed1 c33d 4f1d 86bb 6306 af3c
00000150: 674c 093e 56ca 863d a1b7 88bd 08ae 093c
00000160: c151 343d d746 f63c 4c32 fabd 9b35 88bc
00000170: 3b2f f23b a7b8 90bd 9207 433d 7b0f bf3d
00000180: 0379 67bd f2a5 b33c 4641 b7bd df8a 233c
00000190: 3d2c 083d d1f5 a9bd 2767 e9bc 19d4 fd3d
000001a0: 197b 5cbd 5f6a 8c3d 09e2 683d f6a2 d63d
000001b0: d5d1 033e 794a 52bd 6273 c23d 57ba b03d
000001c0: 6ecf b2bb 3324 78bd c8a4 81bd 4972 8fbd
000001d0: f9e5 2a3c 1dab bf3d 8edd 693d 9936 db3d
000001e0: a22d b83d e35a fe3d aff0 803d ce29 c2bc
000001f0: bfb6 973d 58ca b53d 1257 e73c 6513 cebd
00000200: 0893 2fbe 8516 dcbc 461b 6a3c 3248 543d
00000210: 0cb2 c83d cfac 02be 0ec1 0c3e 19a9 053a
00000220: eace a4bc 19cc 2abd 556c a13d 30be 0c3c
00000230: 505f a43d 2b24 45bd 7eb0 fb3c f093 4c3d
00000240: 815a c03d ab80 3dbe 2e62 3e3c 0ba8 c0bd
00000250: 667f 1bbd 2543 d8bd 5a4c 733d c588 9f3d
00000260: 148f 7f3d 87cb f8bc c7a3 fa3c 2335 dc3c
00000270: 7f4d 99bd b72a a6bd a5cd a6bc dac4 0e3e
00000280: cf68 a23d 74ce fd3d 77ce c73d ddf3 993c
00000290: b3de b0bb 757d 583d 31fc cb3d c195 173d
000002a0: 469f a4bd 31fd 413d 1f49 00bd 5b52 e33d
000002b0: 5e44 5b3d 6f05 b83d fc0e c83d 73ea 0f3e
000002c0: 4c81 513d 1854 b03d 8f50 f9bc c7cb a63d
000002d0: 5590 d43d 1430 f93d ff15 c03d 3e6d 473d
000002e0: f218 203d e48b d73c 48b4 32bc 1d9b df3d
000002f0: 4f94 d13d a12f 4fbc 2215 b73d 5c38 dd3d
00000300: bc9f f53c 76bf 2dbd 064d 663d 0d64 953d
00000310: c4d3 62bb ed43 a23d 53d1 18bd d696 893d
00000320: 82b0 81bd f6aa ea3d ce15 573c 4bf7 903d
00000330: 468f b63d 3089 e93d 6e81 aa3c 880a 0cbe
00000340: d1ad c0bc cb0d 68bc 911b 9a3c dd56 973c
00000350: 2f3b 8b3d 7755 063d 9cd7 c2bd 6399 313d
00000360: 2fca 833d 3229 3bbd d2a3 59bd 3c8e f63c
00000370: da04 f03c 112f c13d b320 9b3b 2a35 c33d
00000380: 2377 b93d 2686 d23d 5772 213d 5a38 463d
00000390: 8a78 593d 28c9 bb3d aa20 2ebc aff0 8c3d
000003a0: 3e34 e2bc 3a53 723d 4cde 883d 6e21 983d
000003b0: d3e6 a73d 28ac bebd bc20 5abd 8a30 d93d
000003c0: 2d23 33bd 7d3e dbbd ebab d5bc 1332 b03d
000003d0: 047b 733d 3f3b 573d 4a8e b33d 48e8 d6bc
000003e0: cd7a fbbc 4cfa 65bd 6a4d 0fbe 9310 19bd
000003f0: e912 013e 4bea 21bd 9e1c 65bd 48e3 72bc
-0.05922519 0.081332065 -0.035640907 -0.058962964 0.100405134 -0.046688724 -0.04784106 0.118208624
0.050654035 0.054654367 -0.06368298 0.050587032 0.014420803 0.045711126 0.06687318 0.06745067
0.02439134 0.0004609477 0.10641555 0.09786927 0.026383605 -0.042174485 0.045437075 0.061481494
-0.007433751 -0.14607924 0.07885245 0.11627272 0.06709479 -0.005574583 0.02237288 0.091487415
0.033337478 -0.12864259 0.093679525 0.012496317 0.05710957 0.050722767 0.023994517 0.081659965
0.15297703 0.07627615 -0.100469 0.080084704 0.083886005 -0.0048448234 -0.033409167 -0.008709558
0.027860934 0.08963498 -0.1779579 0.03533257 -0.115997784 0.08400278 0.05609231 0.054734964
0.050699078 0.12076925 -0.031853724 0.087268844 -0.06515543 -0.0013702324 -0.16054556 0.096666716
-0.015562484 0.010024438 -0.028750192 0.042153377 0.038259044 0.020653367 -0.03617437 0.011697687
0.00528381 0.1217363 0.1246505 0.092725284 0.11304463 0.03982507 0.09121005 0.1581545
0.06494655 0.095613584 -0.0040928493 0.02136535 0.13408051 0.06581561 -0.066756494 0.008403309
0.04402328 0.030063076 -0.122166246 -0.016627124 0.007390884 -0.0706647 0.04761464 0.093291245
-0.05651189 0.021929715 -0.08947997 0.00998184 0.033245314 -0.08298839 -0.02849157 0.1239397
-0.053828333 0.06856226 0.05685619 0.10480301 0.12873013 -0.051340554 0.09494664 0.086292915
-0.0054568565 -0.060581397 -0.06330258 -0.0700422 0.010430806 0.09358809 0.057096057 0.10703773
0.08993079 0.12419679 0.06295907 -0.023701575 0.07407903 0.08876485 0.02823976 -0.10062293
-0.17145932 -0.026866207 0.014288729 0.051826663 0.09799585 -0.12761234 0.1374552 0.0005098745
-0.020118196 -0.04169855 0.07881991 0.008590266 0.08025992 -0.048130196 0.030723806 0.04994577
0.09392262 -0.18506114 0.011620088 -0.09407052 -0.037963293 -0.10559682 0.059398986 0.077897586
0.06239231 -0.030370487 0.030595673 0.026880806 -0.07485484 -0.08113616 -0.02036173 0.1394228
0.07930147 0.123928934 0.09756177 0.01879304 -0.0053976416 0.05285402 0.09960211 0.03700805
-0.080381915 0.047360603 -0.031319734 0.110996924 0.053531997 0.089854114 0.09768483 0.14054279
0.051148698 0.086097896 -0.030433921 0.08144336 0.10379092 0.12167373 0.093791954 0.048688166
0.03908629 0.026311822 -0.01090724 0.109182574 0.10233366 -0.012645633 0.08939578 0.10801765
0.029983394 -0.04241892 0.0562258 0.07294474 -0.0034611085 0.07923112 -0.037309002 0.06718223
-0.06332494 0.114583895 0.013127757 0.070784174 0.08914046 0.114031196 0.02081367 -0.13675892
-0.023520382 -0.014163445 0.018811973 0.018474037 0.06798398 0.03279635 -0.095137805 0.04335917
0.06435048 -0.045693584 -0.053134747 0.03009712 0.029299188 0.09432805 0.0047341227 0.095316246
0.09055927 0.10279493 0.039415684 0.048393585 0.05309347 0.09169227 -0.010627905 0.06881844
-0.027612802 0.059161402 0.06683025 0.07428251 0.08198323 -0.0931018 -0.053253874 0.10604961
-0.043734718 -0.10705278 -0.026082953 0.08603301 0.05944349 0.052546736 0.08767374 -0.026233807
-0.030698204 -0.056146905 -0.13994375 -0.037369322 0.1260487 -0.03953008 -0.055935495 -0.014824696

res_block1.ln.weight f4 [256]
00000000: a829 773f 92f7 713f e44a 893f 3111 813f
00000010: 5ade 513f ec9a 903f f574 833f 970c 3f3f
00000020: 0381 6b3f 8449 603f 9248 8f3f d64a 843f
00000030: c5ca 8c3f 5fd1 823f fe7e 4d3f 9c4e 493f
00000040: 2377 673f b6f1 7e3f 5aa1 523f ea7c 6c3f
00000050: 8e1b 893f 39de 7f3f 35f9 5b3f e970 3d3f
00000060: f236 6e3f 9300 983f ab1f 5c3f fc2f 4b3f
00000070: fa38 713f 1d7a 723f edad 753f c5c3 573f
00000080: a864 6c3f dc94 8e3f dec2 533f 2f27 773f
00000090: b169 6e3f b18f 6a3f fecf 5d3f 303e 583f
000000a0: 757c 423f 365b 5f3f 7d05 913f 5d80 6d3f
000000b0: 1f5c 583f 94fc 7e3f 9e2c 8e3f c1a5 8b3f
000000c0: 0689 413f 11b7 263f ad2f 973f 866a 433f
000000d0: 98d0 913f 3442 503f c912 283f e70a 473f
000000e0: 5e4b 4c3f fd97 543f 82dd 743f 9e70 513f
000000f0: 2389 7d3f ab42 743f e3bd 9c3f 3c92 4b3f
00000100: 2246 6e3f b7b6 6d3f a12b 6f3f a861 703f
00000110: ae99 713f 7c61 883f 1d46 943f 0d83 413f
00000120: 0b9a 873f 6110 4b3f 25d1 463f 0589 5a3f
00000130: 155c 583f 7106 403f e837 4d3f 1c1a 3d3f
00000140: dc5e 433f 322b 663f 7370 843f 702a 893f
00000150: 3391 393f 88a0 563f 942e 953f f12e 603f
00000160: 1a3a 613f bc41 823f 06b7 913f 3a92 833f
00000170: 5bf0 563f d8ab 923f a4ee 883f ade2 403f
00000180: dadd 8a3f ba98 833f 36c2 903f b7f6 613f
00000190: 4326 863f cb06 963f a96e 803f 35cd 423f
000001a0: 4458 823f 4407 4a3f 98a4 4b3f 0638 613f
000001b0: 627f 4f3f 977e 823f 5803 493f c1b5 6a3f
000001c0: ff6d 673f ccb2 8a3f 664e 9e3f bab0 963f
000001d0: ac58 653f bbaf 683f 6ee5 643f dee9 5f3f
000001e0: c0a9 5d3f a58b 2c3f 793d 813f 6077 823f
000001f0: 4254 623f eec5 5d3f 72b0 5c3f a5ff 923f
00000200: c027 a43f 658b 963f 56ef 7d3f 5229 483f
00000210: 6896 673f 925c a33f 9200 443f 1109 643f
00000220: 0dbf 7c3f 7834 823f 41d1 4f3f fa7b 583f
00000230: 981b 5b3f 525b 863f e012 6b3f 0fd3 603f
00000240: af25 6c3f 86a6 923f fd29 763f adac 883f
00000250: e7fc 753f fe88 983f 1a3b 343f a408 3c3f
00000260: e27a 873f ef0c 873f 5141 703f 21f4 803f
00000270: 74d5 953f be57 9c3f 23f9 7a3f 2d0f 583f
00000280: 95cb 3a3f a72a 793f fe85 493f 2eaa 8a3f
00000290: f03f 903f 29b3 463f 25aa 553f 796d 803f
000002a0: df0d 793f 65fa 423f 4da9 853f e2f5 5e3f
000002b0: 945c 863f 43d8 633f 3226 553f a239 483f
000002c0: 15d7 2a3f 1b47 5a3f c23e 833f 300b 7f3f
000002d0: 4777 263f a0fe 713f e7f1 4d3f b1d0 4f3f
000002e0: c773 7c3f 7614 833f 6f47 5a3f 502a 413f
000002f0: a4cf 5b3f 6bec 8a3f 7e1f 373f 848e 6b3f
00000300: bf60 4a3f 6ed4 6e3f 1275 863f 2df2 723f
00000310: d3f2 913f 0626 333f 88a1 883f 6bee 693f
00000320: ff5a 943f 07fa 413f 9e3c 693f 8da1 5b3f
00000330: bfab 573f ed3a 543f 9387 523f bca4 8a3f
00000340: 5662 773f 366d 8d3f 466e 843f c9f7 563f
00000350: d9a5 403f 309e 763f a3f6 903f a3f4 533f
00000360: 47ce 343f 9a3d 853f 204b 8d3f 7b4b 813f
00000370: 25b9 7e3f d6e4 6d3f 264f 643f c13e 6f3f
00000380: aa97 733f 8f2c 713f 7706 5b3f 2945 6b3f
00000390: 1502 4c3f c9d6 433f a646 8a3f cfcd 723f
000003a0: 35ca 593f 3410 563f 06da 1e3f 6f7c 253f
000003b0: dd9e 763f 1170 913f f174 833f 13eb 473f
000003c0: 9ece 893f 5191 943f 4490 7f3f d11d 753f
000003d0: 2e07 463f 417d 6f3f fdba 3f3f 0230 913f
000003e0: 30e6 993f 5b55 8b3f 3fee 8c3f a3d8 8b3f
000003f0: c0ab 663f 7878 8f3f b5c4 993f 7c7b 703f
0.9654794 0.9451839 1.072598 1.0083371 0.81979907 1.1297278 1.0270067 0.74628586
0.9199373 0.87612176 1.1194022 1.0335338 1.099938 1.0220145 0.802719 0.78635573
0.90416163 0.9958757 0.8227745 0.92378104 1.0711534 0.9994846 0.85927135 0.7400041
0.9305259 1.1875175 0.8598582 0.79370093 0.94227564 0.9471758 0.95968515 0.84283096
0.9234109 1.1139178 0.8271922 0.96544164 0.9313002 0.91625506 0.86645496 0.8446989
0.75971156 0.8724855 1.13298 0.9277399 0.84515566 0.99604154 1.1107366 1.0909959
0.75599706 0.6512309 1.1811424 0.76334417 1.1391783 0.8135102 0.65653664 0.7775101
0.798025 0.83044416 0.95650494 0.81812465 0.9903738 0.9541423 1.2245449 0.7952001
0.93075764 0.92856926 0.9342595 0.9389901 0.9437512 1.065475 1.1583897 0.7559059
1.0593885 0.7932187 0.7766288 0.85365325 0.84515506 0.7500983 0.8016343 0.73867965
0.7631662 0.8990966 1.0346817 1.0716076 0.7248718 0.838387 1.165484 0.87571627
0.8797928 1.017631 1.1383979 1.0279 0.83960503 1.1458693 1.0697827 0.7534588
1.0848954 1.0280983 1.1309268 0.8826708 1.0480427 1.1720823 1.0033771 0.7609437
1.0183187 0.78917336 0.79548025 0.8797611 0.81053746 1.0194882 0.7852073 0.91683584
0.90402216 1.0835814 1.2367675 1.1772683 0.8958843 0.90893143 0.8941258 0.8746623
0.8658714 0.6740058 1.0096885 1.019268 0.8840982 0.8663014 0.86206734 1.1484267
1.2824631 1.176129 0.9919332 0.7818805 0.90463877 1.2762625 0.7656337 0.89076334
0.9872902 1.0172262 0.8117867 0.84564173 0.8558898 1.0496619 0.91825676 0.8782205
0.92245 1.1457069 0.9615782 1.0677696 0.96089023 1.1916807 0.7040268 0.73450685
1.0584376 1.0550822 0.93849665 1.0074502 1.1705766 1.2214277 0.980364 0.84398156
0.7296689 0.9733071 0.7872008 1.0833185 1.1269512 0.77617127 0.83462745 1.0033408
0.9728679 0.7616332 1.0442291 0.8709394 1.0497003 0.89001864 0.83261406 0.7821294
0.6673444 0.8526475 1.0253527 0.99626446 0.6502575 0.9452915 0.8044724 0.8117781
0.9861416 1.0240619 0.8526525 0.7545519 0.8586371 1.0853399 0.7153243 0.92014337
0.7905387 0.9329289 1.0504477 0.9490078 1.1402229 0.69979894 1.0674295 0.9137942
1.159027 0.75772136 0.9110812 0.8579338 0.8424644 0.82902414 0.8223812 1.0831523
0.96634424 1.1048954 1.0346153 0.8397184 0.75253063 0.96335125 1.1325268 0.8279516
0.70627254 1.0409424 1.1038551 1.010116 0.9950126 0.929273 0.8918327 0.9345513
0.95153296 0.94208616 0.8555674 0.91902405 0.79690677 0.7649961 1.080281 0.9484529
0.8507417 0.83618474 0.6205143 0.64642996 0.96336156 1.1362325 1.0270063 0.7809307
1.076618 1.1606847 0.99829507 0.9574862 0.77354705 0.935505 0.74894696 1.1342776
1.2023373 1.0885423 1.1010207 1.0925487 0.9010582 1.1208639 1.2013155 0.9393842

res_block1.ln.bias f4 [256]
00000000: 4f10 04be aca0 4bbe 9615 3abe a227 5bbe
00000010: 57dc 48be ccbc f6bd 2013 28be 4f41 1bbe
00000020: 03f7 fcbd 6cee 57be 2471 57be f0b3 2fbe
00000030: a26e b3bd 96db bdbd 5027 76be 3894 3dbe
00000040: a1e2 febd ff3a 3fbe 204b cebd 075a 0dbe
00000050: 7a06 abbd 9d4b 19be 6f45 c1bd 0158 51be
00000060: 85eb 53be 741e 15be d044 53be 7e5f 74be
00000070: 058f 44be 0ecb 15be e30a 0cbe 9653 5fbe
00000080: 52f0 11be 583a cbbd 136a 64be acae 19be
00000090: 315f 1bbe 766f 47be f642 1ebe 1da7 32be
000000a0: 0c74 65be 55b7 17be 4ed7 a3bd 23da 92bd
000000b0: 0398 55be df73 13be 7e93 c8bd cf28 e9bd
000000c0: cb0d 4ebe ba3f 97be 86b9 38be 2491 82be
000000d0: c688 e1bd 8215 67be 3eba 8dbe 3367 63be
000000e0: f20b 43be 98b7 3fbe b5c8 18be e806 41be
000000f0: 37e9 01be d1c7 67be e87e 20be 4fa3 60be
00000100: 0a32 4abe 7795 68be 108b 0dbe e8c4 10be
00000110: 82fc 0dbe 6bf0 3bbe b3a9 97bd f470 8fbe
00000120: 91ed 3fbe 8a86 41be be9d 49be fef6 38be
00000130: 1bab 3ebe 14b0 5abe 3bf0 40be fcad 83be
00000140: e301 35be abbf 63be 2aea 10be ddcf a6bd
00000150: ece9 74be 66ac 13be bbd3 afbd 6abb 35be
00000160: 10d1 5cbe 99fe e9bd 9f2e 5fbe 6af8 bbbd
00000170: 64e7 59be ad9b 38be 88a1 78bd 1def 73be
00000180: 288b a3bd 0a1d bcbd 95ee d9bd a12d 68be
00000190: c57b 1abe 3a91 b9bd cf14 31be be69 5fbe
000001a0: af30 69be d61b 52be b005 2fbe 4574 06be
000001b0: c06d 16be a66c 5bbe fe35 51be 7900 03be
000001c0: c358 67be d447 0bbe 7d72 18be f107 68be
000001d0: e0fc 67be 4d8b 25be 4dcb 59be 9e28 12be
000001e0: 658d fdbd 8c03 78be b9b1 34be 2ddb fcbd
000001f0: ddf9 0bbe 841a 43be f37c 7ebe 8dae 27bd
00000200: d3a6 21be 2f14 45be 5f5d 17be 09fd 2dbe
00000210: de79 37be a610 1dbe 6d93 5dbe 1b89 43be
00000220: e290 48be df71 a5bd 8a47 62be aae7 65be
00000230: b527 eabd 2fa8 2cbe f10f 3bbe c0aa 49be
00000240: 66b3 1ebe e028 76be c901 30be dcfa a6bd
00000250: c602 51be 8a4e 81bd f979 6abe 25ae 66be
00000260: b9e6 23be eaa5 3ebe 8e9d 31be a82a dabd
00000270: a8e6 47bd 73e3 10be dd6e 3fbe b8ec 38be
00000280: 6fa9 83be c7b6 08be d13b 6fbe b0ed ecbd
00000290: 614c f7bd 7898 40be e10f 03be d915 2ebe
000002a0: c234 31be 7ea1 8abe 6c70 67bd b3f7 a1bd
000002b0: ad8d a3bd aed6 0ebe adac 34be 7202 36be
000002c0: 0437 6dbe a708 17be 4af7 04be 0782 c0bd
000002d0: 0a49 94be 27c3 08be e809 31be fe8d 65be
000002e0: 3e64 10be 6e75 1bbe cc82 34be 3bf1 3abe
000002f0: 4724 f5bd b966 4dbe c5dc 53be 8fb6 12be
00000300: 1e03 37be cafa 32be f4e0 2fbe a381 18be
00000310: ba30 3fbe 936c 89be dcf2 32be 3ece 34be
00000320: 74ba a4bd 8545 37be 77ea 46be 1727 1cbe
00000330: 0726 4cbe faf1 1ebe ed6a 35be dd4c 6cbe
00000340: d960 fabd 464d f8bd a6d4 01be 7985 4abe
00000350: 5630 75be c60f 05be 66af 54be 130b 3dbe
00000360: c112 63be b62d 1ebe 6168 c5bd 6ca0 1dbe
00000370: b527 afbd 8215 51be 16f6 63be 58e1 5abe
00000380: 8336 25be 900c c6bd 9424 56be 8cf2 50be
00000390: d77d 52be 508e 6dbe afef 0dbd 4e6e 4ebe
000003a0: 0238 78be 2e8d 51be 3264 99be 0829 75be
000003b0: 3cc0 14be 085a 22be 9145 acbd 5f97 2fbe
000003c0: 1f9b 3dbe 2d16 2cbe 1d78 08be b85b ecbd
000003d0: 8400 77be 5ab2 08be 89de 3cbe 4099 16be
000003e0: 32c9 b3bd dccc 92bd 1598 68be 71dd bebd
000003f0: b1dd 24be e505 1cbd 19fd e4bd 6bf7 24be
-0.12896846 -0.1988551 -0.18172297 -0.21401837 -0.19615303 -0.12047729 -0.16413546 -0.15161632
-0.12351801 -0.21087044 -0.21039253 -0.17158484 -0.08761336 -0.09270398 -0.24038434 -0.18513572
-0.1244557 -0.18674849 -0.10072923 -0.13803874 -0.08350845 -0.1497025 -0.094370715 -0.20443727
-0.20695312 -0.14562398 -0.20631719 -0.23864552 -0.19195183 -0.1462824 -0.13676028 -0.21809229
-0.14251831 -0.099232376 -0.22306089 -0.15008038 -0.15173031 -0.19476113 -0.15455231 -0.17446561
-0.2240755 -0.1481603 -0.080000505 -0.071705125 -0.20858769 -0.1439967 -0.09793757 -0.11384737
-0.20122449 -0.29540807 -0.18039522 -0.25501359 -0.110124156 -0.22566798 -0.27681154 -0.22207336
-0.19047526 -0.18722379 -0.14920314 -0.18850291 -0.1268662 -0.22634818 -0.15673411 -0.21937297
-0.19745651 -0.22713266 -0.1382258 -0.14137614 -0.13865855 -0.18353431 -0.074054144 -0.28015864
-0.18742968 -0.18898979 -0.1968908 -0.1806297 -0.18619959 -0.21356231 -0.1884164 -0.25718677
-0.17676501 -0.22241084 -0.14151827 -0.081451155 -0.23917359 -0.14421234 -0.08585306 -0.17747274
-0.21564126 -0.11425514 -0.21795128 -0.091782406 -0.21279675 -0.18028136 -0.060700923 -0.23821683
-0.07985526 -0.09185226 -0.10641209 -0.22673656 -0.15086277 -0.09060903 -0.17293094 -0.21817681
-0.22772478 -0.20518431 -0.17092013 -0.13130291 -0.14690304 -0.21428165 -0.20430753 -0.12793149
-0.22592454 -0.13601619 -0.14887424 -0.2265928 -0.22655058 -0.1616642 -0.2126896 -0.14273307
-0.123804845 -0.24220103 -0.17645921 -0.12346492 -0.13669534 -0.19053084 -0.24852352 -0.04093795
-0.15786295 -0.1924598 -0.14781712 -0.16991057 -0.17917582 -0.15338382 -0.2163827 -0.1909527
-0.19586518 -0.0807836 -0.22097602 -0.22451654 -0.11433355 -0.16861032 -0.182678 -0.19694042
-0.15498123 -0.2403903 -0.17188181 -0.081533164 -0.20411214 -0.06313808 -0.22898091 -0.22527368
-0.16005982 -0.18617979 -0.17345259 -0.10652667 -0.048803955 -0.14149265 -0.18694635 -0.18059051
-0.25715205 -0.13350974 -0.23362662 -0.11568773 -0.12075115 -0.18808162 -0.12799026 -0.17000522
-0.17305282 -0.27076334 -0.0565037 -0.07908573 -0.07986007 -0.13949081 -0.17643996 -0.1777437
-0.23165518 -0.14749394 -0.12984958 -0.09399801 -0.28961974 -0.13355695 -0.17288935 -0.22417447
-0.1410074 -0.15181515 -0.1762802 -0.18256085 -0.1196981 -0.20058717 -0.20689686 -0.14327453
-0.17872283 -0.17478481 -0.17175657 -0.14893202 -0.18670931 -0.26840648 -0.17475456 -0.176568
-0.080433756 -0.17897613 -0.19425379 -0.15249287 -0.19936381 -0.15521994 -0.1771657 -0.23076196
-0.122255035 -0.12124114 -0.12678775 -0.19777478 -0.2394422 -0.12994298 -0.20770034 -0.18461256
-0.22175123 -0.15447125 -0.09639049 -0.15393227 -0.085524954 -0.20418361 -0.22261843 -0.21375024
-0.16134076 -0.09670365 -0.20912391 -0.20405024 -0.20555817 -0.23198819 -0.03465241 -0.20159265
-0.24240115 -0.20464012 -0.29959255 -0.23941433 -0.14526457 -0.15854657 -0.08411706 -0.17147587
-0.18516205 -0.16805334 -0.1332707 -0.115409315 -0.2412129 -0.13349286 -0.18444265 -0.14706898
-0.08778609 -0.0716798 -0.22714265 -0.0931958 -0.16100194 -0.03809156 -0.11181087 -0.16110007

res_block2.fc.weight f4 [128, 256]
00000000: ca9b 69bd d2e1 ae3c d474 2b3d 63fe dabd
00000010: 54fc 11bd 976a 8a3d a9dc 1bbe b268 6cbd
00000020: 28b2 213d 780d 2fbd 2833 d5bd 95f0 bdbc
00000030: 8ab6 36bd 054e 183d 8da2 7ebc 7ce0 9abc
00000040: 367a 6bbd 690f ea3c ff61 f63b e13c 8e3d
00000050: 26f2 e7bc 444b bfbd 6ba0 96bd f4bd 8fbd
00000060: ae12 3d3d 3f25 b53c ccf5 063d 49f1 5ebd
00000070: bc2a 813a cadd a33d 94df 373d f1f7 a23b
00000080: 3d90 f7bc 246e 36bd 9e04 1d3c aa34 5dbd
00000090: 95c7 7bbd 2c4a ec3d 6e70 42bc 0619 52bd
000000a0: c009 b03c dcab 523d 6cff 883d ddf7 d5bc
000000b0: 6263 c6bc df5c 333c cf5a 4f3a 8a6b 363d
000000c0: 6285 3e3d 0d27 3bbd 95e3 433d 0b4e e7bc
000000d0: 92f6 43bc 2aeb e13c 5ce7 91bb 441b d93d
000000e0: 01fc 8b3c c037 0a3c 3d75 41bb 8991 0fbd
000000f0: 4cf6 86bc eb84 2abd 9697 8f3d 7e94 653c
00000100: 7b2a 3a3d 9b46 0cbd c720 a6bc 6c45 adbd
00000110: 9300 08bd 22c5 e03d 3752 8bbd a512 413d
00000120: 37fd bb3d 1455 b53b 666f 58bc 2bbf 31bb
00000130: 566e 533b 8b4d 4b3c 37af 33bd bdf7 0d3d
00000140: 09e0 383b 36f3 4b3c 05eb c2bc ea78 29bd
00000150: 0598 89bb faab b2bd 6aef a0bd 66c1 873c
00000160: 772e 833d 1690 33bc ead9 50bc 50b6 ef3c
00000170: 44e8 9abd 649d dcbd d809 053e e71b 5bbd
00000180: 208b 96bd 9ba4 1cbd 7349 0b3e 2928 7f3c
00000190: 34ba 2e3b e737 e43d 0cf8 8ebd d2af eb3c
000001a0: 9c15 9e3c 1d70 7d3c 454c bc3d 4a9a 64bc
000001b0: 2c59 b3bc ec19 58bc fb4f da3d bde2 a43d
000001c0: 57f4 803d bf7d 713c db94 273d ce96 82bd
000001d0: e57c 633d 73f8 5bbd 872c da3c 9e22 993c
000001e0: 5b8f 30bd bb42 6dbd 74b5 c8bc a0ce 803d
000001f0: 06a2 73bd 49d5 c43c e682 a53b 5f06 773d
00000200: 997b ea3c 05d7 e7bd b0ce c63d 058d 933c
00000210: 8963 a3bc 407c 21bd 2843 b8bc 5630 853d
00000220: 0ca2 08be cf65 a7bd 2591 2c3d 53ce 9a3c
00000230: 4eca 08bd df61 f4bd a0c7 4d3d 7617 a63b
00000240: 7317 f53c 77f0 cfbd 1832 48bd 4c5a a63d
00000250: 85d3 b4bd 3cff 96bd eca4 98bd 0763 d6bc
00000260: 13fa 2d3c e210 ffbc baa0 9ebc 01e6 66bd
00000270: 766c e6ba 31c3 a2bb c9ac c6bc b94d 743c
00000280: 5ad6 55bc 77d6 923d 1496 b839 2a16 37bd
00000290: 0bb8 9cbb 0f54 5ebb 09fe e4bc fd6e 34bd
000002a0: ec11 c33c 66da 843d 8472 97bc 7666 e7bc
000002b0: 83df 47ba 7a8f 5d3c de71 96bc 11ef 1938
000002c0: 7a98 0bbd 1012 0dbd bd0b bc3c 11d0 68bc
000002d0: c0be 9cbd 2a8d d83c 7b11 8fbc a280 db3d
000002e0: 05e9 263c db3d 78b9 257f 03bd 11f3 35bd
000002f0: e17b d9bb 117f 59bd 5bfa 2e3d 5e44 f53c
00000300: 2d81 9fbd 74d1 d83b 3021 b9bc 9439 25bd
00000310: 3a8d f1bd 5fea 49bc 7b45 03be 639f 3ebc
00000320: abdf 2fbd 0782 543c 7f5a 323b 20d4 26bc
00000330: 757e f4bc 3a0f 023d e33b b83d 91b7 aabc
00000340: cf90 a03d 062a 14bd 2269 803c 28a3 ca3d
00000350: ff01 cd3c c67f a83c 1dc8 57bd 8a15 073d
00000360: b1ea 623d 062d 1dbd 4206 b23d a014 323d
00000370: 7f82 3bbd 8075 983d 642a 113d 7bcc 063d
00000380: 78de 91bc 3a88 05bb 24af 27bd 8e05 54bd
00000390: d731 253c 6abc a4bd 8b99 af3d cec3 24bc
000003a0: f25a 63bd 9455 2ebd e047 b6bc 91e1 b6bc
000003b0: 2190 683d f501 a2bc 80f1 883d 305b 92bd
000003c0: 3cbd 36bd afe3 cb3b 10e7 a73d 50c9 08bd
000003d0: c6df 053d 3edd 9f3d ecfd d13c 784b d33d
000003e0: cd8b f0bc 0625 063d eeb7 cebc 117c 673d
000003f0: b777 753b c12c dd3a 07bf 483d ccf7 a2bd
-0.057033338 0.021347914 0.041859463 -0.10693052 -0.03564103 0.06758612 -0.15220894 -0.057717033
0.039476544 -0.042737454 -0.10410148 -0.023186008 -0.044607677 0.03718378 -0.015541685 -0.01890587
-0.057489596 0.028571801 0.0075190063 0.069452055 -0.028313708 -0.09340528 -0.07354816 -0.070186526
0.046160392 0.022112487 0.032949254 -0.054429326 0.0009854655 0.08001287 0.044890955 0.0049734046
-0.030220145 -0.044538632 0.00958362 -0.054005302 -0.061469633 0.11537585 -0.011867626 -0.051293395
0.021489024 0.05143343 0.06689343 -0.026119167 -0.024217311 0.010947435 0.0007909955 0.04453615
0.046513923 -0.04569154 0.04782446 -0.028235456 -0.011960642 0.027577955 -0.004452629 0.10600904
0.017087938 0.008436143 -0.0029519342 -0.035050903 -0.016474865 -0.041630667 0.070113346 0.014012454
0.04545067 -0.034247022 -0.020279301 -0.08460507 -0.033203673 0.109751 -0.068027906 0.04713692
0.09179156 0.0055338237 -0.013210153 -0.0027122002 0.003226181 0.012408624 -0.04386827 0.03466009
0.0028209707 0.012448123 -0.023793707 -0.04137508 -0.0041990303 -0.08724208 -0.078581646 0.016571712
0.06405347 -0.010959646 -0.012747267 0.029261738 -0.075638324 -0.107722074 0.12992036 -0.053493407
-0.07350755 -0.038242918 0.13602237 0.01557354 0.0026661279 0.11143475 -0.06980905 0.028770361
0.019297414 0.015468624 0.09194235 -0.013952801 -0.021893106 -0.013189774 0.10659786 0.080510594
0.06296604 0.014739453 0.040913444 -0.0637642 0.05553903 -0.053703737 0.02663256 0.018693265
-0.043105464 -0.057924967 -0.024500586 0.062894106 -0.05948069 0.024027484 0.0050510047 0.06030881
0.02862339 -0.113203086 0.09707391 0.01801158 -0.019944923 -0.039425135 -0.02249296 0.0650336
-0.13343066 -0.08173715 0.042130608 0.018897211 -0.033396058 -0.1193273 0.050239205 0.0050687147
0.029918408 -0.10153287 -0.048875898 0.081226915 -0.08829407 -0.07372901 -0.07453331 -0.026170267
0.010618704 -0.03113598 -0.01936375 -0.056371693 -0.0017579931 -0.0049671163 -0.024252312 0.014911109
-0.013051594 0.07169812 0.00035207032 -0.04469887 -0.004782682 -0.0033924615 -0.027953165 -0.04405116
0.023812257 0.06486969 -0.018487222 -0.0282471 -0.00076245534 0.013522977 -0.018364843 3.670069e-05
-0.03408096 -0.034441054 0.022954816 -0.014209763 -0.0765357 0.0264345 -0.01746439 0.10717894
0.010187392 -0.00023674166 -0.032103676 -0.04442126 -0.006637082 -0.053099696 0.042719226 0.029939827
-0.0778831 0.0066167656 -0.022598833 -0.040338114 -0.11794515 -0.012323945 -0.12819473 -0.01163468
-0.042937916 0.012970454 0.0027214584 -0.0101824105 -0.029845456 0.031752802 0.089957975 -0.020839484
0.0784012 -0.03617289 0.015675131 0.09894401 0.025025366 0.02056874 -0.052681077 0.032979526
0.0553996 -0.038373016 0.086926 0.0434767 -0.045778748 0.07444286 0.035440817 0.03290985
-0.017806277 -0.0020375387 -0.04093851 -0.05176311 0.0100826835 -0.0804375 0.08574208 -0.010056449
-0.055506654 -0.042562082 -0.02225107 -0.022324355 0.056778077 -0.019776324 0.066866875 -0.07146299
-0.04461406 0.0062222104 0.081983685 -0.03339511 0.03268411 0.078058705 0.025633775 0.10317129
-0.029363537 0.032750152 -0.025234189 0.056514803 0.0037455389 0.00168743 0.049010303 -0.0795742

res_block2.fc.bias f4 [128]
00000000: 15df 373d a47d 1e3e b8f4 a43c 71df 37bd
00000010: 9b43 2e3d 7565 b3bc a10d cc3c 9219 2538
00000020: ae4f ee3c d1fa 0e3d a6c1 05bd aafe 703d
00000030: 3dd4 e5bc 6294 bd3b 9f43 9abd 33aa 16be
00000040: 048c 49bd a44d a7bb 36fe 293d ad87 4b3c
00000050: 0bf3 bf3d 782d a5bc 038a 423c 4daa c3bd
00000060: 6f45 b13d 92c0 d33d 4906 083e d12c 0e3d
00000070: 40f4 3f3d 38e3 bf3c f087 19bc 0351 20bd
00000080: f54d f83c 4d15 cb3c 2a2d 0c3d ecfe 103e
00000090: 2e05 ac3c 06f6 90bd 0f9d a03d 9b4e 51bc
000000a0: 3446 aa3d 4cba 62b7 9495 7c3d bc75 5e3d
000000b0: 7680 95bd da7c 92bd b750 b4bb 5998 05bc
000000c0: 291c babd 39d0 44bd 3419 253a d37a 65bc
000000d0: 6808 82bc 0846 b0bc 49f7 493d 7477 0a3d
000000e0: 7916 eb3d f3dd 3fbd 18f5 8ebd e705 343c
000000f0: e9cc 20bb 3165 1a3d c63b 5e3d 749c 6ebd
00000100: d571 ea3d 8873 143d 903c 7abd 7852 413d
00000110: 4ece 483d 086a a0bc 8de5 043d 5682 6a3c
00000120: 1268 053d 2681 5ebd 8ceb 7abd 7f75 20bd
00000130: 85cc 2a3d 2daf 71bd cb8e fcb9 2bd7 483d
00000140: ddda 803d 20f7 d83c dd5d eabd 99ae 72bd
00000150: 8d15 6e3d 91a1 fd3c e60a 27bd 348c 843c
00000160: e2ce c3bc 1382 233d 0c7e 633d 88bb 08be
00000170: 46c9 92bc 9bd1 b1bd 23bb c0bb ebfc 3fbc
00000180: 9266 bbbb 322a 453d 0587 cebc 9e3b 4b3d
00000190: a5ab df3c 9ab3 903d 6dfc d33c da2e fb3d
000001a0: 0db5 793d c4ee c23c f644 553d 1ab3 d13a
000001b0: 854d bc3d 562c 36bb bb5d 703d 2b6f 8a3d
000001c0: 7d17 9dbc 9aad 1fbe 015d e33d 84fe 21bd
000001d0: 3e48 3abd 3cf6 293d bef7 a13c 5440 80bd
000001e0: 7b9b b8bc 8f45 c53b c896 4bbb 56f2 4dbd
000001f0: 1f46 eabc 7ac0 c13c e4f8 48bd 931f 9d3d
0.044890482 0.15477616 0.020136222 -0.044890825 0.042544942 -0.021898964 0.024908843 3.936288e-05
0.029090729 0.034907166 -0.03265538 0.058836617 -0.028055305 0.005785511 -0.07532429 -0.14713363
-0.049205795 -0.005105691 0.0415022 0.012422484 0.09372529 -0.020163283 0.011873725 -0.09553967
0.086558215 0.10339464 0.13283648 0.03471071 0.046863794 0.023423776 -0.009370789 -0.03913976
0.03031061 0.02479043 0.03422276 0.14159745 0.020998564 -0.07078175 0.078424565 -0.012775089
0.083141714 -1.3514025e-05 0.061666086 0.0543115 -0.072998926 -0.0715272 -0.005502786 -0.008153998
-0.090874024 -0.04805014 0.0006298006 -0.014006334 -0.015873149 -0.021517769 0.049308095 0.033805326
0.11478896 -0.046842527 -0.06980342 0.010987735 -0.0024536198 0.03769416 0.054256223 -0.058254674
0.11447493 0.03624299 -0.061092913 0.04719779 0.049024872 -0.01958181 0.03244548 0.014313301
0.032569952 -0.054322384 -0.06125979 -0.039174553 0.04169895 -0.05900495 -0.00048171575 0.049033325
0.06291745 0.026485026 -0.11443684 -0.05924854 0.05812602 0.03096083 -0.040781878 0.016180135
-0.02390236 0.03991897 0.05554013 -0.13352787 -0.01791824 -0.08682557 -0.0058816834 -0.011718015
-0.0057190144 0.048135944 -0.025210867 0.049617402 0.027303526 0.07065506 0.025877202 0.122647956
0.06096368 0.023795493 0.05206772 0.0015998811 0.09194473 -0.0027797422 0.05868314 0.06759485
-0.01917624 -0.15593567 0.111017235 -0.039549366 -0.04547905 0.041494593 0.019771453 -0.062622696
-0.022535076 0.006020255 -0.0031065214 -0.050279938 -0.02859789 0.02365135 -0.049065486 0.07672038

res_block2.ln.weight f4 [128]
00000000: 306b 6d3f 2912 6b3f 182e 603f a0bb 633f
00000010: f0a0 713f 6f59 7b3f a7e7 663f 400c 7e3f
00000020: 9dc5 593f 4ec2 7a3f 99a4 843f 0414 7f3f
00000030: 6ddc 6c3f 84d0 633f 9f6e 633f ffe4 8c3f
00000040: e4d4 913f 9799 613f f709 593f e750 703f
00000050: 761e 633f 9570 3b3f d70b 4c3f f834 773f
00000060: c85d 773f 5dec 713f 2c62 823f 49d8 5c3f
00000070: f0eb 753f fffb 5b3f 0722 613f d475 723f
00000080: 001c 5f3f 678e 6c3f a701 703f 0ab7 803f
00000090: fd87 6f3f 9d45 643f ae99 533f f948 763f
000000a0: e8db 833f ae37 643f 519f 653f 49d9 753f
000000b0: 02b7 8f3f f716 813f f8d2 5f3f 81aa 723f
000000c0: d1ef 4e3f 904b 7a3f 847b 643f 416e 5c3f
000000d0: b805 873f 09ba 7b3f 4ad2 6b3f be2e 643f
000000e0: bc07 5f3f 321e 803f 95be 693f 01e9 7c3f
000000f0: 9d74 813f ac15 833f 3a14 683f eda2 773f
00000100: e0d2 653f a117 843f 9ab1 8d3f 583d 733f
00000110: d740 573f 32de 7f3f fbf0 7d3f 22fa 633f
00000120: 1107 613f 0978 623f 3867 aa3f d16c 823f
00000130: ff85 793f dff0 5d3f 594a 4e3f 6436 563f
00000140: 09e8 733f 00d7 563f d279 8b3f 70ca 8b3f
00000150: 2c84 723f cbff 813f 3f20 703f 0556 613f
00000160: d4ff 893f c15e 793f 6078 833f f981 6c3f
00000170: eb8a 653f 2ba1 7e3f a528 593f e09a 763f
00000180: 909b 7e3f 8969 613f 0503 943f cbaa 5d3f
00000190: a52f 753f 7f29 803f 9561 903f 763b 7e3f
000001a0: fdc7 683f 1c5f 753f 8278 6f3f b53f 843f
000001b0: 5223 773f 6e40 843f d8cf 713f 93fa 733f
000001c0: 17f5 483f cad3 8c3f 4cb9 6f3f 534a 8c3f
000001d0: 2e70 723f f4cf 7a3f a04d 883f 9a59 563f
000001e0: 0f68 563f 14bf 5b3f ebfd 533f 8a0d 5f3f
000001f0: 72ed 803f a465 543f 72ef 873f 3d87 583f
0.9274168 0.91824585 0.87570333 0.8895817 0.94386196 0.9818334 0.90197223 0.9923744
0.8506716 0.97952735 1.0362731 0.99639916 0.92523843 0.88990045 0.8884067 1.1007384
1.1393094 0.88124985 0.8478083 0.9387345 0.88718355 0.7321866 0.79705566 0.965652
0.96627474 0.94501287 1.018621 0.86267525 0.9606314 0.8593139 0.87942547 0.9471104
0.871521 0.9240479 0.9375252 1.0055859 0.93566877 0.8916872 0.8265637 0.962051
1.0301485 0.8914746 0.8969622 0.96034676 1.1227725 1.0085133 0.8743129 0.9479142
0.8083468 0.9777155 0.8925097 0.86105734 1.054862 0.9833074 0.9211775 0.8913382
0.87121177 1.0009215 0.9130643 0.98793036 1.0113713 1.0240989 0.90655863 0.9673298
0.89774895 1.0319711 1.1069825 0.9501548 0.8408331 0.9994842 0.9919583 0.8905355
0.8790141 0.8846441 1.331275 1.0189458 0.97470087 0.86695665 0.80582196 0.83676744
0.9527593 0.83921814 1.0896552 1.0921154 0.9473293 1.0156187 0.93799204 0.8802188
1.0781198 0.9741021 1.027111 0.9238582 0.89665097 0.9946467 0.84827644 0.9633007
0.9945612 0.8805166 1.1563421 0.86588734 0.95775825 1.0012664 1.127978 0.9930948
0.9093016 0.9584825 0.93543255 1.0331942 0.9653827 1.0332162 0.9445777 0.9530422
0.7849898 1.1002133 0.93642116 1.0960182 0.9470242 0.9797356 1.0648689 0.8373047
0.8375253 0.8583844 0.82809323 0.87130034 1.0072463 0.8296759 1.0619948 0.8458136
