best_residual_mlp_model.pth (torch, 701755 bytes, 24 tensors)

entry.weight f4 [256, 27]
00000000: 7109 ba3e 0e11 21bf edf1 0e3d 4efd 64bf
00000010: e45f 343d ca84 5b3e 1362 2d3f 1424 fabe
00000020: 8bda 1ebf bd4d 713f 33ea 303f 045a 49bd
00000030: abd2 453e 2acc 16bf 20b8 dbbe 6aa4 0abf
00000040: 75a0 90be 93d5 4a3f 1ac1 963d 9ec8 c1be
00000050: 8d47 e73e d51d 83bc 7d42 d1be 4e2f 6fbd
00000060: 2c3b 0b3f d87a 843e d925 85bc 41ea 3e3e
00000070: e57c 023e a9cd 3b3e 5b59 5dbe d913 993d
00000080: 84cd 5a3e f14c 81bd e185 0c3e 0da7 123f
00000090: 4bf7 a93d 3ae1 6c3e cbd3 0bbe aaaa 0e3e
000000a0: d40f 34be a8da f3bd af43 f53e 5f22 193e
000000b0: 5529 c33d e4c2 833e 9157 263e ffc8 4cbe
000000c0: 5a6a 3cbd a7b9 f83b adf0 a53d 2e46 a4be
000000d0: c7c5 903e 8e7d 89bd 3582 7f3f 4fa4 1f40
000000e0: 0543 183f f171 1ac0 7e35 2f3d d1b0 69bd
000000f0: 87da 28bc 5c51 5a3e 2f42 fd3f 58ef 893e
00000100: 726b 9e3f 9bee 6d3f 74a5 05bf f301 aa3f
00000110: 44eb 043e 3664 3340 d7b0 143f 99a9 1f40
00000120: 3843 70bf 09c1 053e 02bb 04bf 802b a6bf
00000130: a5f9 1540 63f3 c93f 947d 9cc0 0442 cd3e
00000140: 0a38 51bc 9173 503e 91b6 3540 736d 5e3f
00000150: 8ffc 8fbf 18a0 0dbe 9963 043e 0dc6 bfbe
00000160: 4c02 1b3f 4f32 e33f e6a3 5d3e 8f73 893f
00000170: 8dfb 9c3f 9526 8bbe 3eb7 ae3f 28a4 da3d
00000180: d7a8 3240 3253 1c3f 8aa9 893f 0c74 9bbe
00000190: 4374 e53d 7d7e dabe d9e0 34bf faf0 453f
000001a0: 5938 2e3f 59ac a1c0 4520 293f 5e78 91bc
000001b0: 108d 82be 02e3 363a 9034 b7be 7a95 033f
000001c0: 6b4a 7f3e b7f2 4ebe 27ea d7bd 431f 73bf
000001d0: e1d8 fdbe c9ba aebe a718 2cbf 2e4f c23e
000001e0: 88f2 ec3e 8531 84be 4355 f1be 859a ccbe
000001f0: dd21 433e beae b4be c04c 7dbf 3d76 a6bf
00000200: f26d 093e 3ef5 c23e cbe0 a7be 8a4a 78be
00000210: 36f7 183f 1b79 c33e 296a 3cbd 55e9 85be
00000220: eec0 a7bc b57b 68be 0065 903c 17d2 0c3e
00000230: da88 d03c 6f55 82bd 0bd9 c4bd aebd 8ebd
00000240: 34c8 58bc 9c22 abbd 6203 d6bc 699f 1abd
00000250: 632f 433e dd8f 043e cd6a afbd a55d 7b3e
00000260: 472f 873d 7dbb a33e d8b5 643e d6c9 19be
00000270: 0d09 90bb 4915 923e 34ed dcbb a233 1bbe
00000280: 8ed9 943e bc41 92bd 7514 f5be 73de c13f
00000290: 4b90 c5bd 0687 123f f384 083e 3bfd 84be
000002a0: 7cf1 42bf f932 63bc 3734 653f 5160 51bf
000002b0: 6393 e33e b0cd 9c3f 3394 12be 5e0c 9a3f
000002c0: cfc8 a33d ab5c ae3f 3046 243e d6a7 10bf
000002d0: 94f6 3dbe a262 8c3e bd63 aa3e 755d 393e
000002e0: dae0 58be 0d56 25be 2ca5 3ac0 8097 b13e
000002f0: 50d4 dabc 197f dcbb 381d 023e 3c8f 9dbc
00000300: 4aa8 623e 1e26 20bd ad84 883d 0ad9 bc3d
00000310: 7375 61be ddbe 303d 7a8e 5b3e dc1a 95be
00000320: cb22 b5bd 5681 cf3d 0a58 b7bc ca8b b7bd
00000330: 8111 62be 553e 9d3f a823 40be 2ed7 53be
00000340: a09f b5be 5a15 7fbf 408c 19be a7b9 a4be
00000350: 8c4c adbd cb99 b43e 1b19 8ebf 3fd9 a0bc
00000360: 3b6c b53d 5715 28be c1f5 903c 0828 5bbf
00000370: 7670 283e c14f 00be 0d2f 0b3e 5dc4 01be
00000380: 5668 9ebe a975 eb3c 51e0 7abe 4ab9 6a3e
00000390: 03e7 64bd dd22 3c3e 640d 1dbe 2e59 e53d
000003a0: 84c0 debd ce4f 2e3f 7d0a 6ebe d584 fb3c
000003b0: d599 9ebd 298e 55be 2d1e 0c3f bd91 593e
000003c0: d2ae 52bf 9703 ba3d 082a 3abc ed08 a1bf
000003d0: 55ac 0240 d58f 783e 6c44 373f c572 e63c
000003e0: 68d3 b4ba 2db8 3fbf e0f9 263f 248b b43f
000003f0: a919 99bf 28cf 603f 2feb ab3f 6773 d03c
0.36335328 -0.6291665 0.034898687 -0.8944901 0.04403676 0.21437374 0.67727774 -0.4885565
-0.6205222 0.94259244 0.6910736 -0.04915811 0.19318645 -0.5890528 -0.42913914 -0.54157126
-0.2824742 0.7923214 0.0736105 -0.3784837 0.45171776 -0.016005436 -0.4087104 -0.058394723
0.54387164 0.25874972 -0.016253399 0.18644048 0.12742956 0.18340172 -0.21616118 0.07474489
0.2136746 -0.063135035 0.13722946 0.5728615 0.082991205 0.23132792 -0.13655011 0.1393229
-0.17584163 -0.1190694 0.479032 0.14954518 0.09529368 0.25734627 0.16244341 -0.19998549
-0.045999862 0.007590491 0.08102546 -0.32084793 0.28275892 -0.06713401 0.99808055 2.4944036
0.59477264 -2.4132044 0.042775624 -0.05705339 -0.010306007 0.21320099 1.9785823 0.26940417
1.237654 0.9294221 -0.52205586 1.3281845 0.12980372 2.8029914 0.58082336 2.4947264
-0.9385257 0.13061918 -0.5184785 -1.2982025 2.343362 1.5777401 -4.8903294 0.40089428
-0.012769708 0.20356585 2.839268 0.86885756 -1.124895 -0.13830602 0.12928618 -0.37455788
0.6055038 1.7749728 0.21644554 1.0738391 1.2264267 -0.27177873 1.3649671 0.106758416
2.7915552 0.61064446 1.0754864 -0.30361974 0.11203816 -0.42674628 -0.7065559 0.77320826
0.6805473 -5.0522885 0.66064864 -0.01775759 -0.25498247 0.0006976576 -0.3578229 0.5139996
0.24930732 -0.20209776 -0.10542708 -0.94969577 -0.49579528 -0.3412688 -0.67225116 0.37951034
0.46278787 -0.2581903 -0.47135362 -0.3996164 0.19055887 -0.35289568 -0.98945236 -1.3004833
0.13420847 0.3807773 -0.3278869 -0.24247184 0.59752214 0.38178334 -0.04599968 -0.2615458
-0.020477738 -0.2270344 0.017626286 0.13752018 0.02545588 -0.063639514 -0.0961171 -0.06969772
-0.013231326 -0.083562106 -0.02612466 -0.03774968 0.19061045 0.12945504 -0.085652925 0.24547441
0.06600814 0.3197898 0.22334993 -0.150184 -0.00439561 0.28531864 -0.006742144 -0.15156415
0.2907223 -0.07141444 -0.4786717 1.5146011 -0.09646662 0.5723728 0.13331966 -0.2597445
-0.76149726 -0.013867133 0.895328 -0.8178759 0.44448385 1.2250271 -0.14314346 1.2035024
0.079972856 1.362203 0.160424 -0.565061 -0.18551093 0.27419 0.3327922 0.18102057
-0.21179524 -0.16146107 -2.9163313 0.34685898 -0.026712567 -0.0067290184 0.12706459 -0.019233339
0.2213451 -0.03909885 0.06665931 0.092210844 -0.2201746 0.04315077 0.21441069 -0.29122055
-0.08844527 0.10132091 -0.022380847 -0.089622095 -0.2207699 1.2284647 -0.18763602 -0.20687553
-0.35473347 -0.99641955 -0.14994907 -0.32172891 -0.08461866 0.35273585 -1.1101412 -0.019634841
0.08858534 -0.1641439 0.01769531 -0.8560796 0.1644915 -0.12530424 0.13592167 -0.12672563
-0.30938977 0.028742628 -0.24499632 0.22922245 -0.055884372 0.18372674 -0.1533714 0.1119865
-0.10876563 0.6809052 -0.23246188 0.030702988 -0.07744185 -0.20855011 0.54733545 0.21247001
-0.82298005 0.09082716 -0.01136256 -1.2580849 2.0417683 0.24273618 0.7158878 0.028130898
-0.0013795914 -0.74890405 0.6522503 1.4104962 -1.1960956 0.87816095 1.3431147 0.025445653

entry.bias f4 [256]
00000000: de62 7d3e 9d59 23be bb8a 04be 8557 2a3d
00000010: 6d73 c03e 2861 863b 57c3 aa3d 6f19 2f3d
00000020: c90f 1fbe 91e8 c6bd 57ca ab3e d814 b53e
00000030: 906d 2abc a052 be3d c06a 82bd 464a 1f3e
00000040: 461e af3e 25be 033e cfcf 99bd 8442 193f
00000050: fa24 343e 8b0b bebe 8e44 01bd 20af 72be
00000060: 7022 6cbd 65b5 b23d 0b0d 103f 5514 1b3e
00000070: 9ecc a73d fd8c b0be ba61 32be 110e 3a3e
00000080: 48b3 65bd d74d 01be 419c 31bd a179 cabd
00000090: 2f21 0abd b21a eb3e 3a36 873c 6c2c 913d
000000a0: 4aef 8ebd 06ff c13e 152d 85be 9243 ee3c
000000b0: 624b 6ebe d25c 9b3e 7b7e 9d3e beba 033d
000000c0: f536 4a3d 6b98 5a3e 5df6 c33e f038 153d
000000d0: f013 533e cf8c 1d3d 1896 873e 1e78 2c3e
000000e0: d820 18bc 9b42 1b3e 857f 0cbd 9343 f13d
000000f0: 1272 dabd b6b2 05be 99ff e03e 20b4 b7bd
00000100: 85e7 453d ec1c 9a3e 3cf4 56be bd07 673e
00000110: 7b57 c3bc 3199 d13d f093 b43e 3f14 dc3e
00000120: 886a aabe eedf fb3e 9e1b 4b3e f8ee b93c
00000130: b446 393e 2e7e 2d3e e2a2 89be 997f 9cbd
00000140: 590b e7be 4d4f 5d3e 040e 11be 56bd 7b3e
00000150: 376b df3d c08d 273e 7ff6 163e 57a6 bb3e
00000160: 585b 8fbe 48b0 0ebd fa55 a7bb b0b5 fd3c
00000170: a1aa b0be 447f 16be 4c36 023d f299 2abe
00000180: 74a8 f53e 9000 163e 9f79 693e 1bb5 763e
00000190: bcc9 103c dcdd 19be dcbf fa3d 499a 55bd
000001a0: 0074 c43e 1297 6c3e a525 a4bc 04e9 ef3d
000001b0: cca0 a7bd 7c54 e63e b6cb ac3e d8c2 be3e
000001c0: 85f3 abbd aea5 893e f827 d3bd e728 863e
000001d0: d38c 3ebe e44c e1bd a560 2c3f 0d5d 5e3e
000001e0: 415b 01be f9d5 02bf 1ab6 353f b196 163e
000001f0: 3b20 56be 4a90 c63e 5c11 903e 7ca1 ba3e
00000200: 31df 2e3d c719 6abd 1a53 bfbc 01c7 053e
00000210: 11a6 f73e b875 b73e 076c af3d d525 3b3e
00000220: ea8f f5bc 791d d13d ab2a 943d 0336 39bd
00000230: 315c 84bc 52e6 0f3d d9f4 4cbf 54d8 893e
00000240: a674 3d3f 4eba d33d 0a59 053e 7317 333e
00000250: df4c b33c 494b bf3e 8634 983e 6ef1 d6bd
00000260: 4e59 4c3e d1d8 593b d4d5 6a3d a1f4 163e
00000270: 2614 45be 2112 093e 3f9e 043f ac40 1a3d
00000280: 47e0 cebe 90f8 613c 548e e63e ee87 70bf
00000290: 4208 413c 0795 e8be 595c d4bd c86c 1bbe
000002a0: 0e19 233e 5057 53bd c30a 5b3f af26 afba
000002b0: 2315 adbc 08d3 613d 32bf 0f3f 84e2 2a3e
000002c0: 6f0f 763e db41 df3d acc3 cbbd d721 eabc
000002d0: 3837 59bd 11e3 ac3e 5664 41bd ce15 083e
000002e0: 1c31 333f ab85 30bd bf13 473e eefa 413f
000002f0: 0887 c73d 7d53 82be 30d1 a73d bff4 dfbc
00000300: c34d 47bd adfb 2d3e b23a 6cbd 5a30 b0bc
00000310: c300 d2be cedf 6bbd 082e 1b3f 314e 41be
00000320: 2ecf 1e3f eef8 61be 11e3 43bd d103 0c3e
00000330: 366d 733e 0b5b be3d b7d5 543e 06b1 003e
00000340: 3fa3 113f 76a0 713e c4b9 e8bc 26e1 47be
00000350: 80b9 fc3e bc88 1dbd f4ac 373e e1ef ab3e
00000360: 83cf 423e c657 ff3d 1c51 923f 0cc0 0ebd
00000370: 28ce 783e 676d ca3d 6a45 babe d942 983e
00000380: c195 433e 162f c63d 375f b4be a69d f93d
00000390: 128b 043f 9998 693b 2542 d53e bed8 f33d
000003a0: 3a96 603e 91ec cdbc 0780 913e 1c98 4c3c
000003b0: f1a9 cd3e 80e9 b23d cb08 bb3d b27a 9fbd
000003c0: 29d9 afbe bb52 c13e ee86 0e3f ad75 03bf
000003d0: 797e 15be 809e 09bf 0fda 1dbe df08 803e
000003e0: 2b51 893a 7ce2 04bf 59b2 4dbe 2ef7 233e
000003f0: 6432 68bd 0491 443e 27d6 273d 9db4 703e
0.24744746 -0.15952154 -0.12943546 0.04158737 0.37588063 0.0041009374 0.08338039 0.042748865
-0.15533365 -0.09712327 0.3355281 0.35367465 -0.010402098 0.09293103 -0.06368017 0.15555677
0.34202784 0.12865503 -0.075103395 0.5986712 0.1759223 -0.37118182 -0.03155952 -0.23699617
-0.05765003 0.087260045 0.562699 0.15144475 0.081933245 -0.34482566 -0.17420092 0.18169428
-0.05607918 -0.1262735 -0.043361906 -0.0988648 -0.033723053 0.45918804 0.01650535 0.07088551
-0.069792345 0.3788988 -0.26010957 0.029084954 -0.23270944 0.30344254 0.3076056 0.032160513
0.049368817 0.21347205 0.38273898 0.036431253 0.20613074 0.038464364 0.264817 0.16842696
-0.009285174 0.15162127 -0.0343013 0.11780467 -0.106662884 -0.13056454 0.43945006 -0.08969903
0.048316497 0.3010019 -0.20991606 0.22561546 -0.023845425 0.10234297 0.35269117 0.42984197
-0.33284402 0.49194282 0.19834754 0.022696957 0.18093377 0.16942665 -0.26882082 -0.07641525
-0.45125845 0.21612282 -0.14165503 0.24583945 0.109091215 0.16362667 0.14742468 0.36650345
-0.27999377 -0.034836084 -0.0051066848 0.030970424 -0.3450518 -0.14696985 0.031790063 -0.16660288
0.47980082 0.14648652 0.22800301 0.24092524 0.00883716 -0.15026039 0.122436255 -0.05214909
0.3836975 0.23104504 -0.020037482 0.11714366 -0.081849664 0.4498633 0.3374917 0.3725803
-0.08396057 0.26884216 -0.10310358 0.2620308 -0.18608408 -0.11000994 0.6733497 0.21715184
-0.12632467 -0.51107746 0.7098099 0.14705922 -0.20910732 0.3878196 0.28138244 0.36451328
0.04269332 -0.05715349 -0.023355056 0.13064195 0.48368886 0.35832 0.085655265 0.1827615
-0.02997585 0.102106996 0.07234701 -0.045217525 -0.016157242 0.03513176 -0.8006111 0.26922858
0.74006116 0.10338269 0.13022247 0.17489414 0.021887241 0.37362126 0.29727572 -0.10495268
0.19955942 0.0033240805 0.05733283 0.14741756 -0.19245967 0.13385822 0.51803964 0.037659332
-0.40405485 0.013792172 0.45030463 -0.9395741 0.011781754 -0.454262 -0.103691764 -0.15178216
0.15927526 -0.05159694 0.85563296 -0.0013362969 -0.021128243 0.055132896 0.56151116 0.16687971
0.24029325 0.10901233 -0.09949431 -0.02858059 -0.053031176 0.33766988 -0.04721483 0.13289568
0.6999681 -0.043096226 0.19441126 0.75773513 0.09742552 -0.25454322 0.08194196 -0.027338384
-0.048658144 0.16990538 -0.057673164 -0.02150743 -0.41016206 -0.057586484 0.60617113 -0.18877484
0.6203488 -0.22067615 -0.04782397 0.13673331 0.2377213 0.09294709 0.2078465 0.12567529
0.5688972 0.23596367 -0.028408892 -0.19519481 0.49360275 -0.03846048 0.1793707 0.3358145
0.19024472 0.12467913 1.1431003 -0.03485112 0.24297392 0.09884148 -0.36381084 0.297385
0.19100095 0.0967695 -0.35228893 0.12188272 0.51774704 0.0035643934 0.41652027 0.11906575
0.21932307 -0.025137218 0.2841799 0.012487438 0.40168718 0.08735943 0.091325365 -0.07787074
-0.34345368 0.3775843 0.55674636 -0.51351434 -0.14599027 -0.53757477 -0.15415214 0.25006768
0.001047646 -0.5190809 -0.20087565 0.1601226 -0.05668868 0.19195944 0.040975716 0.23506398

res_block1.fc.weight f4 [256, 256]
00000000: 1d2c 7e3d c34e 093e 5bef 77bd 80f2 bdbc
00000010: 793a 2bbe 1c46 2e3e 5a0d 803d ffa9 57bd
00000020: b34e 2e3d 9284 733d 34ec ebbd bbd7 10be
00000030: 7c9f 0f3d 8b6b 15bd 7851 d63c dae2 f9bb
00000040: 23cc d6be 1778 c83e 3f3e c13d a420 393e
00000050: ba48 60bd 785c 503e 6a10 14bd 6da4 48bc
00000060: f8b5 ebba 08d8 3e3d a301 bc3d ef19 dbbc
00000070: 499a a63c 8e59 f23b 915b 663d 63ad a93c
00000080: 3589 213e afb6 a3bd 2db5 243d d06a cd3d
00000090: a82f 523d 4c24 00be a29d 30be 0096 eb3c
000000a0: 5a57 29be 3197 01bf 9636 2c3e 2d0e 0cbe
000000b0: 4ac1 4c3d e006 823e 6337 013f 1c6f 783e
000000c0: ff10 d8bc 4c06 d43c a3ad 89bd f34d 94bd
000000d0: a077 85be 85c2 0ebe 0bc8 9ebe b2e9 133e
000000e0: 2838 0abd ee5b 053e e1e0 f2bc 82b2 89bd
000000f0: a0d1 843d 5b54 113d 2376 0b3f 2766 36bc
00000100: b290 153f 255c 23bc 086d 5e3c 2b2b 853d
00000110: 008f 073b 4410 2d3b 3014 ba3c 0da3 403e
00000120: a18b b7bc 063f 79be 37ff 1b3e 9295 cbbd
00000130: d1db eabd 858a 2a3e c42b 1abe 5ed7 93bd
00000140: 289e e33e a420 603e dec2 8dbc d7db 10bb
00000150: f107 3fbb e57b 46bf 59d3 4bbb 764c 8fbd
00000160: 03fb 73bd 95b3 e03d 62c1 c4bd 2d67 2abe
00000170: 5ef0 28bd 430e e83d e710 9b3e 6f91 72bc
00000180: 6a6c 89be 31d2 173e 6959 f33e 8e38 863d
00000190: 96d2 0b3e 6dc9 24be 4ebf b9ba 17e4 243d
000001a0: df04 493d ff94 42bd 6e2c c03e a34f 54bd
000001b0: 55f0 453d 3080 8cbe 3b06 a43e a605 9f3d
000001c0: ea57 153e 82fb 5e3d 8cb1 7a3c 9b71 2dbd
000001d0: 0e62 7dbd 7d70 58be fd4d 4dbe 1ae2 353f
000001e0: 5a0a 8abb 30a2 04bd 8479 613e db18 fcbd
000001f0: 3d70 9cbc 4a5b 24bf 91d7 0bbc 4532 62be
00000200: d21f 74bd 9abe 71bd 75e6 823c d691 98bd
00000210: f8a7 6bbd cc18 00be 6a39 6b3e c3cd d73e
00000220: d56c 803c 0133 39be 9cbf 253d f2d0 d93a
00000230: 07d4 99bd 469e ae3d 924d 3e3d f767 62be
00000240: 4ecb 7abe cc97 4b3e 6ddb 22bc c113 10be
00000250: d252 ce3d cc36 a73d 2c4f 053e af1b aebd
00000260: 1536 e8bd 4541 fe3c 99f5 0e3d 8f15 69bc
00000270: 4e9c 983d fe32 7cbe 9d9e 46be c932 8b3d
00000280: 2a0d e53d bd6c 793d e6a0 debe 9ac5 103e
00000290: a3fa 64bb c6f7 0b3e c28b d43e 60bd 6abd
000002a0: 2d5e f4bc 4788 22bd 7632 5d3c 2de8 833d
000002b0: 287b 203d 4d95 ca3e 5bd3 013f 8b1f 723e
000002c0: 1107 8e3d 5590 c83d 6c13 a03c 3294 c2bd
000002d0: ba9b 6fbe d489 b83e 9574 13bb 1354 87bd
000002e0: ce9f 56be a1cb 8d3c 35a7 253b 7466 68bf
000002f0: e72f c33e 0644 d0bd a8eb c73d 87fa 8e3d
00000300: dd31 26be 8761 96bb 022f d43d c689 89bd
00000310: cd5d debd d98d c7bd 85a8 6ebe f1f3 92bd
00000320: fc99 04be 2844 e63e d58c fabd 3ea8 cd3c
00000330: 8ee1 3ebe 5b59 3abd 2f0f e73d ba4e fabe
00000340: ef7e afbe ee6f 17bc 791f 1dbd 9292 ae3d
00000350: 6e46 9dbc ea05 2d3d 3f52 153e c919 d43e
00000360: dce7 46bd 989d f7bc 23fa 2cbe 92d3 443e
00000370: 0a36 953e c0ba b93d 67c0 a5bc b89a a13c
00000380: a73f 893d 972d 133e 4b28 f9bd 5b7d 2a3e
00000390: 9a22 a5be ebaa f03c 9a50 f1bd 9786 903b
000003a0: ef67 09bd a488 073e d045 643f 72ec 843e
000003b0: 0d7e bebe 23dd 44bc 7a1d 563e f292 873c
000003c0: e080 f1bc d27a 49be 3787 37be 2a73 8c3d
000003d0: cf4c 653d 31ea 203e f02e 2c3d 24f1 d63e
000003e0: 582a 2b3d 5153 9b3e 5953 213d 35a6 c9bb
000003f0: 6494 d83e 3ed0 22be c752 db3d 92d9 3a3b
0.06205379 0.13408951 -0.060531 -0.023186922 -0.16721524 0.17018932 0.062525466 -0.052652355
0.042555522 0.0594526 -0.115196615 -0.14144795 0.035064206 -0.036479514 0.026161894 -0.0076259198
-0.4195262 0.3915412 0.094357006 0.18078858 -0.054756857 0.20347774 -0.036148466 -0.012246233
-0.0017983308 0.046592742 0.0918 -0.026745765 0.02033724 0.0073959297 0.05623967 0.02071256
0.15774997 -0.079938285 0.040211845 0.100301385 0.05131498 -0.12513846 -0.17247632 0.028758049
-0.16537228 -0.50621325 0.16817698 -0.13677283 0.049989022 0.2539587 0.5047514 0.24261135
-0.026375292 0.025881909 -0.06722572 -0.0724143 -0.2606783 -0.13941391 -0.31011996 0.14444616
-0.03374496 0.1302335 -0.029648246 -0.06723501 0.06485295 0.03548084 0.5447714 -0.011132753
0.5842391 -0.009970699 0.0135758 0.06502374 0.00206846 0.00264074 0.022714704 0.18812199
-0.022405447 -0.24340448 0.15234075 -0.09940638 -0.11467708 0.16654404 -0.15055758 -0.072188124
0.444566 0.21887451 -0.017304834 -0.002210369 -0.002914902 -0.775328 -0.0031101315 -0.06997006
-0.059565555 0.109717526 -0.09607197 -0.16640921 -0.041244857 0.11330845 0.30286333 -0.014805182
-0.26840526 0.14826275 0.47529152 0.06553756 0.13654551 -0.16092463 -0.0014171393 0.040256586
0.04907691 -0.047505375 0.37533897 -0.05183376 0.0483249 -0.2744155 0.32036003 0.07764749
0.14584318 0.054439075 0.01530112 -0.04234467 -0.06186109 -0.21136661 -0.20049281 0.7104813
-0.00421266 -0.032381237 0.22019011 -0.12309428 -0.019096488 -0.64201796 -0.008535282 -0.22089489
-0.05960066 -0.059019662 0.015979031 -0.07449691 -0.057533234 -0.1250946 0.2297112 0.4214917
0.015676895 -0.18085863 0.040465936 0.0016618057 -0.07511144 0.08526282 0.046460696 -0.22109972
-0.24491617 0.19882125 -0.0099400105 -0.14070036 0.100743905 0.081647485 0.13018483 -0.08501374
-0.1133844 0.031036982 0.03490219 -0.014226331 0.07451688 -0.24628827 -0.19396444 0.06796796
0.111841515 0.060894717 -0.4348213 0.14137879 -0.003493943 0.13668737 0.41512877 -0.05730951
-0.029830063 -0.039680745 0.0135008 0.064407684 0.03917995 0.39567032 0.5071313 0.23644845
0.069349416 0.09793154 0.019540511 -0.09500922 -0.23399249 0.36042655 -0.0022499908 -0.06607833
-0.20959398 0.017309012 0.0025276665 -0.9078133 0.38122484 -0.101692244 0.09761745 0.06981378
-0.16229959 -0.004589263 0.103605285 -0.06715731 -0.10857735 -0.09743852 -0.23306473 -0.071754344
-0.12949365 0.44973874 -0.12233893 0.025104638 -0.1864073 -0.045495372 0.11282193 -0.4888819
-0.3427653 -0.009242995 -0.038360093 0.0852405 -0.019198623 0.04224197 0.14582156 0.41425923
-0.048560962 -0.030226514 -0.16892295 0.19221333 0.2914279 0.09068823 -0.020233346 0.019727096
0.06701594 0.1437286 -0.121658884 0.16649382 -0.3225296 0.029378375 -0.11782952 0.0044105756
-0.033546384 0.13235718 0.89169025 0.25961643 -0.37205544 -0.012015614 0.20909682 0.016549561
-0.029480398 -0.19675758 -0.17922674 0.06857903 0.055981454 0.15714337 0.04203695 0.4198085
0.04178843 0.30337003 0.039386127 -0.0061538466 0.42300713 -0.1589975 0.10709148 0.002851103

res_block1.fc.bias f4 [256]
00000000: 5fee 05bf dd29 a33e 7590 203d 3039 ee3e
00000010: a874 59be a21d 063d dc9b 5a3d 3961 65be
00000020: 4b89 85be 5984 03be ac04 9f3e 1e1c 0c3d
00000030: fc1d 90be f685 2fbe b733 1cbe 579d 09bf
00000040: a75f f8bd 675f 253d ce7a 3abd 1c25 04bd
00000050: f1df c2bc 543a ea3c 7f16 e0bd e6a6 413f
00000060: ed9f 113e 9d7e 243e e6f9 b43f 1fee 26bd
00000070: a14b 383e 6c55 aabe df07 c7bd 1205 843e
00000080: bd59 173f e015 55bd dd6e 8e3e 225b fa3e
00000090: c3c6 7dbe 1d1b e93b c4b8 61be 34ba c4bd
000000a0: e312 773e f2a5 6ebe f208 cfbc 5470 1abe
000000b0: ae9d 6f3f 79af 04bc 124f d83d ec13 493f
000000c0: a80d 5cbf 96f9 13bf f19f 53be dd05 82be
000000d0: 731b 483e d18d 233e b702 90be 460c 3ebe
000000e0: cdbd f6bd 8c21 373f 92f1 4e3f e175 48bd
000000f0: 3cbe 92be 2d3f 78be 9498 253e b236 2ebf
00000100: 5bf4 fe3d a212 06bf c7ba 383e aed7 94bd
00000110: a069 013c 6a15 223f 212a bfbe 38af 1fbd
00000120: 9ead 683e 2acf f03d 4ffc cf3e bd15 3cbf
00000130: d035 6abe 3dd8 6abe f1ce e83d 1809 37bd
00000140: 0ce6 fbbe 378b a63e b6b0 233f 6f7d 4e3d
00000150: 6640 85bd f825 82bd 10e5 993e bd8c e2bd
00000160: d2be f73d 5023 843f f5c1 173b bc8e fc3e
00000170: a223 72be 8a6c 3fbf e15c 2fbe 64f9 dabd
00000180: 69a1 063f 8d54 3e3d 111f a03f 7c13 493e
00000190: 1602 f23e 23dd ad3d a5f1 46be e204 1abf
000001a0: 98aa cc3e 4990 f53d a7be dbbd 831b 533d
000001b0: 9fb4 003f e0b5 7ebd 7fac 99be 6337 253f
000001c0: 4631 083e 9c8d 03bc e235 5dbe 7442 1bbd
000001d0: 5cbd 16bf 9dda 7dbd 17d4 89bd f035 443e
000001e0: c6f0 7a3d 8f79 c9be 74cc 213e 6ace 23be
000001f0: 9f67 2bbe 8035 75bd 46f9 39bd 1046 3bbe
00000200: e752 13bf 44da 1c3f bd69 70be 39f7 c6be
00000210: 7723 523d fcde 4d3d abdb ec3d 44a2 8fbd
00000220: 2651 81be 38ec 1a3f 2bd7 803f 1ba3 0abf
00000230: 2930 d2bc 9f24 bc3e 7fe2 573e 48a4 95bc
00000240: 6436 033e fb7b 16bd 5c82 503e 39a5 d43d
00000250: 1a76 32be dc30 9bbd fd3e fbbd 03d7 41be
00000260: 70c7 edbd cde3 f43e 88f5 ac3c 38f3 33be
00000270: b2d4 1e3e 1a9f f53d a784 ce3d dfc3 1bbf
00000280: 442a cdbe 117a 9c3e 71cf 8a3e af58 17bd
00000290: 3ea1 56be 7139 ebbe 37b8 b73f b0a5 5abf
000002a0: dd43 71be 5446 3dbf 5982 973c aa34 b03c
000002b0: bf0c 95bd bb84 65bf 5b4d a4be 070d d5be
000002c0: ac46 93bc e777 293e 6b5e 6c3d a17c 22bd
000002d0: f1e9 86bd 623d a93e 1479 6b3f 309f af3b
000002e0: dfb0 43be 2d26 e1be 7708 2abe e5a8 80be
000002f0: fab7 8fbe 8f74 0a3e 867f 443c bee5 573e
00000300: 571e 4abe e4cf 72be 21ec 52be 0889 15be
00000310: bb0d 79be 1f20 1dbe 3c27 483e 01b5 3c3f
00000320: af5a 143f c3a0 d03e c618 95be 9690 353d
00000330: 6559 1f3e 18e6 3f3e 9345 edbd 5478 b2be
00000340: 4500 a63d 72cc f1be 8577 223d 9201 42bf
00000350: 59d7 79bd 005b 83be eb27 aebe 212b 5cbe
00000360: 5e42 a9bb d58a 95bd e3b7 9e3e e645 bd3e
00000370: a495 ab3f ccd0 b43e 289b 22be 9c76 323e
00000380: 17b0 243f ca93 733e a80d 16bf d4da c73d
00000390: 22e2 30be 5b22 af3e 2452 58be 52ad 4b3e
000003a0: fae3 c6bc ee48 fcbd 7dbf 46be 96a2 ea3e
000003b0: be0a 73bc 1782 913d 34c0 02be b847 a2be
000003c0: efda 3a3e 1819 a1bb 80dd 2cba dc2d d4be
000003d0: c28f 833e dc56 a6be 245e dabd 6359 5fbf
000003e0: f1c2 6a3f 3685 953d 8791 4bbe dc30 4bbe
000003f0: f303 efbd 13ea dbbe 3610 1bbe 7fc0 f4bd
-0.5231685 0.31867877 0.039200265 0.46528006 -0.21235907 0.032743104 0.053371295 -0.22400369
-0.2608131 -0.12843455 0.31058252 0.034206502 -0.28147876 -0.17140946 -0.15254103 -0.53755707
-0.12127619 0.040374186 -0.045527272 -0.032261953 -0.023788424 0.028592266 -0.10941791 0.7564529
0.14221163 0.16063924 1.4138763 -0.040754434 0.179976 -0.33268297 -0.09718298 0.25785118
0.59121305 -0.052022815 0.27818957 0.48897654 -0.24782853 0.007113828 -0.22043139 -0.09605828
0.24128298 -0.2330549 -0.02527282 -0.15081912 0.93599975 -0.008098477 0.105619565 0.78546023
-0.8595834 -0.5780271 -0.20666482 -0.25395098 0.19541721 0.15972067 -0.2812707 -0.1855937
-0.120479204 0.71535563 0.8083736 -0.048940543 -0.28660762 -0.2424285 0.16171485 -0.6805221
0.12448951 -0.5237218 0.1804 -0.072677 0.007898718 0.63313925 -0.3733683 -0.03898546
0.2272248 0.117582634 0.40622184 -0.7347067 -0.2287209 -0.22934051 0.11367596 -0.044686407
-0.4919895 0.32528087 0.63941514 0.05041259 -0.06506424 -0.06354898 0.30057573 -0.11062
0.12096943 1.0323277 0.002315638 0.49327648 -0.23646405 -0.7477499 -0.17125274 -0.10692099
0.5259004 0.046467353 1.2509481 0.19636339 0.47267216 0.08489444 -0.19428118 -0.601637
0.39973903 0.11990411 -0.107297234 0.05153991 0.50275606 -0.06218517 -0.30014417 0.6453764
0.13300046 -0.008029368 -0.21602586 -0.03790517 -0.5888269 -0.061976064 -0.06729906 0.191612
0.061264776 -0.39350554 0.15800649 -0.1599671 -0.16738747 -0.059865475 -0.04540374 -0.18288445
-0.57548374 0.61270547 -0.23477836 -0.3886049 0.051303353 0.050261483 0.11565336 -0.070133716
-0.25257224 0.6051669 1.0065664 -0.5415513 -0.02565773 0.3674669 0.21082495 -0.018266812
0.12813717 -0.03673933 0.20362228 0.10383076 -0.17427865 -0.075776786 -0.122678734 -0.18929677
-0.11610305 0.47830048 0.021113172 -0.1757325 0.15510824 0.11993237 0.10083895 -0.6084575
-0.4007131 0.3056188 0.2711139 -0.03694981 -0.20959947 -0.45942262 1.4353093 -0.8540907
-0.23561044 -0.7393544 0.018494772 0.021509487 -0.07277822 -0.89655656 -0.32090268 -0.41611502
-0.017978035 0.16549645 0.05770723 -0.039669637 -0.065875895 0.33054644 0.91981626 0.005359553
-0.1911044 -0.43974438 -0.16604792 -0.25128856 -0.2807005 0.13521026 0.011993295 0.21083733
-0.19738136 -0.23712116 -0.20597889 -0.14603055 -0.24321644 -0.15344284 0.19546217 0.7371369
0.5795087 0.4074765 -0.29120463 0.04432734 0.15561445 0.18740118 -0.11585536 -0.34857428
0.0810552 -0.47226292 0.039664764 -0.75783646 -0.060996387 -0.25655365 -0.3401483 -0.21500827
-0.0051653823 -0.07301871 0.3099967 0.3696739 1.3405042 0.3531555 -0.158795 0.17428058
0.6433119 0.23786846 -0.5861459 0.09758535 -0.17273763 0.342059 -0.21125084 0.19890335
-0.02427863 -0.12318598 -0.19408984 0.45827168 -0.014834104 0.07104891 -0.12768632 -0.31695342
0.18247579 -0.0049163215 -0.00065942854 -0.41441238 0.25695616 -0.32488143 -0.10662487 -0.8724577
0.91703707 0.073007986 -0.19879733 -0.19842857 -0.11670675 -0.42952022 -0.15142903 -0.11950778

res_block1.ln.weight f4 [256]
00000000: a132 673f 67fd fc3e 2626 1c3f 4188 b03f
00000010: d2f8 173f 1e80 583f d24f 7b3f e89f 083f
00000020: b262 5e3f 82de 993f efc5 373f 7237 253f
00000030: 2715 9c3f fddf 223f f31c f33e 18db 2b3f
00000040: 3255 353f 25a2 3b3f 4236 923f e6d0 5b3f
00000050: 8c28 a93f a82a 6d3f 3324 4e3f 446f 403f
00000060: 1637 8f3f b3e9 923f 09d7 aa3f b810 4f3f
00000070: ecfa 453f dad1 903f 33da 743f 3869 693f
00000080: 1c46 633f f451 793f 3db9 b13e ef8b b23f
00000090: 8288 3d3f 7ea7 af3f 0892 6c3f ef98 4b3f
000000a0: 9714 4b3f 8034 083f 45d1 7e3f ab1c 5b3f
000000b0: dbee 903f 3fc1 643f 6413 e33e 88e2 563f
000000c0: 1124 b63f cf8e 903f 5a0c 493f 5480 5a3f
000000d0: c570 2e3f 3c2c 3b3f 5393 3c3f 8397 873f
000000e0: 1e98 a73f 07b9 503f 138c 453f 4829 553f
000000f0: a7c9 633f 78fe 453f a566 6b3f 5ad8 843f
00000100: 705b 383f 65f4 a73f 464a 9c3f 5c5b 933f
00000110: 0605 1e3f 092e c53f 10e0 133f dd4e d73e
00000120: 568b b23f f9ec 3f3f 74d9 693f 6083 8e3f
00000130: b020 7e3f 381e 413f 3396 c33f 3de3 443f
00000140: e4a4 883f e6f1 693f 2cca 473f 6c60 453f
00000150: 19f1 173f e417 5c3f ed02 503f e43f 423f
00000160: 6467 843f 8025 b93f ad24 693f 51c9 633f
00000170: 8e95 aa3f 947d 9b3f 9e7d 6f3f 07bd 623f
00000180: cb45 3e3f 2e09 843f 3896 4d3f ba6b 9f3f
00000190: dfd4 663f f5bd 363f 3fff 853f 71c9 b13f
000001a0: adba 5d3f 2784 333f 3285 823f aded dc3f
000001b0: 22ee 673f 002a 2d3f bfbf 4d3f 746a 573f
000001c0: bd6b 923f 8872 1b3f 569b 793f 5e3d 513f
000001d0: f53a ac3f a817 8e3f b415 283f bad2 4b3f
000001e0: ee07 1240 f1fa 8e3f 00c1 4d3f 9448 663f
000001f0: ab57 473f 98cd 273f d5a8 b33f 6674 403f
00000200: 2f5e 5a3f 0583 883f 4c65 343f 1bbf 6f3f
00000210: 2114 303f 20b3 623f 6e18 523f 5a43 593f
00000220: ead3 803f fd42 6a3f 9b35 c63f 7150 bc3e
00000230: a14a 453f ba95 803f a868 993f c6da 703f
00000240: 908a 723f 8601 473f 6ad4 813f 63f0 4e3f
00000250: 6ba9 403f 48a5 853f 9f60 703f f471 853f
00000260: c831 4e3f f431 aa3f 5810 553f 2673 693f
00000270: 7175 683f 3485 4a3f e2b3 603f 5e27 663f
00000280: 3a60 2a3f 48ea 6d3f b95b 343f c546 ac3f
00000290: 63c8 8a3f 88f6 853f 2687 cb3f 3636 963f
000002a0: ebb3 253f f6bc 8e3f f88f 553f 1fe2 b23f
000002b0: eba4 a83f 169c 8f3f e8fa c63f 4b2b 3c3f
000002c0: 0c66 443f a683 313f 3a80 3e3f bf61 4a3f
000002d0: 1fb7 873f fb27 b03f dea3 d33f 554b 6b3f
000002e0: 93fc 4d3f 0d8d 773f 41f2 4d3f 5fd7 883f
000002f0: f96a 273f f96b a13f 843b 6e3f 20d3 263f
00000300: b932 543f c698 4d3f ccfb 933f 9cae 163f
00000310: 649d 893f 877f 443f e4b6 c73f 2201 8a3f
00000320: b853 e23f 7c19 a93f e478 9a3f b24a 593f
00000330: 4df9 2e3f 6029 533f 6bd5 643f 3d80 603f
00000340: 0b3b 583f ee04 1a3f b5d9 6c3f 224e 9b3f
00000350: ca30 8d3f b474 5b3f e64b 993f 5ee6 423f
00000360: 2b2c 543f f39d 3c3f 2ba7 f13f 5cae 5a3f
00000370: cce5 953f f755 613f aa3b b03f 27a9 693f
00000380: ff33 b63f c445 4e3f b15d 9d3f 995e 643f
00000390: 26fe 2b3f e736 5e3f e671 583f a728 813f
000003a0: 0747 3b3f 2054 713f 7020 503f a33e 6e3f
000003b0: a77f 4b3f ed36 bf3f a25c 583f 75c1 f93f
000003c0: c22e 703f 3b9c 423f d1cd 543f d34c 5c3f
000003d0: bc4e c63f 3984 463f 2cac 823f 345c 5a3f
000003e0: e0e6 ad3f 6cd3 9b3f cfe9 663f b3f5 5d3f
000003f0: 70cf 793f c497 6c3f 255f 8f3f 45ee 963f
0.9031163 0.4941208 0.6099571 1.3791581 0.59364045 0.8457049 0.9816867 0.53369
0.8686935 1.2021029 0.717864 0.6453773 1.2193955 0.6362303 0.47483024 0.67131186
0.7083312 0.7329429 1.1422808 0.8586563 1.3215499 0.92643213 0.80523986 0.7516978
1.1188686 1.1477569 1.3346874 0.80884886 0.77336 1.1314042 0.95645446 0.91176176
0.88778853 0.97390676 0.34711638 1.3948954 0.7403642 1.372299 0.92410326 0.79530233
0.7932829 0.5320511 0.9953807 0.8559062 1.1322893 0.8935737 0.4435073 0.8393941
1.4229757 1.1293582 0.7853447 0.85352063 0.6814082 0.7311437 0.736623 1.0593113
1.3093297 0.8153233 0.7716686 0.83266115 0.8897957 0.77341413 0.919535 1.0378525
0.7201452 1.3121458 1.2210166 1.1512256 0.61726415 1.5404674 0.5776377 0.42052355
1.3948772 0.74970967 0.9134743 1.1133842 0.9926863 0.75436735 1.5280212 0.7690924
1.0675321 0.9138473 0.78042865 0.77100253 0.5935226 0.85973954 0.81254464 0.7587874
1.0344052 1.4464569 0.9107159 0.8897906 1.332689 1.2147698 0.9355105 0.8856968
0.74325246 1.0315301 0.8030734 1.245475 0.90168566 0.713836 1.046852 1.38896
0.8661297 0.70123523 1.0196898 1.7260033 0.90597737 0.6764221 0.80370706 0.8414681
1.1439129 0.60721636 0.9750265 0.81734264 1.3455492 1.1100969 0.65658116 0.7961842
2.281734 1.1170331 0.8037262 0.89954495 0.77868146 0.65548086 1.4035898 0.7517761
0.8529996 1.0664984 0.70467067 0.9365098 0.68780714 0.88554573 0.82068527 0.84868395
1.0064671 0.91508466 1.5485109 0.36780122 0.77067 1.0045693 1.1985064 0.9408382
0.9474268 0.777367 1.0142949 0.8083555 0.7525851 1.0441065 0.9389743 1.0425401
0.8054471 1.3296494 0.83228064 0.9119133 0.908042 0.791095 0.8777448 0.8990382
0.6655308 0.9293561 0.7045246 1.3459097 1.0842403 1.046586 1.5900619 1.1735294
0.6472766 1.1151416 0.83422804 1.3975257 1.3175329 1.1219509 1.554532 0.7350356
0.7671821 0.69341505 0.7441441 0.790554 1.0602759 1.3762201 1.6534383 0.9191182
0.8046352 0.966996 0.80447775 1.0690726 0.653976 1.2611076 0.93059564 0.651659
0.82889897 0.8031124 1.1561217 0.5886018 1.0751157 0.7675709 1.5602689 1.0781596
1.7681799 1.3210902 1.2068143 0.848796 0.6834915 0.8248501 0.8938815 0.87695676
0.8446509 0.6016377 0.92519695 1.2133219 1.1030514 0.8572495 1.1976287 0.7613276
0.82879895 0.7367851 1.8879141 0.854223 1.1710753 0.88021797 1.3768208 0.9127373
1.4234618 0.80575204 1.2294217 0.89206845 0.67184675 0.86802524 0.84548795 1.0090531
0.73155254 0.9426899 0.81299496 0.93064326 0.79491657 1.4938637 0.84516346 1.9512163
0.93821347 0.7601964 0.8312655 0.86054724 1.5492778 0.77545506 1.0208793 0.8529694
1.3586082 1.2173896 0.90200514 0.8670303 0.9758215 0.92419076 1.1200911 1.1791464

res_block1.ln.bias f4 [256]
00000000: ffcb c7bd fdc3 85bd 25f6 013b 06cd 15be
00000010: ca6b 7ebe 050c 0fbe 2545 7cbd b08b bbbe
00000020: e6e7 37be c9a2 e0bd 79f8 9f3d 4c79 88bd
00000030: e79c b5be 0c17 b1be cb50 07bf f40a 263e
00000040: e455 1dbe f338 7ebe 1e08 19be c781 b33c
00000050: 469b b9be 9a3f 763d 8dff 45be 7981 cebe
00000060: 09fd 223b 8d3a a73d d8e8 4a3b d640 b7be
00000070: 2e08 a1bd ade9 51be d4be 11be e471 673d
00000080: eb75 82bd 6e35 b73c b12f d4bd 68ff 98be
00000090: 80dd 0dbe 4072 a4be 8ac0 b1be 16d2 cbbd
000000a0: 3bb5 4cbd 08c2 d6be 9f8e 70be 6167 d6bd
000000b0: 1444 48be 9108 a5bd e33a bc3a e2e1 b13d
000000c0: 2156 c6be a08e 45be fa30 acbd e90b 05be
000000d0: 0453 55be 9860 d3bd 3da5 66be 8a6c 683d
000000e0: 5207 8cbe 5c01 c43d 60ef 06bd 3b55 82bd
000000f0: ec8b bb3c 0c86 acbe 3a6a 5c3c ecbc ffbd
00000100: 737d 3abe 4214 d5be f7a0 b8be d334 21be
00000110: cda3 07be b656 36be 68e7 e83c 96e3 4abe
00000120: ac1b fe3c cc1e 29be f8bc 2cbe e418 d3be
00000130: 1dfa b9bd 9996 79bd 97a2 f4be d3fb 2abe
00000140: 8924 bdbe 9923 ffbd bf91 8fbd 1868 2cbd
00000150: fca3 b2be 5209 04be 3ad7 e33b 4913 90be
00000160: 2849 893c a00c 5bbe 24e7 dabe 4b21 9fbd
00000170: 81d4 d1be 78e9 24be 70fc 1cbd a4f9 8ebd
00000180: 3f80 a2be 9725 9abd bc9b 4aba 5cb5 28be
00000190: ab63 543e 06ce 31be e8a4 4dbe a098 3bbe
000001a0: 40d3 943d 5f9e 6fbc 8ccc 76be cb8f 08be
000001b0: cd66 9abc b0a4 54be 9075 81be 0d60 cebd
000001c0: d4a5 46be 1ed2 06be 06b1 093e 3df3 9dbd
000001d0: e80f edbe 7305 86be 323f 37be e72a 2d3c
000001e0: 9fb3 edbd 1178 e0be 13b4 32bd 8d0b 9fbd
000001f0: 31a8 8dbe f2a0 95be 0822 cebe c0aa b73c
00000200: 9e6b d2bd 1677 63be b089 b2be e0af 7abd
00000210: 496e 2abe bcda 413c d370 01be 8ed9 e8bc
00000220: 0418 0ebe 5a43 74be 0b9e b8bd a42a 8fbe
00000230: 3de6 28bd 7a61 10be 8482 6cbe a1ee 75be
00000240: 7daa 69be c9fb ebbd 6312 babd e4a8 c8bc
00000250: 2421 b3be 3fcf 8dbe 559a 6bbe 1893 3e3d
00000260: 1c4f aebe 86c8 51bb 27db 2fbc 1ed3 4ebe
00000270: 1298 0d3e 7f90 08be ecf3 4fbe bd26 d7bd
00000280: 4d3e d0be 29c3 7fbd f1b9 a83d 45f5 79be
00000290: e179 8cbd 60f6 88be f8d8 f5bd c30a b8be
000002a0: 3fe4 d8bd 4c3d 97bd 36d5 dcbc a160 28be
000002b0: abd8 a3be 60d8 71be 9d24 1abe 9f1d d8bd
000002c0: 6378 debc d4f1 a8be c530 14be 25f1 16be
000002d0: a1e4 9abe 5cf2 0bbb 9b74 99bd 75d9 dbbd
000002e0: c618 0ebe c0ab d4bc 70e6 6ebe ab3f 40be
000002f0: a612 44be f272 82be 67da 74be 7ae4 abbd
00000300: 8567 a7bd 0f09 a73d 734d 8bbd 5b0b d9be
00000310: f658 a6be 71d9 eebd 0ac1 bbbe bfc4 adbd
00000320: 560d 61be cefd 1bbe 3727 ebbe fa81 6cbd
00000330: c8cd abbd 5b50 d3bd e08b e0bd 3dd8 c2bd
00000340: 0fa4 4dbd 19bc 93be 68fb 56bd c07a 06be
00000350: 9d3b 3abe aae6 0a3e eced 3dbe 38fd 1bbe
00000360: 8973 27bd 9697 0dbc 3839 a7bd 7f6a f6bd
00000370: dcb3 38bc 7a1c 54bd 5203 b0be 242f 2d3c
00000380: 69a4 e6bd 4519 2e3d 316a 45bc ab50 573d
00000390: 38a1 4ebe 331c a53d fbf8 c4bd 1c52 cdbe
000003a0: 8b09 07be a175 98bd 32f8 fb3b ff65 4d3c
000003b0: 56c2 a4be b317 c1be 6670 493d 5d68 74be
000003c0: 6398 75be e061 c9bd b965 a7be d35b c1be
000003d0: a208 cbbe 3360 adbe f2e1 c1bd c756 a8bd
000003e0: 7790 dabd f128 d2be e75a aebd c9d0 1ebe
000003f0: 3110 8dbe 9d1d 2ebd 039a d8bd 1d2d 11be
-0.09755706 -0.065315224 0.0019830551 -0.14628991 -0.24845806 -0.13969429 -0.06158938 -0.3663001
-0.17959556 -0.10968549 0.07811064 -0.066637605 -0.3547127 -0.34587896 -0.52857655 0.16215116
-0.15364796 -0.24826412 -0.14944503 0.021912469 -0.36251277 0.06011925 -0.19335766 -0.40333155
0.002487006 0.081654646 0.003096154 -0.35791653 -0.07862888 -0.20499296 -0.14232951 0.0565051
-0.06370147 0.022364344 -0.10360659 -0.2988236 -0.13854027 -0.32118416 -0.34717208 -0.0995218
-0.049977522 -0.4194491 -0.23491906 -0.10468937 -0.1955722 -0.080582745 0.0014360811 0.08685662
-0.38737586 -0.19292688 -0.08407779 -0.12992825 -0.20832449 -0.10321158 -0.22523971 0.056744136
-0.27349335 0.09570572 -0.03294313 -0.06363913 0.022893868 -0.3369602 0.013453061 -0.12487206
-0.18211918 -0.41617018 -0.36060306 -0.15742807 -0.13246079 -0.17806515 0.028430656 -0.1981338
0.031019054 -0.16515654 -0.16868961 -0.41229928 -0.090809084 -0.060934637 -0.47780296 -0.16697626
-0.36941937 -0.124579616 -0.07010221 -0.04209146 -0.34890735 -0.1289418 0.0069531472 -0.28139713
0.016758516 -0.21391535 -0.4275447 -0.07770022 -0.4098244 -0.16104686 -0.03832668 -0.06981209
-0.3173847 -0.07526701 -0.00077288947 -0.16475433 0.20741145 -0.17363748 -0.20082438 -0.1831994
0.07266855 -0.014625161 -0.24101466 -0.13336103 -0.018847847 -0.20765948 -0.25285006 -0.10076914
-0.19399196 -0.13166091 0.13446435 -0.0771241 -0.46301198 -0.26176032 -0.17895201 0.010569311
-0.11606526 -0.43841603 -0.043628763 -0.07765875 -0.27667382 -0.29224354 -0.4026034 0.022420287
-0.102744326 -0.22213396 -0.34870672 -0.061202884 -0.16643633 0.0118319355 -0.12640695 -0.02842405
-0.13876349 -0.23853818 -0.09014519 -0.2796222 -0.041235197 -0.14099684 -0.23096663 -0.24016811
-0.22818942 -0.115226336 -0.09085538 -0.024494596 -0.34986222 -0.2769718 -0.23008092 0.046527
-0.3404473 -0.003201039 -0.010733402 -0.20197722 0.13827541 -0.13336371 -0.20307893 -0.105054356
-0.40672532 -0.06244198 0.082385905 -0.24409969 -0.06859184 -0.2675047 -0.12004274 -0.3594571
-0.105904095 -0.07384738 -0.026957136 -0.16443111 -0.32001242 -0.23617697 -0.1505303 -0.10552525
-0.027157014 -0.32997 -0.14471729 -0.14740427 -0.30252555 -0.0021354174 -0.07492944 -0.10734836
-0.13876638 -0.025960803 -0.23330092 -0.18774287 -0.19147739 -0.2547832 -0.23911439 -0.08393188
-0.08174042 0.08156025 -0.06801882 -0.42391476 -0.32489747 -0.116625674 -0.36670715 -0.08484792
-0.21977744 -0.15233538 -0.45928356 -0.057741143 -0.08388859 -0.10318061 -0.10964179 -0.095139004
-0.050205287 -0.28854445 -0.052485853 -0.13132763 -0.18186803 0.13564554 -0.18547791 -0.15233314
-0.040881667 -0.008642098 -0.081652105 -0.12032031 -0.011273351 -0.05178497 -0.34377533 0.010570321
-0.112618275 0.042504568 -0.012049244 0.052567165 -0.20178688 0.08062019 -0.09617802 -0.40101707
-0.13187234 -0.07444311 0.0076894993 0.012536525 -0.32179517 -0.37713394 0.049179457 -0.23867936
-0.23983912 -0.09833121 -0.32694796 -0.3776537 -0.39655024 -0.33862457 -0.09466924 -0.082196765
-0.10672086 -0.4104686 -0.08513432 -0.15509333 -0.27551416 -0.04250871 -0.105762504 -0.14177366

res_block2.fc.weight f4 [128, 256]
00000000: 727e 05bd 0739 62be efcf ef3d bd63 7b3b
00000010: 0d0e 8fbe fe2d dabe 5db5 19bd 5b51 e3bd
00000020: f342 af3d ff45 993d d0a3 adbe a6a9 363e
00000030: 0b25 c03d 9b06 cb3c b68d 59be a96c 913e
00000040: 57c0 a13d 3c1c 66be 8dba 9d3d 7da2 f9bc
00000050: 3350 14be e688 3e3e e6ea 0fbe cead fe3d
00000060: eca7 d0be 9bcc e2ba ac00 e7be 78c9 99bd
00000070: f548 ccbd 0cf4 4c3e 2222 35be 849e c23d
00000080: 6835 f9be 3de3 cdbd 4072 d3bb 4635 053e
00000090: a7a5 e63d 60d8 b03d 9bc9 3a3d 173a e03d
000000a0: 40c5 1b3e 6760 ab3e b3f5 a2bd 4445 a3bd
000000b0: 1754 a13c e8b1 71be f484 3cbd 1a3f cebe
000000c0: 6783 90bd 4d2d 323e 6053 d63e 7388 513d
000000d0: 6b09 573d f68e 523d 6262 c23d c58a 753d
000000e0: 1449 7f3d 577c b1be 5c47 91bd 7f9d 1d3e
000000f0: d3f8 013d 1d67 aebd 9ebe 803d b913 d2bc
00000100: 7447 afbd fea8 113e b7ab 333e 6733 243e
00000110: ba77 a9be ef73 453e 2202 d3bc f0b4 64be
00000120: 7813 a4bd 6f3b e3bd 62f3 4bbe daba 0fbe
00000130: 0154 42bc 0b90 b33e 3bc7 1ebd f16c 23bd
00000140: bbc0 b5bc 0081 cdbd 5171 a8be 945f 933e
00000150: 40d1 6fbd c5c9 84bc 60ff 41be 2200 99bc
00000160: 5e23 683d 8873 0abe 1678 19bb 8e1b fbbc
00000170: 4f3f e83d e467 cdbb 8e3b 1ebe b357 0a3c
00000180: 0f6d 1d3d 2ad0 f9ba 3204 2cbf f410 483e
00000190: 5395 52bb 70f7 e4bd f980 5a3e 64ac cf3d
000001a0: 445d 57bd 32b6 01bd e5ca 0cbe 5a42 0e3f
000001b0: f554 013e ee04 003c 1543 403e b842 9b3d
000001c0: cb48 983e 6d3a 733e 16a7 ba3d 5152 46bd
000001d0: 29f6 0f3d 5ade 183e ec58 5a3e 8aa4 5f3d
000001e0: 0345 553e d98d c1ba 9da5 1e3e 5435 d53c
000001f0: 2f9c 96bc 0acf c63e ba54 3abd 9935 52be
00000200: 9838 a93d 5147 b8bd 8734 dbbb 0425 25bd
00000210: 9e3f c73e 91ce 403e 3346 7d3d 4d02 cdbc
00000220: 2d4c f5bd 952a eb3e 3c93 cc3d bbcd ae3e
00000230: 66f7 893e 163b 2bbe c84e ee3d 93a4 443e
00000240: 3ec2 4b3e 3993 3a3e 64f1 86bd 634d 5b3e
00000250: f49e b03c 66f3 88be 129d 03be b704 3abe
00000260: c2f1 37be 82bd a93d 87de 15be 9379 b13d
00000270: 397b 50bc e08e ebbd d06b d83e 353e 34bd
00000280: 027d 1d3e 85c4 c6bd e048 63be 134e a13d
00000290: c193 963d eafc 1f3e 338f 95be 5e08 0bbd
000002a0: 1bd5 373e 87ac d1bc 997e 173e 2bee 10bd
000002b0: 280f 803b e58e 713d 63bb 90be d4a9 073d
000002c0: 4160 823e 0828 f0bc fc24 623e 532c 323d
000002d0: 3a73 54bc 3c6e 883d 7dd2 333d cf91 943d
000002e0: d06f 4e3e 1655 223d 3f86 623e 7180 093f
000002f0: aca7 293e 3bc2 0e3e 509a f23d 1bf1 173f
00000300: 7120 2b3c 2713 293d d1f3 a33c 6e8a 3cbd
00000310: 294a f83c 2383 92be 734f 803e f9a7 75bd
00000320: 0673 9b3d 5dd3 54bc cc40 66bc 5c2b 783d
00000330: e231 233d aee9 a1be 1c94 8b3d aaa3 a43e
00000340: 33e7 993d 0d03 953e 4950 d4bd 7d67 3e3e
00000350: 5077 94be bb9c 693e e6d3 96be 9047 853e
00000360: 3441 9b3e 6f96 1cbe 103f 0fbf c1c9 903d
00000370: fd64 b63d 8c84 7c3d 34a7 e4bd 8dbc 413e
00000380: 55e3 4fbe c662 883e 1320 033c 9119 8a3d
00000390: 900d e63d 935f 743e f7d6 423e bf8f 913c
000003a0: cc68 f93e cbaf d1bb c2ea 643e da3e 89be
000003b0: b02d c03d 4bec fe3d e67c 483e 00cd ffbc
000003c0: 65ba 9cbd f8d5 4d3e a0bf 6dbe 2831 193e
000003d0: 1e98 15be 5b63 efbd c969 d93d 614a 093d
000003e0: da69 9e3e b659 84bd 07de f2bb ec72 dfbd
000003f0: 2c14 cc3e 165d 233d bf5e 983c 7e42 f93d
-0.03259129 -0.22092067 0.11709582 0.003835901 -0.27940407 -0.42613214 -0.037526477 -0.11099502
0.085576914 0.07484054 -0.33914042 0.17838153 0.093820654 0.024783423 -0.21245465 0.28403214
0.07898014 -0.22471708 0.07701597 -0.030472988 -0.14483719 0.1860691 -0.1405445 0.12435494
-0.40753114 -0.0017303409 -0.451177 -0.0750913 -0.09974853 0.20014971 -0.17688802 0.09502891
-0.48673558 -0.10053108 -0.0064528286 0.13008603 0.112620644 0.0863502 0.045602422 0.1094858
0.15211964 0.33471987 -0.0795702 -0.07972196 0.019693417 -0.23603022 -0.04602523 -0.40282518
-0.07056313 0.17400093 0.41860485 0.05115552 0.052499216 0.05140587 0.09491421 0.059946794
0.062325552 -0.34665176 -0.07093689 0.15392111 0.031731438 -0.08515761 0.06286357 -0.02564417
-0.085585505 0.14224622 0.17545973 0.16035233 -0.33099157 0.19282506 -0.025757853 -0.22334647
-0.08011526 -0.110953204 -0.19917062 -0.14036122 -0.011860848 0.35070834 -0.03876422 -0.039898816
-0.022186628 -0.100343704 -0.32898954 0.28783858 -0.058549166 -0.016209492 -0.18945074 -0.018676821
0.056674354 -0.13520634 -0.0023417524 -0.030652788 0.113402 -0.0062684882 -0.15452406 0.008443761
0.038434085 -0.001905923 -0.671939 0.19537717 -0.0032132461 -0.111800075 0.21338262 0.10140303
-0.05257918 -0.031667896 -0.13749273 0.55569994 0.12630065 0.007813675 0.1877559 0.07581085
0.29743037 0.23752756 0.091139 -0.048418347 0.035146866 0.1492857 0.21322984 0.054600276
0.20827107 -0.0014767005 0.15492864 0.026026405 -0.018385021 0.38829833 -0.045490958 -0.20528258
0.082627475 -0.089979775 -0.0066896114 -0.040318504 0.38915724 0.18828799 0.061834525 -0.025025511
-0.1197742 0.45930925 0.0998902 0.34141335 0.26946563 -0.16721758 0.1163612 0.19203405
0.19898316 0.18220223 -0.0658901 0.2141624 0.02156017 -0.26748198 -0.12852886 -0.18165861
-0.17963317 0.08288099 -0.14635669 0.086657666 -0.012724691 -0.115018606 0.42269754 -0.044004638
0.15379718 -0.09705452 -0.22195768 0.078762196 0.073524006 0.15623823 -0.29210815 -0.033943526
0.17952387 -0.025594963 0.14794387 -0.035383385 0.0039080568 0.058974165 -0.28267965 0.033120945
0.2546406 -0.029315963 0.22084421 0.043499302 -0.012966925 0.066616505 0.04390191 0.07254373
0.2015984 0.039631926 0.22121523 0.5371161 0.16567868 0.1394128 0.11845839 0.5935227
0.010444746 0.04127803 0.020013722 -0.046030454 0.0303088 -0.28615674 0.25060615 -0.059974644
0.07590298 -0.012989846 -0.014053535 0.060588226 0.039842494 -0.31623596 0.06815359 0.32156116
0.07514801 0.2910389 -0.10366876 0.18594165 -0.28997278 0.22813694 -0.2945854 0.2603116
0.30323184 -0.15291761 -0.559556 0.070697315 0.08905981 0.061649844 -0.11164704 0.18919583
-0.20301564 0.26637858 0.008003253 0.06743158 0.112330556 0.23864584 0.19027315 0.017768739
0.48712766 -0.00639913 0.22355178 -0.26805764 0.09383714 0.12447413 0.19578895 -0.031225681
-0.076527394 0.20101154 -0.2321763 0.14960158 -0.1460881 -0.116888724 0.1061588 0.0335182
0.30940133 -0.064624235 -0.0074117216 -0.109105915 0.3985914 0.039883696 0.018599866 0.121708855

res_block2.fc.bias f4 [128]
00000000: 862a 0e3c 9d3e 943b ef24 303f fabc 073f
00000010: 3f01 61be a2f7 cdbd 5e94 2dbd e5ae fc3e
00000020: efdc 17bd dc88 b23d fab4 fbbd 4153 84be
00000030: 7be9 bf3e 0a58 3b3e 7b2a b4bc 3d7c cbbe
00000040: cc2e e13e 23b3 13be 4b66 08be f3a1 5dbe
00000050: 26ac d53e 71cf 3fbe 6b1c 363d 61c5 493e
00000060: 54a8 2bbe a47d 94be 75f4 8dbe be68 1cbf
00000070: 4ff7 ae3e 72ee 173e 752f c7bd 4112 51be
00000080: 366f e13e e90d 453d de1d 8f3e 03b8 33bd
00000090: 3dd5 c4bd e23b bf3d fa2c b83e f234 163e
000000a0: 09b1 bd3e 16d5 783c 95be 803e 344a 223e
000000b0: 621a 6b3e 8eba fe3d 76ab 613e da6f 643e
000000c0: 9eec 3ebe 2790 cd3e 476f 053e 8b13 a03e
000000d0: 6545 d1bd d465 05be 306c c03e fe61 64be
000000e0: e1af fa3e 36eb 203f e930 f23d 4cb1 d83b
000000f0: 5730 a3be feac a2bd 0cff 7b3e 0f1e 843b
00000100: a5b8 163e f029 de3c 8ddc 3cbe 20cc 39bf
00000110: d7eb ea3c 9cd0 92bc 1a19 593e 71cf 5ebe
00000120: 6e20 8bbd a1ff 353e 9229 a53e d132 4c3e
00000130: d9e4 80be 3fb1 1c3e ea7b 21be fb4d 18be
00000140: 8da1 fb3e a9a5 3ebe 128a 933e 1e7b d43e
00000150: 4e05 093f 8113 0e3f af72 8c3c d715 2abf
00000160: 8487 1fbe a363 dfbb 3314 353d a92a 523e
00000170: 4e6c b83d 90b5 7b3d 6ec1 323e c1a2 ce3e
00000180: 01a7 cc3e 2f51 003e a4ba 8f3d 0242 673d
00000190: fa48 25bf c0d3 043f 6111 043e 6c14 ecbd
000001a0: 2f8f 6f3e 449c 393e 72e8 44bf 1275 73bb
000001b0: d8f6 cbbd 2930 243d ea5e 0cbd ed85 5d3e
000001c0: aa2f 563e a4a6 2e3f 2fbb d33e 12c2 0d3f
000001d0: 714f a23d edca a73e d324 99bd 297e 063e
000001e0: cf6c 213e 9cde 3f3d a3ee 303e 3533 c83e
000001f0: 7ce6 d6bd d205 953e 477f 37bc d971 4bbd
0.008677131 0.0045240656 0.68806356 0.5302273 -0.21973132 -0.10056998 -0.042377822 0.49352184
-0.037075933 0.0871751 -0.12290378 -0.25844768 0.3748282 0.18295303 -0.021992913 -0.39743224
0.43981016 -0.14423804 -0.13320272 -0.2164381 0.417329 -0.18731476 0.044460695 0.197042
-0.16763431 -0.29002106 -0.27725568 -0.61097324 0.34173056 0.14837053 -0.097258486 -0.2041712
0.4403016 0.04810897 0.27952474 -0.04387666 -0.096109845 0.093375936 0.35971814 0.14668635
0.3704913 0.015187522 0.25145403 0.15848619 0.22959283 0.12437926 0.22038063 0.22308293
-0.1864495 0.40149042 0.1303073 0.3126491 -0.10218314 -0.13027126 0.3758254 -0.22303006
0.4896231 0.62858903 0.11825735 0.0066129323 -0.31872818 -0.07943152 0.24609011 0.0040319036
0.14718874 0.027119607 -0.18443508 -0.72577095 0.02867691 -0.017921738 0.21200982 -0.2175882
-0.06793295 0.17773296 0.32258278 0.1994126 -0.25174597 0.15301989 -0.15769926 -0.14873497
0.4914669 -0.18617882 0.28816277 0.4150018 0.5352372 0.5549851 0.01714453 -0.66439575
-0.15579039 -0.0068172975 0.044208717 0.20524086 0.090050325 0.06145245 0.174566 0.40358546
0.39971164 0.12530969 0.07018021 0.056459434 -0.6456448 0.51885605 0.12897255 -0.11527333
0.23394464 0.18126017 -0.76917183 -0.0037148637 -0.09959191 0.04008499 -0.034270205 0.2163312
0.2091662 0.68223023 0.41353747 0.5537425 0.079253085 0.32772008 -0.07477727 0.13134064
0.15764163 0.046843156 0.17278533 0.39101568 -0.1049318 0.29106003 -0.011199779 -0.04966912

res_block2.ln.weight f4 [128]
00000000: a862 603f deff 593f cf50 863f d03e a53f
00000010: 8675 7d3f 9d3a 723f b4de db3f 3124 753f
00000020: 5611 913f 0128 7a3f ca3c 923f 560f 3d3f
00000030: 12ae 603f d732 9b3f 37a5 2f3f 66fb 883f
00000040: fdd7 8c3f a733 db3e 7ea9 5d3f ac78 3a3f
00000050: a9aa 5d3f e4f4 7e3f 7de6 803f e6c4 803f
00000060: aa43 763f bd3e 843f b741 663f 514b 5b3f
00000070: d0a7 743f 81a0 933f 02a8 673f 5e64 693f
00000080: 8444 6b3f 5afd 683f 2649 633f e30f 823f
00000090: e0f4 9b3f bc4d 933f a20d bd3f d286 7f3f
000000a0: 9766 8f3f eb58 863f ba7f 6d3f e3aa 343f
000000b0: 7bb8 063f 5350 673f 18b9 603f 27b4 8d3f
000000c0: 0186 5b3f 3be3 603f 70dc 803f 0020 7d3f
000000d0: 0b87 2b3f e65b 553f 20ad 833f db88 723f
000000e0: d787 4f3f 11bf dd3f a196 503f ae3e 393f
000000f0: 88db 933f b239 9a3f 584b 723f bc1b 203f
00000100: 04a6 913f f41d 803f 06b4 703f d462 8b3f
00000110: 1982 8b3f a559 ae3f 3de4 833f e215 803f
00000120: ef21 733f 65de 6c3f b1f2 b13f 2b82 6e3f
00000130: f719 4b3f 9e08 773f f9ce 633f b923 5a3f
00000140: a4d6 7c3f d852 573f ad25 ec3f 7057 9f3f
00000150: 41d1 bc3f 11c7 543f b513 c73f 45a6 733f
00000160: 2aa1 843f e2aa 403f 89d1 803f e30f 633f
00000170: 10bc 533f b1ea a33f fd48 923f f223 8c3f
00000180: 0439 7e3f 8c37 243f 092c 563f f996 573f
00000190: 0cd7 193f bc3b 7e3f 77d7 983f 21fc 1c3f
000001a0: 2890 703f 091c 6e3f 2fbd 9b3f 3242 3f3f
000001b0: 5ded 5c3f be45 563f f77e 1d3f a174 b83f
000001c0: 97b9 353f 5313 e13f 8785 793f 9c17 5a3f
000001d0: 25bb 6d3f cd23 a43f 7671 543f e8da 6d3f
000001e0: 226b 783f 9ab8 393f e897 983f 4737 9b3f
000001f0: 73fd 703f c19d ab3f dce2 813f 3963 4e3f
0.8765054 0.8515605 1.0493411 1.2909794 0.9900745 0.94620687 1.7177339 0.9575835
1.1333416 0.9771729 1.1424801 0.73851526 0.8776561 1.212489 0.6861147 1.0701721
1.1003414 0.42812845 0.8658675 0.7284038 0.8658853 0.99592423 1.007034 1.0060089
0.96197 1.0331646 0.8994402 0.856618 0.9556856 1.1533357 0.90490735 0.91168773
0.9190142 0.91011584 0.8878349 1.0161098 1.2184105 1.1508098 1.4769785 0.99815094
1.1203183 1.0495886 0.9277302 0.7057325 0.52625245 0.9035694 0.8778243 1.1070603
0.8575135 0.87846726 1.0067272 0.98876953 0.67002934 0.8334335 1.0287209 0.94740075
0.8106665 1.7323934 0.8147984 0.72361267 1.1551371 1.2048857 0.94646215 0.6254232
1.1378789 1.0009141 0.94024694 1.0889535 1.0899078 1.3621107 1.0304028 1.0006678
0.94973654 0.9252685 1.3902189 0.9316737 0.79336494 0.96497524 0.8898769 0.8521076
0.98765016 0.84110785 1.8448998 1.2448559 1.4751359 0.8311625 1.5552889 0.9517558
1.0361683 0.75260746 1.0063945 0.88696116 0.82708836 1.2805997 1.1428524 1.094847
0.9930575 0.6414726 0.8366094 0.8421474 0.6009376 0.993099 1.1940755 0.6132222
0.93969965 0.9301153 1.2167109 0.7471038 0.8629969 0.8370017 0.6152186 1.4410592
0.7098631 1.7584022 0.9746937 0.85192275 0.92863685 1.2823426 0.8298563 0.9291215
0.9703847 0.72547305 1.1921358 1.2126244 0.9413673 1.3407518 1.0147357 0.8062015
