best_residual_mlp_model.pth (torch, 702779 bytes, 24 tensors)

entry.weight f4 [256, 28]
000000 7e a4 9e 3d ef f7 36 bb b9 41 5d 3e 91 69 10 3e
       0.07746218 -0.0027918776 0.21607102 0.1410277
000010 64 82 22 3e 86 80 30 3e fd d8 5a bc 6f 28 4c 3e
       0.15870053 0.17236528 -0.013357398 0.19937299
000020 32 bd 9c be 46 73 36 bb 4a 5b 91 3c 87 ee 52 3e
       -0.30613095 -0.0027839704 0.017743725 0.20598803
000030 fc 74 2a 3a 33 ea 12 3e 15 bd 8e bc 21 3c af 3d
       0.00065024174 0.14347152 -0.017424146 0.085563906
000040 99 2f 08 be 23 1d 8e 3c be 0d c6 bd c3 63 82 3d
       -0.13299407 0.017347878 -0.0967059 0.06366684
000050 28 d5 9d bd f6 62 86 be 88 88 4e be e1 c5 30 3e
       -0.07706672 -0.26247376 -0.2016927 0.17262985
000060 31 b2 11 be 28 ec 9d bd e0 26 14 bf 5c 5b 59 3b
       -0.14228131 -0.07711059 -0.5787182 0.0033166027
000070 9c 83 24 3e 32 46 84 3e 3b b0 12 3e 3a ae 99 3c
       0.1606583 0.25834805 0.14325039 0.018759836
000080 25 0a bc be 4f ad 70 be 72 5e 05 be 24 60 ff 3c
       -0.3672649 -0.23503612 -0.1302431 0.031173773
000090 62 37 84 bd 97 c3 64 3e 4a b3 5b be 63 4b b6 be
       -0.06455876 0.22340237 -0.21455112 -0.3560439
0000a0 84 2f 34 be 7a 53 24 3e f6 d7 e2 be 94 f1 df bd
       -0.17596251 0.16047469 -0.4430539 -0.10934749
0000b0 eb 80 5d be 52 2d 04 be ff 7e bc 3e 65 60 e7 3e
       -0.2163121 -0.12907913 0.3681564 0.4519073
0000c0 c0 f0 00 3f 10 2e ad bd ae 04 52 bd 31 73 2e be
       0.50367355 -0.08456051 -0.051273994 -0.1703613
0000d0 8f 38 67 3d 98 3b 9d 3c ca cc af bf a6 cb 05 bf
       0.056450423 0.019193456 -1.3734372 -0.5226387
0000e0 7b 0d e3 3f f3 9f 92 bf 97 fd 10 bf 4f 6a 8d 3e
       1.7738489 -1.1455063 -0.5663695 0.2762017
0000f0 2f 97 01 3f 4a 42 3a 3f 7d 7d 7d 3e 3d 25 94 40
       0.5062131 0.727574 0.24754901 4.6295457
000100 9b bf c1 bb da bf ef bd c3 99 59 bd 93 12 a6 3e
       -0.0059127337 -0.11706515 -0.053125154 0.32436046
000110 15 72 fd bd 54 67 48 3f 8e 88 f1 3f 55 2e 3a bf
       -0.12375275 0.78282666 1.8869798 -0.7272695
000120 c2 35 9b 40 e2 a9 12 41 46 4e fe ba ef 39 8f 3e
       4.850312 9.166475 -0.0019401989 0.27973887
000130 46 56 88 c0 43 aa bb 3d 3e 85 b1 3f 5b ba 52 40
       -4.2605314 0.09163334 1.3868787 3.2926242
000140 c2 62 2e 3e c9 e6 d3 3e 2c bc 2b bf d2 21 80 be
       0.1702986 0.41387013 -0.67084 -0.25025803
000150 1a 42 cc 3e 9d 95 32 be ce fa a3 bc 96 14 41 bc
       0.3989418 -0.17439885 -0.020017054 -0.011784693
000160 62 37 5b 3d ec 1e 8d 3e 09 79 b4 3d 4c 6e 8a bd
       0.053519614 0.27562654 0.08812148 -0.06759319
000170 e1 67 81 be a8 0c 5a bd 62 7b 03 3e d6 42 af 3e
       -0.25274566 -0.053234726 0.12840036 0.3423068
000180 bd ba ac 3c c6 5e 11 3f 22 6b 05 be ac 2f 68 be
       0.021085138 0.5678524 -0.13029149 -0.22674435
000190 d3 d7 25 3d 9e 99 4d bd 1b f8 42 be 66 08 a7 be
       0.04048903 -0.05019533 -0.19039957 -0.32623595
0001a0 78 79 a7 3e 32 ce 8b ba 5b 23 96 3d 06 e9 80 3e
       0.3270986 -0.0010666309 0.07330962 0.25177783
0001b0 a1 29 82 be 7c 8b 3d 3d 7a 0f 1b bd c0 5d 5f 3e
       -0.25422385 0.0462756 -0.037856556 0.21813107
0001c0 7e 9d aa bf 34 45 23 bf 92 36 80 3f d5 52 80 bc
       -1.3329313 -0.6377747 1.0016654 -0.015664497
0001d0 9f a7 80 3e 83 f6 e6 bc 6e ae 32 3f 17 41 87 c0
       0.25127885 -0.028193718 0.6979741 -4.2266955
0001e0 3e 7b f5 bc a3 a2 1f 3e f6 7c 30 3f 4c 6c bf be
       -0.029965993 0.15589385 0.68940675 -0.3738731
0001f0 73 fa fe 3e d9 b5 87 bf 3d 22 a8 bf a6 88 6b 3f
       0.49800453 -1.060237 -1.3135449 0.92005384
000200 09 b7 87 c0 70 f5 75 c1 08 77 e3 be f2 56 59 3f
       -4.241093 -15.372421 -0.4442675 0.84898293
000210 87 b9 81 40 27 7c f7 be 89 dd cd bf af 49 46 c0
       4.0538974 -0.48336908 -1.6083232 -3.0982473
000220 47 f3 f2 be 53 7e 45 be 09 20 d7 be 52 f6 f5 bd
       -0.4745123 -0.1928647 -0.42016628 -0.120098725
000230 05 b8 58 3e 7e b7 e0 3e 7d 56 92 3d 89 dd 5c be
       0.21163948 0.43889993 0.071454026 -0.21568884
000240 11 da 16 be aa 93 10 3f 2a 05 05 3f 90 28 29 3e
       -0.14731623 0.5647532 0.51961005 0.1651938
000250 ae 73 61 bd 99 a1 de 3d 05 8d 98 3d 8e 40 07 bf
       -0.05504196 0.10870666 0.07448772 -0.5283288
000260 8b ac a0 be f8 11 0b bf c1 35 c0 bc 63 5d cf 3e
       -0.3138164 -0.54324293 -0.023463132 0.40500936
000270 1b c4 bb 3e c0 f1 57 bc 5c d2 a9 3e 5f 95 9e 3e
       0.36673054 -0.013180196 0.33168304 0.30973336
000280 84 3a dd be fd cf b4 3d 49 b9 5c be b8 e4 94 bd
       -0.43208706 0.08828733 -0.21555056 -0.07270187
000290 cd 7b 27 be e6 47 ec 3c d1 33 81 bf d5 e7 13 bf
       -0.1635582 0.028842878 -1.0093938 -0.5777562
0002a0 b2 70 cf be 7a e2 85 3f 2f d6 29 bf b7 19 8c bf
       -0.40515667 1.045974 -0.66342443 -1.0945348
0002b0 ae e2 7d bf f2 5f 5a 3e ad 78 2d 3f 35 29 1a 3e
       -0.9917401 0.21325663 0.6776226 0.15054782
0002c0 04 bf d3 bd 30 f6 9a 3f 42 c3 31 bf 2e 40 5b bf
       -0.10339168 1.210638 -0.69438565 -0.85644805
0002d0 2e 7d 65 bf 15 08 01 c0 4f b4 5f bf 62 e7 41 3f
       -0.89644134 -2.0161183 -0.87384504 0.7574369
0002e0 68 49 81 bf 6c 92 82 bf 61 6d 55 3f cf c9 7d 3f
       -1.0100527 -1.0200934 0.83370024 0.9913606
0002f0 68 cd 1e 3e 64 d1 6d 3f 2d 52 2b 3e ba 12 10 bf
       0.15508044 0.9289763 0.16730566 -0.56278574
000300 0d 82 48 bd 62 8d 8d 3f 71 14 84 bf dc 5d 93 bf
       -0.04895215 1.1058772 -1.0318738 -1.1513019
000310 21 e5 3d 3e 3b 0e 12 be 5d 0e 2d bd 92 4f 6d 3e
       0.18544437 -0.14263241 -0.042250026 0.23174885
000320 76 0e 91 3d b2 75 2d 3e e8 f8 2c bd b3 d4 43 be
       0.07082836 0.16939428 -0.042229563 -0.19124107
000330 87 7a ca bc ce 53 84 3d 28 b1 14 3d 3f 75 8e bd
       -0.024716629 0.06461297 0.036301762 -0.06955957
000340 10 8f c5 3e 2a 20 6d 3e b8 0a 41 3e a8 b2 2f 3f
       0.3858571 0.23156801 0.18851745 0.6863198
000350 d6 a5 73 be c4 9e 98 bc 11 16 88 be 3c 0a 39 be
       -0.2379373 -0.018630393 -0.26579335 -0.1807031
000360 c0 1d ad 3d 91 65 e9 bd 9a 21 0f 3d 59 46 29 3e
       0.0845294 -0.113963254 0.034944154 0.16530742
000370 f8 e4 4b bd 86 da 5b 3d b7 bf 00 be 76 0f 18 3c
       -0.04977891 0.053675197 -0.12573133 0.00928103
000380 3b ec 99 bf 71 8e 26 3e 63 fe b7 3e 32 d8 92 bb
       -1.2025217 0.16265275 0.3593627 -0.004481339
000390 16 2c 62 3d 31 cd 26 bf c5 43 dd bc 3a ff 4e c0
       0.055217825 -0.6515685 -0.027009854 -3.2343278
0003a0 96 14 0b bc a8 28 06 3e f4 c2 a8 3d a6 6b e0 be
       -0.008488795 0.13101447 0.08240309 -0.4383213
0003b0 5c 64 28 3f 4c cd 4e bf 32 78 c2 bf 5e 09 3a 3f
       0.65778136 -0.8078201 -1.5192931 0.72670543
0003c0 93 35 68 c0 d7 95 69 c1 69 b8 a1 be 83 ed 5a be
       -3.62827 -14.599082 -0.31586006 -0.21379666
0003d0 0d 41 83 40 5f 4b a8 be b1 d7 d7 bf 07 d4 1a c0
       4.101691 -0.32870004 -1.6862699 -2.4191911
0003e0 51 7b 27 3e 57 74 c5 be aa c2 46 bd c0 b5 eb 3d
       0.16355635 -0.38565323 -0.04852549 0.115092754
0003f0 5b d1 86 bd 45 d9 01 3e 6d 33 80 3e 46 68 72 3d
       -0.065829 0.12680538 0.25039235 0.059181474

entry.bias f4 [256]
000000 40 04 88 be 8f 4e 6e 3e 67 8a b4 3e 42 ba a2 3d
       -0.26565742 0.23272155 0.35261843 0.07945682
000010 f5 59 da 3c 76 26 43 bd 24 9e 87 3f 29 10 11 be
       0.026654223 -0.0476441 1.0595136 -0.14166321
000020 11 77 a6 be 71 7a 6f 3d 84 bf 97 bd 1f 95 8f 3e
       -0.32512715 0.05846638 -0.074095756 0.28043458
000030 e5 d9 96 3e a2 ac e0 be 4c 3c ec 3d 66 fb 91 3e
       0.29463115 -0.43881708 0.11534938 0.28512114
000040 1c 5e 88 be bd c0 8e be 3f f4 bc bd 25 e5 84 be
       -0.266343 -0.27881423 -0.09226274 -0.25956073
000050 85 4d 0e 3f 13 30 97 3d 2f 9b b5 be bf 20 aa be
       0.55587035 0.07382216 -0.35469958 -0.33228108
000060 54 cd 96 be b8 e4 53 bd 23 2a 9b 3e 90 aa 24 bc
       -0.29453528 -0.051731795 0.30305585 -0.010050431
000070 37 b0 ae bd 41 f1 db bd ec 20 71 bc e1 6e 73 be
       -0.08529704 -0.10739375 -0.014717322 -0.23772766
000080 e4 91 29 3f 54 57 6c 3e 3c 0a 99 3d e6 e6 9a be
       0.66238236 0.23080188 0.07472655 -0.30254287
000090 b7 55 3f be 7a 78 95 bd 22 76 d5 3e 2b 0e 86 3d
       -0.18685041 -0.0729837 0.4169169 0.06545671
0000a0 32 84 32 be ad 61 b7 3e 39 c0 ab bb fd 09 9e 3d
       -0.17433241 0.35816708 -0.0052414206 0.07716749
0000b0 92 31 68 3e 25 5f 55 3d 1d 58 d9 3d c9 36 04 bf
       0.2267516 0.05209269 0.106125094 -0.51646096
0000c0 4d 6a 3d 3d b1 95 42 3e 7c 66 bb 3e 21 56 81 3d
       0.046243954 0.19002415 0.36601627 0.06315256
0000d0 23 dc da 3d e5 a4 4a be 21 80 36 be ec 16 88 bd
       0.10686519 -0.19789465 -0.17822315 -0.06644997
0000e0 fa 5c 80 3f 15 97 e7 bd ae 14 33 be 13 bf b9 3e
       1.0028374 -0.113081135 -0.17488357 0.3627859
0000f0 51 7b 4c 3d b2 96 11 3d 90 02 03 be 0b aa 81 3e
       0.04992229 0.035544105 -0.12793946 0.25325045
000100 20 4e 21 3e 71 f6 a0 3e a1 11 93 3d 97 9d 19 bd
       0.15752459 0.3143802 0.07181097 -0.037503805
000110 29 93 bd 3e e2 8b b3 bc b9 fb e0 bd 66 57 9a bd
       0.37026337 -0.021917287 -0.10985512 -0.07536201
000120 8a 64 0b bd 85 8d 3d bd 38 aa c9 be 5f 55 2f 3e
       -0.03403143 -0.04627754 -0.3938768 0.1712241
000130 d2 c4 6d be 8a 0f b1 bd af 75 07 3f 9a 7b 7c bc
       -0.23219612 -0.08645542 0.52913946 -0.015410328
000140 ba 12 8c 3e 00 3b 9b be fa 4b 9f bc 53 5c 81 bd
       0.27358037 -0.3031845 -0.019445408 -0.063164376
000150 2f 1f 21 3e 1b ea 4f be ef d8 9c be b6 b2 72 be
       0.15734552 -0.20304148 -0.30634257 -0.23700985
000160 e6 b0 15 3b a5 08 8e ba d4 f6 ea bd ed 12 5b bd
       0.0022841035 -0.0010836317 -0.1147286 -0.053484846
000170 24 9d 9c 3e a0 1e 11 3e 6d 68 d1 bc 34 62 93 bd
       0.3058864 0.14171839 -0.02556249 -0.07196465
000180 bc 1d 9e 3d d5 20 a6 3d 3b a9 b9 3d 09 b6 89 be
       0.07720515 0.08111731 0.09065481 -0.26896694
000190 65 09 25 be 9f 92 a9 3e 28 76 49 3e aa 83 e6 be
       -0.16116865 0.33119676 0.1967398 -0.45022327
0001a0 f8 66 17 be 89 c6 61 3e 82 79 bc 3d 5d 91 8e bc
       -0.14785373 0.22048391 0.09202863 -0.017403299
0001b0 8c 14 7c 3d be 2b a2 be ba 7a 93 3e 70 49 18 3d
       0.061543033 -0.31673998 0.2880457 0.03717941
0001c0 ba 91 9b 3e db dc 27 bc 15 c3 61 3d 40 42 ac 3c
       0.30384618 -0.010245527 0.055117685 0.021027684
0001d0 b7 7c 42 be e4 d6 06 be 27 d9 2e 3d f9 59 f1 bd
       -0.18992887 -0.13167912 0.04268756 -0.11784739
0001e0 ea df 3f 3d 40 32 fc bb f8 48 ab be f4 66 e4 bd
       0.0468444 -0.00769642 -0.33454108 -0.11152449
0001f0 18 cf 8e 3e 56 05 db bc 45 97 b0 3d 6e ea ec bc
       0.27892375 -0.026735943 0.086226024 -0.028920379
000200 69 3e 84 3e f9 dc 62 3e 0e 31 51 3e 82 e8 3c bc
       0.25828865 0.22154607 0.20428869 -0.011530044
000210 08 26 15 3f 06 3e 3e be d4 06 ce 3e 25 81 9d bd
       0.58261156 -0.18578348 0.40239584 -0.07690648
000220 cf 24 f6 be ba 6d 50 3e 87 99 42 3d ae 39 80 3e
       -0.48074958 0.20354357 0.047509696 0.25044006
000230 31 15 96 3d 60 93 71 be a7 06 35 3f a5 32 46 3d
       0.07328261 -0.23591375 0.70713276 0.048388142
000240 7e 4e 11 be 32 f4 e2 3c c0 31 45 be df 7b 3e be
       -0.14190099 0.027704332 -0.1925726 -0.1860194
000250 92 76 6a 3e 95 2c 06 be aa 61 09 be 03 87 49 be
       0.22896793 -0.13102944 -0.13416162 -0.19680409
000260 0a 30 2b bd 24 c0 3a 3e dc d8 c5 be dd 67 53 bd
       -0.04179386 0.18237358 -0.38642013 -0.051612724
000270 35 0d 44 be 05 a2 90 3e ff 3d 3e bc 73 fe 09 3f
       -0.19145663 0.2824861 -0.011611461 0.53903884
000280 ae 18 16 bf e7 88 f1 b9 f3 71 52 be bf d2 4f 3e
       -0.5863141 -0.00046069102 -0.2055128 0.20295237
000290 0f 2d 95 3e 68 4e c4 3e 24 67 5a be 7f 30 7b bd
       0.2913594 0.3834107 -0.21328408 -0.061325546
0002a0 fd f2 40 3f 35 05 66 3e 2c 61 1c 3e d7 a4 83 3d
       0.7537077 0.22462924 0.15271443 0.06427925
0002b0 92 db 6c 3f 65 03 1b bf 0b ab 1f 3e 59 3e 86 be
       0.9252254 -0.60552055 0.15592591 -0.26219442
0002c0 c5 fa 26 3e e7 33 22 3d e0 f2 5f 3e aa 25 1b 3b
       0.16306598 0.03960028 0.21869993 0.0023673573
0002d0 b0 7f fc bd 6d 05 a8 be 91 58 73 bd 6d 94 0d bd
       -0.12329042 -0.3281664 -0.059410635 -0.034565378
0002e0 39 f0 b0 3d 0e 5f e7 bd ed 48 74 3e 20 b7 87 be
       0.08639569 -0.11297427 0.23855944 -0.265069
0002f0 48 ad 22 3e c7 03 b2 3d ba 6c b6 3d 15 af 34 be
       0.15886414 0.08692127 0.08907457 -0.17644913
000300 36 09 05 be 2e 20 23 3d ea b7 e2 be d5 7f df 3b
       -0.12991795 0.03982561 -0.4428094 0.0068206587
000310 6f fb b0 bd ba 14 23 3e 46 90 24 3e 0c ee 71 be
       -0.08641707 0.15925875 0.16070661 -0.23625964
000320 e3 41 84 3e e2 01 8f be ec 96 12 3d 47 78 89 3e
       0.25831518 -0.27931124 0.03578846 0.26849577
000330 ec 98 33 3f 28 ca 6d 3d 5e db c0 3e 21 90 39 bd
       0.70155215 0.05805412 0.37667364 -0.045303468
000340 47 26 57 3e 9c a1 9d bd 04 cf 3b bf dd 26 13 3e
       0.21010695 -0.0769684 -0.73362756 0.14370294
000350 c0 18 02 3d 91 67 9c be b2 07 ff bc 00 32 89 be
       0.031761885 -0.30547765 -0.0311316 -0.2679596
000360 ab b2 8a bd 16 87 b2 3e de 56 c6 bd 39 e8 7a be
       -0.067723595 0.34868687 -0.09684537 -0.24502648
000370 36 50 62 3e 8a b5 f6 3d fc c8 88 3e e5 8f 62 bd
       0.2210091 0.120463446 0.2671584 -0.05531301
000380 fe 72 8f 3f b4 85 cf 3d 6f 7a 59 bd d3 89 ba bd
       1.1206968 0.10132924 -0.053095277 -0.09108319
000390 c5 e6 b7 3e 51 62 20 be 9e bf 0f be 0a b3 e4 be
       0.3591825 -0.15662505 -0.1403794 -0.44667846
0003a0 9f dd 2c 3e 36 99 4b 3d 91 36 f7 3d 97 ae 48 3e
       0.16881417 0.04970666 0.120709546 0.1959785
0003b0 1a 15 0d bd f9 72 a2 3d e9 84 ad 3e 12 6a 97 3e
       -0.034443952 0.079320855 0.33890465 0.29573113
0003c0 2d 88 55 3e 8a 80 46 3c f7 5b bc 3d de 0a f9 3e
       0.20852728 0.012115607 0.091972284 0.48641104
0003d0 5d ed 18 3e 1a b8 40 bd e8 21 25 3e 2c 3e 9c 3e
       0.14934297 -0.047050573 0.16126215 0.30516183
0003e0 0a 7b b2 3e 92 11 96 3d 07 9d 2c 3e a0 d5 12 3e
       0.34859496 0.0732757 0.16856776 0.14339304
0003f0 f8 c9 16 bd 6f 8c 0f 3c f6 d8 9a bc a4 75 12 bd
       -0.036813706 0.008761509 -0.018902283 -0.035756722

res_block1.fc.weight f4 [256, 256]
000000 5e c0 00 3d 7f 9d 8e be 00 c3 71 3e f9 8b 01 be
       0.031433456 -0.27854535 0.23609543 -0.12651052
000010 09 91 48 3d 96 3b df 3d 9b cf 09 3f 26 16 d1 bd
       0.04896644 0.10900037 0.53832406 -0.102093026
000020 ef 10 2e 3d 91 1c 3c be 23 6a 73 be 2e 24 a4 3e
       0.042496618 -0.18370272 -0.23770957 0.32058853
000030 ae 37 e7 3d dd dc ee bd a1 c9 0c bd 6d 1c 14 3d
       0.11289917 -0.1166322 -0.034371976 0.03615992
000040 28 4e 82 bd 3a 3b 98 3d cb c7 c0 bc e6 b1 a2 bc
       -0.06362563 0.074331716 -0.023532769 -0.01986022
000050 71 12 47 3e 5b 74 78 3d 24 ad 6e 3e 46 cd a7 be
       0.19440629 0.06065784 0.23308235 -0.327738
000060 9b 97 9a bd c9 77 a3 3d e5 fb 38 3e f3 54 08 be
       -0.07548448 0.079818316 0.1806484 -0.13313656
000070 31 c2 7d 3e 6e ea 15 be c1 2f 9e be 96 d6 e2 bd
       0.2478111 -0.14640209 -0.30895808 -0.11076085
000080 45 6b 1e bf df b2 71 bd 59 09 46 bd cb 74 af be
       -0.6188243 -0.059008475 -0.04834876 -0.34268793
000090 98 8d 23 be ac d7 1d be 1f 48 91 3d e0 cf 8c bd
       -0.15971982 -0.15414304 0.07093834 -0.068755865
0000a0 b9 de d9 bd c2 06 14 3e 34 e8 5d be 62 b8 ca bd
       -0.10638184 0.14455703 -0.2167061 -0.098984495
0000b0 1f 13 61 3e e1 0c 25 be 88 e1 6e bc 71 27 ba 3d
       0.2197995 -0.16118194 -0.014580138 0.09089554
0000c0 ca c7 a0 bd 37 42 e8 bd 59 6b e9 3d 3e 54 be bd
       -0.07850607 -0.113407545 0.11397428 -0.09293412
0000d0 3f 15 14 3d a5 bf b7 bd 60 7f 94 be fe c3 c5 3d
       0.036153074 -0.089721 -0.2900343 0.09656523
0000e0 ab 64 06 3e ad 0f 8d 3e 81 8b bf 3d 32 71 e9 3d
       0.1312434 0.27551022 0.0935278 0.113985434
0000f0 19 6b 7e be 13 3d c3 be 31 90 09 bf 18 82 c9 3c
       -0.24845542 -0.38132533 -0.53735644 0.024598166
000100 19 56 4f 3e 92 bc 2b 3d 67 5b 87 3e c5 6e fa bd
       0.20247687 0.04192788 0.26436922 -0.12228159
000110 c1 00 88 be 33 32 92 bd 33 29 0b 3e 32 fa 02 be
       -0.26563075 -0.07138481 0.13589935 -0.12790754
000120 8a 26 25 be 8e d9 f2 bc 25 15 78 be b5 70 60 bd
       -0.16127983 -0.029644754 -0.24226816 -0.054794986
000130 7f 95 9f 3d 4d 5f 46 bd 72 1d 36 3d ee c4 62 be
       0.07792186 -0.04843073 0.044461675 -0.22145435
000140 67 15 ea be fb a6 e8 bd 2d 00 58 be 7e 50 1f be
       -0.45719454 -0.11359974 -0.21093817 -0.15558049
000150 99 1a 69 3e 86 cf a4 be e0 49 65 be 78 f1 8e bd
       0.22764052 -0.32189578 -0.22391462 -0.0697965
000160 e7 c2 85 3e 6d 16 46 be 91 71 81 3d 03 b2 14 be
       0.2612526 -0.19344492 0.06320489 -0.14521031
000170 98 2d c6 3e e1 4b 66 bb 7b 5b 90 3d 97 08 15 be
       0.3870666 -0.0035140442 0.070486985 -0.14554058
000180 2c 68 5a 3e 4e 23 44 3e c3 22 39 be 59 6d 55 be
       0.21328801 0.19154093 -0.18079667 -0.20842494
000190 62 a1 45 be 2f 9e 0b bf 98 be 4e bd 9f 61 bc 3e
       -0.19299844 -0.54538244 -0.050474733 0.3679323
0001a0 0b f6 c3 3d 01 71 6c 3c 36 bb fe 3d a9 f9 3b be
       0.09568413 0.014431239 0.124380514 -0.18356957
0001b0 51 d1 3c be fe 57 44 bd f7 83 b9 3d 00 1d 04 be
       -0.18439223 -0.04793548 0.090583734 -0.12901688
0001c0 5c d3 38 3e c2 90 b4 bd 9c 7d ee 3d 46 8b de bc
       0.18049377 -0.08816673 0.11645052 -0.02716602
0001d0 88 fd 53 bd 5e 49 4a be c2 85 00 3e ff f0 95 be
       -0.051755458 -0.1975455 0.12551025 -0.29285428
0001e0 c8 11 6b be aa a2 eb bc 3f 6f 2f be 4e e3 58 3e
       -0.22956002 -0.028764088 -0.17132281 0.2118046
0001f0 d5 3b fe 3d d6 6e 80 3d 66 72 b7 3d 6b e2 22 3e
       0.12413756 0.0627114 0.08957367 0.15906684
000200 77 e8 e0 3c 70 e6 70 bd 78 72 73 3d c2 5b 4f be
       0.027454598 -0.058813512 0.059435338 -0.20249847
000210 03 33 f9 bd 40 88 2b bd 62 91 aa 3e 0e 1e b7 bd
       -0.12167933 -0.041877985 0.33314043 -0.08941279
000220 57 84 2c be 26 b1 3d 3e 3d 7f 40 3e cd 30 05 3e
       -0.16847359 0.18524608 0.18798538 0.13006897
000230 b3 82 fb 3d dc 5b ca bd 53 10 18 3e 2e fc 34 be
       0.12280788 -0.09880802 0.14849977 -0.17674324
000240 99 df 60 bd d0 08 eb bd b5 36 c0 3c 07 0d c9 bd
       -0.05490074 -0.1147629 0.023463586 -0.09816938
000250 57 4f 0e be ae 06 02 bc 98 68 ab bd 51 7e 92 3d
       -0.13897453 -0.007936163 -0.08369559 0.07152999
000260 59 a9 ca 3d f0 27 c4 be b3 06 96 be 3c 4a 32 be
       0.09895582 -0.3831172 -0.29301986 -0.1741113
000270 28 15 4a be 5a 89 05 be 88 d9 a4 be 2f 56 f5 3e
       -0.19734633 -0.13040677 -0.32197213 0.47917315
000280 17 d4 88 3e 9a 06 d7 bd 34 b2 87 be 35 14 3e 3e
       0.26724312 -0.10499306 -0.26503146 0.18562396
000290 44 18 97 be cf 40 e8 bd 93 e4 ac bd 41 a1 26 be
       -0.295107 -0.11340486 -0.084420346 -0.16272451
0002a0 e9 b1 32 3e 9b 5c 0d 3f fc f7 ab bd 58 4f e7 bd
       0.1745068 0.5521943 -0.08396909 -0.112944305
0002b0 61 87 0c be 1d 5e 4e be 84 83 04 bf ee 3b bc be
       -0.13723518 -0.20153089 -0.51763177 -0.36764473
0002c0 4b b6 aa 3e 88 76 d4 bc 11 41 3c be ba 2b 53 3d
       0.33342203 -0.025935426 -0.18384196 0.051555373
0002d0 81 35 66 be d0 d4 89 bc 45 b9 45 be 66 79 27 be
       -0.22481348 -0.01682511 -0.19308956 -0.16354904
0002e0 f6 bc 2b be 16 e1 91 3e 31 e5 15 be 23 ab b3 3e
       -0.16771302 0.2849204 -0.14638211 0.35091504
0002f0 5a b5 2c 3e 7c f3 b8 be 24 6a 13 bd 79 ea 3b be
       0.16866055 -0.36123264 -0.035989895 -0.18351163
000300 c9 f2 30 be 8c f9 54 be 65 a8 b8 bd 6b 3c f5 bd
       -0.17280115 -0.2079832 -0.09016494 -0.119744144
000310 88 b7 b0 bd 1c b4 9d bd c7 b2 36 be 5a 44 16 be
       -0.08628756 -0.07700369 -0.17841636 -0.14674512
000320 72 90 19 be 04 84 3f 3d 2b ea 57 be 31 61 e9 bd
       -0.14996508 0.04675676 -0.21085422 -0.11395491
000330 c0 ed 8c 3e 86 07 4f 3e 86 a8 f7 bd 27 9a 38 be
       0.2752514 0.20217714 -0.1209269 -0.18027554
000340 1c 4f 97 bd a4 8e b5 bd 83 47 37 be 0f d4 a8 bd
       -0.07388136 -0.08865097 -0.17898373 -0.08243572
000350 73 93 f4 bc 35 73 62 bd 11 85 77 be 65 c5 95 bd
       -0.029855466 -0.05528565 -0.24171855 -0.07313041
000360 d1 7b e1 bd e1 0b a3 3e 64 23 af be da 6b 3e be
       -0.11009944 0.31845 -0.34206688 -0.1859583
000370 88 4d b3 3c d3 14 8d 3d 7e 35 03 be d5 15 75 3e
       0.021887556 0.068887375 -0.12813374 0.2393411
000380 c9 3a ce 3c 00 45 9d be 11 9d 23 ba 5c ec 30 be
       0.025174515 -0.30716705 -0.0006241361 -0.17277664
000390 98 90 eb 3d 66 f7 52 bd 47 ba d8 bd a7 0a 16 be
       0.115021884 -0.05150547 -0.105824046 -0.14652501
0003a0 c6 14 39 3d 20 cc 5b 3f a6 38 f5 3d f4 24 5d be
       0.045185827 0.85858345 0.119736955 -0.21596128
0003b0 6e ae 0b bd 95 31 78 be 30 3e 93 bd d8 4f 61 3e
       -0.034101896 -0.24237664 -0.07189596 0.22003114
0003c0 bc fd b3 3c 7b 60 06 bc 5b 42 28 be 05 07 f4 3d
       0.021971576 -0.008201714 -0.16431563 0.11915401
0003d0 0a 20 87 3e b6 8a 28 be 2a c7 1d bd a3 c9 83 3e
       0.2639163 -0.16459164 -0.038520016 0.25739774
0003e0 8e cf a7 be 5f b5 67 3e 3f e9 35 bd 67 f7 f0 3e
       -0.3277554 0.22627781 -0.044411894 0.47063753
0003f0 f2 c1 0d bd 80 7c 25 be 0f bd 0f be 40 03 8b bd
       -0.03460879 -0.16160774 -0.14036964 -0.06787729

res_block1.fc.bias f4 [256]
000000 80 4b 18 3f 67 90 9d be b2 4f ca 3e b6 ee c5 3d
       0.59490204 -0.30774233 0.39513928 0.09664671
000010 8e 91 84 3e f9 56 55 3f 38 6b 05 3c e3 8b 7a 3e
       0.258923 0.83335835 0.008143239 0.24467425
000020 a6 8f df 3e de 54 cc bd 7c db ab 3e f5 35 e8 3d
       0.43664283 -0.09977125 0.3356589 0.113384165
000030 d6 27 7e 3e 83 cf bd 3e 2f ed e6 3e 17 f8 25 3f
       0.24819884 0.3707238 0.45102832 0.6483168
000040 9d 1e 11 3f 30 ce 89 bd 11 39 3f 3e 41 39 81 be
       0.5668734 -0.0672878 0.18674113 -0.25238994
000050 14 ea e5 3e 64 5d 54 bd df b1 73 3e 50 7e 17 3d
       0.4490515 -0.051846877 0.23798321 0.036985695
000060 37 81 91 3e c8 ba 85 3d b0 fa 44 3f bb 4a bb 3e
       0.28418896 0.06529766 0.7694502 0.36580452
000070 c2 74 f4 3e f8 fe eb 3e ed 1c 8a be c9 49 30 3f
       0.4774533 0.46092963 -0.26975194 0.6886259
000080 f8 1e 9b 3b 9e 8f 89 3e ad d8 f4 3e a0 3a 6c 3e
       0.0047339164 0.26867384 0.4782156 0.23069239
000090 e6 07 0f be da df fc be 4a ac b4 3d ed ec 17 be
       -0.13967857 -0.49389535 0.08821924 -0.14836474
0000a0 ac 41 e1 3c 9f 47 8d 3d c4 67 92 3d 09 68 93 be
       0.027497135 0.06898426 0.07148698 -0.2879031
0000b0 c7 cc 81 be 2c 72 99 3f e4 b2 71 be f8 1e a5 3e
       -0.25351545 1.1987967 -0.23603398 0.3225019
0000c0 33 86 7e 3d 4c 82 1a 3d 88 23 f2 3d f4 5d 51 3e
       0.0621397 0.037721917 0.11823183 0.20445997
0000d0 84 d9 90 be 79 30 ec bd f4 2b 46 3e 85 0f 84 be
       -0.2829095 -0.11532683 0.19352704 -0.2579309
0000e0 20 d9 d5 3e ac 9e 43 be 59 30 91 3e 32 8f 69 3e
       0.41767216 -0.19103497 0.283572 0.22808531
0000f0 c4 24 b6 3e 6a 79 bd 3e 43 c0 6b 3e 93 3b 2d 3e
       0.35574925 0.37006694 0.23022561 0.16917257
000100 6f 7f ed 3d d7 4d e7 3e 2f cd 63 3e cd ca a7 bd
       0.11596572 0.45176575 0.2224624 -0.08192978
000110 2f 99 6c be f6 8c ca bb 68 5f 67 3d 58 d3 e0 be
       -0.2310531 -0.0061813546 0.05648747 -0.43911242
000120 0e ef f9 3b 7b 2f 8b be 9b 16 c2 3c 5b 95 c7 3d
       0.0076273745 -0.27184662 0.02369242 0.09745284
000130 4f fa 0e bf ff 42 83 be 60 6e e2 3e e6 a9 53 be
       -0.5585069 -0.2563705 0.44224834 -0.2067028
000140 ed c3 88 3d 64 af cb bd d4 0b fc bd 4b 96 29 3e
       0.06677995 -0.099455625 -0.123069435 0.16561238
000150 c1 f9 5d be 02 8e 61 3e 42 40 0b 3f 29 52 58 bd
       -0.21677305 0.22026828 0.54394925 -0.05281273
000160 84 d5 71 3f 62 38 0a 3f cc 46 a8 3e eb 52 10 be
       0.94466424 0.53992283 0.32866514 -0.1409413
000170 04 34 b8 be 9c ee b8 3d 2b cf 1a 3e d6 3e f7 3d
       -0.35977185 0.09029886 0.15118091 0.12072532
000180 10 4d 97 3c f3 e8 87 bd c6 63 de bc e8 6a dc 3e
       0.018469363 -0.066362284 -0.027147185 0.43050313
000190 7b 80 88 3e 32 f4 e0 3e e7 3e 49 3f 56 c0 06 38
       0.26660523 0.43936306 0.78611606 3.2127216e-05
0001a0 78 e1 95 3e 8b eb 9a be 75 1c 20 3e 82 c7 1f bd
       0.29273582 -0.3025783 0.15635855 -0.039008625
0001b0 ed db 12 3f fb 0d e3 3e ef a0 f0 3d ba 69 e2 bd
       0.5736683 0.44346604 0.11749446 -0.11055322
0001c0 f8 36 9b 3b c0 2b 28 3f 15 cf 00 be d0 1b d4 3e
       0.0047367774 0.6569176 -0.12578996 0.4142747
0001d0 68 1c a3 3e cc 04 9a bb 1f 60 ec 3d 81 c0 b3 3e
       0.3185761 -0.004700279 0.11541771 0.35107806
0001e0 bc 81 da 3e 48 53 e0 3e 76 13 37 be ef 50 00 be
       0.42677104 0.4381354 -0.17878518 -0.12530874
0001f0 3e 42 1f 3e f6 69 b5 be 97 af 0a 3e 4c 1c 74 3e
       0.15552613 -0.35432404 0.13543545 0.2383892
000200 6a 0b c0 3c 1f ca 36 be 83 51 7e 3d 89 77 3d 3c
       0.023442943 -0.1785054 0.062089454 0.011564144
000210 4a 19 1d be fa bd b4 3e 4d 15 a9 3e 26 20 80 3d
       -0.15341678 0.3530119 0.33024064 0.06256132
000220 20 22 e4 bd f2 e2 ab 3e b5 8a 90 3d de aa 41 be
       -0.11139321 0.33571583 0.07057706 -0.18912837
000230 f6 c3 9c 3d 76 89 ea 3d 1a 3b a7 3e 06 8d 97 3e
       0.07654564 0.11452 0.32662278 0.2959978
000240 b3 cf 8e 3e a7 b8 0d 3f 95 3d 68 3e c8 c7 8e 3e
       0.27892837 0.5535988 0.22679742 0.27886796
000250 71 ea c0 bd db 8e 05 3f 17 d4 3d be 33 85 dd bd
       -0.09419716 0.52171105 -0.18537937 -0.10816421
000260 98 d8 b4 bd 93 5d 42 bd 11 c7 29 bd a1 4a b4 3e
       -0.088303745 -0.04745252 -0.04144961 0.35213187
000270 cc 86 02 3f d5 f5 21 3e c6 13 88 be ce fe 86 3e
       0.50986934 0.15816434 -0.26577586 0.26366276
000280 e0 26 ab 3e 7f ae 85 3e 86 99 3f 3e 94 12 81 be
       0.33428097 0.26109692 0.18710908 -0.25209486
000290 a0 dc d9 3d 2f f8 66 3e 3d c9 04 be 19 fe a4 3d
       0.10637784 0.22555612 -0.12967391 0.08056278
0002a0 ca f6 b6 3e 09 56 df bd 85 d1 d1 bc fd 32 92 bc
       0.3573516 -0.10905082 -0.025612602 -0.017846579
0002b0 4e 34 c5 3e ba 22 7a 3e b4 6b e8 3e 9a 4c 96 3d
       0.38516468 0.2442731 0.4539467 0.07338829
0002c0 2b 9e 95 3e c7 d7 4e 3e 1a c2 a1 3e cf 00 68 3e
       0.29222235 0.201995 0.315934 0.22656558
0002d0 da 68 15 3f d7 b1 a9 3e 48 a5 aa 3e 53 db 31 3f
       0.58363116 0.33143494 0.33329225 0.6947529
0002e0 8c f9 25 3e e8 4c 67 3e 1a b9 4a be 8a 7d c8 3e
       0.16208476 0.22587931 -0.19797173 0.3915828
0002f0 65 e5 d2 be c8 d1 f0 3e 8a 16 c4 3c 93 09 99 3e
       -0.4119064 0.4703505 0.023936529 0.29890117
000300 fa fd 01 bf 5e 19 f9 bd 39 13 63 3e ad 71 48 3e
       -0.5077816 -0.121630415 0.22175302 0.19574614
000310 4d 56 26 be 8b e6 b8 be 99 b6 86 be fa 46 05 3f
       -0.16243859 -0.3611339 -0.26311186 0.52061427
000320 a4 ee 12 3e 43 69 1c be 85 78 3e be 04 33 31 3e
       0.14348847 -0.15274529 -0.18600662 0.17304617
000330 4b 5e 19 3f 05 58 95 3d 56 93 07 3f da 20 91 3d
       0.59909505 0.07292179 0.5295919 0.07086344
000340 bf c6 28 be bf 02 d9 bd d6 1f 03 3f 91 c7 4c 3f
       -0.16482066 -0.10596227 0.5122045 0.79992014
000350 0c d3 d4 3b 0b eb 06 3f 80 e2 3f 3d 69 48 d0 be
       0.0064948853 0.527024 0.046846867 -0.40680245
000360 03 11 f1 3e 8a 4f a6 bd 00 1a ca 3e 71 dc 42 3f
       0.4708329 -0.081206396 0.3947296 0.76117617
000370 8d 8f ff 3d 9c 5d c4 3c 6f 64 87 3e 10 2a a2 be
       0.12478552 0.023970418 0.26443812 -0.31672716
000380 5d cc f1 3e c5 4e 9f 3d 79 97 19 3f 61 e6 d8 bd
       0.4722623 0.07778696 0.59996754 -0.10590816
000390 29 49 6b 3e 66 9c df bd e3 5e c6 3e 22 12 aa 3e
       0.22977127 -0.109185025 0.38744268 0.3321696
0003a0 2f 31 d7 be fa ae 91 be db 35 23 3f 85 79 d0 bd
       -0.42029712 -0.2845381 0.6375405 -0.10179428
0003b0 9e d2 34 3d a9 52 5b 3e f4 53 b0 3e 70 a1 6e 3f
       0.044146173 0.21418251 0.3443905 0.93215084
0003c0 22 1b a5 3f 69 25 f5 be 0e a5 b3 3d fe f5 41 3d
       1.2898905 -0.47880104 0.08771716 0.047353737
0003d0 69 55 22 3f b7 ba 6e 3b e6 eb 46 be 36 fc 31 be
       0.63411576 0.0036427209 -0.19425926 -0.17381367
0003e0 4a c2 f3 bd 02 87 08 3e 3c 1f 3a bd 3d 6e f5 bd
       -0.11902292 0.13332751 -0.045439944 -0.11983917
0003f0 63 31 89 be 8c 02 e4 3d 9f f3 0f bd ab c4 20 3e
       -0.26795492 0.11133298 -0.035144445 0.15700023

res_block1.ln.weight f4 [256]
000000 2a ce 89 3f 88 b7 43 3f 0a 4d 75 3f 99 19 44 3f
       1.0766041 0.7645192 0.9582068 0.7660156
000010 9b 67 b4 3f 14 7d a1 3f a8 74 2e 3f dc b9 6b 3f
       1.4094118 1.2616296 0.68146753 0.92080474
000020 8a 9b 91 3f 96 ad 48 3f 67 f0 89 3f 0a a7 35 3f
       1.1375592 0.7838987 1.077649 0.70958006
000030 58 0c 91 3f e6 13 a1 3f b2 05 bd 3f ba 5c 68 3f
       1.1331892 1.2584198 1.4767363 0.9076649
000040 ce 4e c3 3f 83 bd 86 3f 93 65 6f 3f 27 a7 69 3f
       1.5258424 1.0526584 0.93514365 0.9127068
000050 16 13 a4 3f 62 b5 83 3f b8 09 95 3f 81 62 62 3f
       1.2818325 1.0289729 1.1643591 0.88431555
000060 f4 8d 8d 3f 79 36 47 3f 98 2a 88 3f e8 ea bb 3f
       1.1058946 0.77817494 1.0637999 1.4681063
000070 be 71 b9 3f c7 9d 53 3f a3 66 68 3f d4 df 8a 3f
       1.4487836 0.82662624 0.9078161 1.0849557
000080 ad 0a a9 3f 28 d0 59 3f fb e8 45 3f 7c 44 75 3f
       1.3206383 0.85083246 0.77308625 0.95807624
000090 b4 8d 22 3f 3d 78 4c 3f 34 5b 5a 3f f0 d1 70 3f
       0.6349747 0.7987097 0.85295415 0.9407034
0000a0 6e 87 82 3f f7 5c 86 3f 7a 37 87 3f 3f 74 5f 3f
       1.019758 1.0497121 1.0563805 0.8728675
0000b0 99 3e 63 3f 56 e0 d9 3f d7 1d 8b 3f d6 24 a0 3f
       0.8876739 1.7021587 1.0868481 1.2511241
0000c0 a7 ba 8b 3f 7f f9 4f 3f db 86 83 3f 64 22 7d 3f
       1.0916337 0.81240076 1.027553 0.988806
0000d0 75 af 53 3f 50 ec 3b 3f a5 a1 65 3f 1c 79 31 3f
       0.826896 0.7340746 0.89699775 0.69325423
0000e0 b9 e4 66 3f 4e f1 44 3f a6 c2 6e 3f 30 98 a0 3f
       0.90192753 0.769307 0.9326576 1.2546444
0000f0 33 1e 82 3f dc 13 4a 3f 53 00 79 3f df 2f 7c 3f
       1.0165466 0.78936553 0.9726612 0.98510545
000100 84 95 4a 3f ec 5b a6 3f 4e 66 7c 3f 1e ae 8e 3f
       0.7913439 1.2996802 0.98593605 1.1146886
000110 7b dc 7f 3f 84 54 ab 3f 47 fc 81 3f f1 fb 63 3f
       0.999458 1.3385167 1.0155114 0.8905631
000120 2b b6 80 3f 55 f1 42 3f b4 84 9f 3f 63 35 52 3f
       1.0055593 0.76149493 1.2462373 0.8211271
000130 4d f4 6a 3f 4e 9d 40 3f ad 37 ba 3f 21 3c 6b 3f
       0.91779023 0.7524003 1.4548241 0.91888624
000140 3f 02 6a 3f 4e de 4f 3f 9d 6c 8a 3f ba d5 4b 3f
       0.9140968 0.81198585 1.0814396 0.79622996
000150 47 87 41 3f 7c 5c 71 3f 64 30 b0 3f c9 ab 3e 3f
       0.7559704 0.94281745 1.3764768 0.74480873
000160 9e 5e 80 3f 88 e3 b7 3f 28 b4 a7 3f 49 3c 75 3f
       1.0028875 1.4366312 1.3101854 0.9579511
000170 d1 b5 76 3f e8 a6 50 3f 58 14 8d 3f 57 d5 50 3f
       0.9637118 0.8150468 1.1021833 0.8157553
000180 44 98 13 3f 27 46 24 3f d7 a6 5a 3f 89 a6 b8 3f
       0.57654214 0.64169544 0.8541083 1.4425822
000190 03 5b 87 3f dc c1 91 3f 87 c6 9a 3f 89 e9 b7 3f
       1.057465 1.1387286 1.2091836 1.4368144
0001a0 85 ac 60 3f 7c 43 66 3f dd 24 71 3f 36 3a 68 3f
       0.87763244 0.89946723 0.94196874 0.9071382
0001b0 ce 05 85 3f 1e b9 92 3f 04 23 a3 3f 10 e8 b1 3f
       1.0392396 1.1462743 1.2745061 1.3898945
0001c0 7c 8e 43 3f eb d2 3f 3f 63 69 73 3f 36 4e 9f 3f
       0.7638929 0.7493121 0.9508268 1.2445743
0001d0 78 40 48 3f 12 6f 77 3f 88 05 64 3f bc 9e 53 3f
       0.7822337 0.96653855 0.8907094 0.82664084
0001e0 be b3 6c 3f f4 22 8d 3f 5c 4e 59 3f 61 34 87 3f
       0.92461765 1.1026292 0.8488519 1.056286
0001f0 2f e9 4c 3f 2b 0d 30 3f 64 bb 66 3f 27 7a 4d 3f
       0.8004331 0.6877009 0.90129685 0.80264515
000200 b2 2b 52 3f 60 b3 83 3f 41 fd 37 3f 5e 64 77 3f
       0.82097924 1.0289116 0.7187081 0.96637523
000210 8f 9d 52 3f e3 94 6a 3f 44 ab e7 3e aa 8f 75 3f
       0.82271665 0.91633433 0.45247853 0.9592234
000220 61 7e 8b 3f 7e f2 2e 3f 8b 40 10 3f f8 8e 68 3f
       1.0897943 0.68338764 0.56348485 0.90843153
000230 e0 31 9d 3f 0a 51 a0 3f 29 50 81 3f e1 48 6a 3f
       1.2280846 1.2524731 1.0102588 0.91517454
000240 85 0b 69 3f 72 01 96 3f 97 4f a2 3f bf 0c 6f 3f
       0.910332 1.1719191 1.2680539 0.93378824
000250 40 3a 51 3f cc 36 4d 3f 8d d8 6c 3f 8e 6c 38 3f
       0.8172951 0.8016174 0.9251793 0.7204064
000260 9f bf 45 3f d9 4c 8a 3f 89 33 88 3f b0 cf 61 3f
       0.77245516 1.0804702 1.0640727 0.8820753
000270 5b 41 48 3f 52 3d 7b 3f 33 15 51 3f 16 15 10 3f
       0.78224725 0.9814044 0.8167297 0.56282175
000280 d5 79 c3 3f 7b 88 94 3f 62 9f 6f 3f 9a 14 94 3f
       1.5271555 1.160415 0.93602574 1.1568787
000290 5d 5d 66 3f c2 81 76 3f 38 5e 55 3f bc 47 8c 3f
       0.8998621 0.96291745 0.8334689 1.0959392
0002a0 31 16 52 3f e8 b1 49 3f 2f 8d 86 3f 7f c6 4b 3f
       0.8206511 0.7878709 1.0511836 0.79599756
0002b0 17 bd b7 3f d0 1c 87 3f 62 80 54 3f ee f9 91 3f
       1.4354581 1.0555668 0.83008397 1.1404397
0002c0 5a 9d b7 3f 2a 14 5d 3f f6 88 5b 3f 38 e7 52 3f
       1.4344895 0.8635889 0.8575586 0.8238406
0002d0 a3 31 82 3f 3c db 8f 3f 73 14 90 3f ae db a8 3f
       1.0171398 1.123878 1.1256241 1.3192041
0002e0 c0 a1 6c 3f 80 0e 9b 3f e3 2c 80 3f 8f 1e 70 3f
       0.9243431 1.21138 1.0013698 0.9379663
0002f0 e1 e7 59 3f 2a 4d 80 3f 0d 56 32 3f e6 39 70 3f
       0.85119444 1.0023549 0.69662553 0.93838346
000300 af 0b 5b 3f 27 0e 85 3f e6 c1 92 3f d0 40 65 3f
       0.855647 1.0394944 1.1465423 0.8955202
000310 84 46 89 3f 61 87 a2 3f 24 2c 5c 3f e0 93 6e 3f
       1.0724645 1.2697564 0.86004853 0.9319439
000320 83 cc 70 3f dc 08 3b 3f cd 7c 58 3f bc bf 64 3f
       0.9406206 0.73060393 0.8456543 0.89355063
000330 c3 e8 94 3f 08 7e 48 3f 27 bf 6e 3f 4a 89 68 3f
       1.1633533 0.7831731 0.93260425 0.90834486
000340 2a 13 67 3f a1 38 68 3f 1c 57 83 3f 6d c9 89 3f
       0.9026362 0.9071141 1.0260959 1.0764595
000350 82 0c 57 3f 15 59 7d 3f 32 98 77 3f 92 e7 53 3f
       0.8400346 0.98964053 0.96716607 0.82775223
000360 35 11 ed 3e 21 cb 5e 3f b1 84 d4 3f ca d2 92 3f
       0.4630219 0.870287 1.6602994 1.1470578
000370 49 05 55 3f 88 32 6b 3f c4 38 87 3f 9b c5 45 3f
       0.8321119 0.9187398 1.0564198 0.77254647
000380 83 5f 99 3f dd 64 88 3f 88 63 cc 3f 38 b2 61 3f
       1.1982273 1.0655781 1.5967875 0.88162565
000390 09 4d 36 3f 7e 6a 2b 3f 3d b3 82 3f 9f e3 64 3f
       0.71211296 0.6695937 1.0210949 0.8940982
0003a0 82 9a 68 3f 54 71 65 3f b4 a9 9c 3f 80 46 41 3f
       0.9086076 0.8962605 1.2239289 0.754982
0003b0 a3 ce 80 3f 75 d4 a9 3f 66 df 70 3f 14 70 b0 3f
       1.006306 1.3267962 0.9409088 1.3784204
0003c0 c4 69 a9 3f 3f c6 1f 3f 41 f3 60 3f 47 db 3d 3f
       1.3235402 0.62411875 0.87871176 0.74162716
0003d0 7f 09 8b 3f 45 98 81 3f 54 a7 66 3f 07 63 40 3f
       1.0862273 1.0124594 0.9009907 0.75151104
0003e0 8c d4 60 3f d5 f3 41 3f 2e 34 65 3f 64 39 61 3f
       0.8782432 0.75762683 0.89532745 0.87978196
0003f0 59 b5 6c 3f f3 89 92 3f c1 4d 53 3f 0c 60 8e 3f
       0.92464215 1.1448349 0.8254052 1.1123061

res_block1.ln.bias f4 [256]
000000 61 da ae 3c 08 ec 14 be ae 5c ab bc df 6d 65 3d
       0.021344366 -0.14543164 -0.020918217 0.056012984
000010 e2 aa f2 be 06 63 a8 bc c0 38 7b bd ec 0e b6 3d
       -0.47395998 -0.02055503 -0.061333418 0.08889565
000020 76 27 b7 be 0e e5 03 be 37 e4 ac 3d 20 7d f7 bd
       -0.35772294 -0.12880346 0.08441966 -0.120844126
000030 07 3a 6a 3d 59 29 05 bb 87 3f 0d bf 92 74 be bc
       0.057184245 -0.0020318835 -0.5517506 -0.023248944
000040 51 7a 81 bd 6c ad fc bd aa 78 87 be 2e 34 49 be
       -0.06322158 -0.12337765 -0.26459247 -0.19648811
000050 7b 45 9b be fd 64 89 be 93 23 8a bd 98 eb fa bd
       -0.30326447 -0.2683486 -0.067450665 -0.12251967
000060 4e 6f 81 3c 6a f0 92 bd d8 75 c7 3c 2b 22 86 3b
       0.015800145 -0.071747616 0.024348184 0.0040934286
000070 1a c5 0e 3d 2f 99 48 be 67 db ed bd 1c fe 44 bc
       0.03485594 -0.19589685 -0.11614113 -0.012023475
000080 8b 09 80 bd ab 70 7c bd 02 eb ef 3a c2 73 e6 bd
       -0.0625182 -0.061630886 0.0018304291 -0.11252548
000090 f5 3e 94 bd 5a b8 80 be 4f 1c 4e be f2 95 50 be
       -0.072385706 -0.2514065 -0.20127986 -0.203697
0000a0 3f b8 bb bd e6 fd 22 be ff d6 56 bd c0 8b 42 be
       -0.091660015 -0.15917167 -0.05245113 -0.18998623
0000b0 96 83 f2 bd 31 f2 d1 bc a1 28 80 3b 9c 12 d5 bd
       -0.11841504 -0.025628181 0.0039110933 -0.1040394
0000c0 a1 94 c1 bd 5c cd be bd 73 2f 38 bd 8e 5a 57 bd
       -0.09452177 -0.09316513 -0.044967126 -0.052576594
0000d0 5b 7d 96 bd c6 dc 26 be 8b da 24 be d8 8e 2c bd
       -0.073481284 -0.16295156 -0.16098993 -0.042128414
0000e0 cc e8 3f bd 83 b7 7d be 6c 20 84 be e8 26 c1 bd
       -0.04685287 -0.24777035 -0.25805986 -0.09431249
0000f0 42 7b 88 bd e5 39 80 be c8 87 fd bc ce 3c 8e bd
       -0.066641346 -0.2504417 -0.030948535 -0.06945191
000100 67 ee d1 bd 03 b9 9a be 82 40 f0 bd f3 6d b2 bd
       -0.1025055 -0.30219278 -0.11731054 -0.087123774
000110 44 46 05 bc 42 cd 1c be 3d 8e 19 be ef 23 25 be
       -0.008134428 -0.15312675 -0.14995666 -0.16126989
000120 ad b7 d9 bd 8d 0d 7e be 66 37 7a be 85 e5 09 be
       -0.106307365 -0.24809857 -0.24435195 -0.13466461
000130 4a ac 2e be f8 14 58 be b2 7f d3 be f2 09 25 be
       -0.1705791 -0.21101749 -0.4130836 -0.16117075
000140 06 8d e9 bd f3 9e 3e be f7 13 7a 3c 25 40 19 3d
       -0.11403851 -0.18615322 0.015263549 0.03741469
000150 c3 a6 44 bd 5a 3a 19 be 81 e6 bc bd 1f 9d 5a 3d
       -0.0480106 -0.14963666 -0.09223653 0.0533725
000160 49 2c 15 bd 68 6b fb bc c6 aa 9f bd 5f 86 35 be
       -0.036419187 -0.030690864 -0.07796244 -0.1772704
000170 a8 3c 67 be 18 cb 78 bd 27 41 b2 be c7 78 5b be
       -0.22581732 -0.06074056 -0.34815332 -0.21432792
000180 f9 a8 7d bd c4 d7 56 be 9c 2d 83 bd 9f 85 c5 be
       -0.061928723 -0.20980746 -0.06405184 -0.38578507
000190 94 4b 58 be be 52 88 bd 72 03 39 3c 63 f9 84 bc
       -0.21122581 -0.06656407 0.011292325 -0.016232198
0001a0 bd 63 23 3d d8 f6 39 bd 09 28 0b 3d 02 81 6f bd
       0.03989004 -0.045401424 0.033973727 -0.05847264
0001b0 04 f8 7c be 28 9b ec bd 17 d4 62 bd e8 ea 8c bc
       -0.24703985 -0.11553031 -0.055378046 -0.017201856
0001c0 66 7b 8d 3d 8e bb 11 3d 18 f1 2d be c2 cf ee bd
       0.06908302 0.035579257 -0.16986501 -0.116607204
0001d0 6a 7a a7 bd dc c0 24 be 46 f7 d3 bd b4 26 78 ba
       -0.081776455 -0.16089195 -0.10349898 -0.00094662164
0001e0 b6 88 af bd 8b 1c 8e be d8 c3 a1 bd 6b 96 87 be
       -0.085709974 -0.27756152 -0.07898682 -0.26481947
0001f0 bf 20 93 bd 4f ad 1c be 78 38 ef bc 3a 47 32 be
       -0.0718398 -0.15300487 -0.029201731 -0.17409983
000200 20 61 34 be a8 fe c1 bc d0 44 85 bd ee ac fc 3c
       -0.17615175 -0.023681 -0.065072656 0.030844178
000210 7b cb 3d be 2a ff 5e 3c 62 5a 80 be 4a dc 5f be
       -0.18534653 0.013610641 -0.25068957 -0.21861377
000220 39 d8 88 be b1 ff 52 be ac 89 33 be 3d 09 04 be
       -0.26727465 -0.20605351 -0.17532986 -0.12894149
000230 22 05 11 be d3 63 8e be e0 94 6b bd 67 ad 00 be
       -0.14162114 -0.27810535 -0.057515025 -0.12566148
000240 42 40 d4 bb 2a 67 1b bd 93 9e 0f 3d c7 8c 31 bd
       -0.0064773867 -0.03794018 0.035063338 -0.043347146
000250 5d 80 84 be ae 2e b6 bb 5c 6b 0c bd ea 02 8f bd
       -0.25879183 -0.005559764 -0.034282073 -0.06982978
000260 39 c0 0b be 19 e8 9b 3d 38 fb 9c bd 4f 03 22 be
       -0.13647546 0.076126285 -0.07665104 -0.15821575
000270 d9 25 81 be 6e ef dc bd d5 8f 17 3e 9a 45 8f be
       -0.25224188 -0.10787855 0.14800961 -0.2798279
000280 47 e0 83 be 92 db ba bd 5b b8 10 bd 91 27 de bd
       -0.25757048 -0.09123911 -0.035332065 -0.108473904
000290 3d af 96 bd b0 75 e7 3b 29 9b 1f be 5b 13 85 ba
       -0.07357643 0.00706359 -0.15586533 -0.0010152863
0002a0 f1 e5 a6 bd 61 ac a2 bd da dc 8d bc e4 ac d5 bd
       -0.081493266 -0.07943035 -0.017317224 -0.10433367
0002b0 5b 70 77 bd c5 f4 2c be 8a c1 fb bd 68 56 b4 bd
       -0.060409885 -0.16890247 -0.12292774 -0.08805543
0002c0 2d bb ee bc e3 6a bb bd 6e 8a 03 be 67 75 d1 3c
       -0.029141987 -0.091512464 -0.12845775 0.025568677
0002d0 23 52 55 be fb 27 9e bd 7d a2 98 be 34 31 de bd
       -0.20832114 -0.077224694 -0.2981147 -0.108492285
0002e0 70 7b 4c be 01 82 00 be 44 d9 32 be f5 43 ef ba
       -0.19968963 -0.12549593 -0.17465693 -0.0018254506
0002f0 58 41 71 be e5 61 c2 3d eb a2 e0 bd 28 77 f7 bc
       -0.23560083 0.09491328 -0.10968574 -0.030208185
000300 7c e4 48 3e cc ef b8 bd 6c ac 5a be 8c 7d 64 be
       0.1961841 -0.090301126 -0.21354836 -0.22313517
000310 bb d4 3a be 30 8f 1a be ea a7 1f be 45 b0 bb bd
       -0.18245213 -0.15093684 -0.15591398 -0.0916448
000320 f5 b1 99 bd af a4 1c be 02 10 2c be 41 2c 9c bd
       -0.07504646 -0.15297197 -0.16802981 -0.07625628
000330 96 c1 d1 b9 03 bb 11 be c9 53 0a be 9c e7 fb bd
       -0.0004000782 -0.14231496 -0.13508524 -0.12300035
000340 a2 6a f4 bc aa 89 ff bd bc 7a 97 be 90 74 07 be
       -0.029836003 -0.12477429 -0.29585826 -0.13228059
000350 d7 88 23 3b 4e 68 c1 3d b4 89 60 be 70 fe 58 be
       0.002495339 0.09443723 -0.2192753 -0.2119081
000360 14 28 69 bd f6 6c ec bd f1 dd b7 be 88 9f 19 be
       -0.056922987 -0.1154422 -0.35911515 -0.15002263
000370 7b 1e 80 3d af 3e 23 bd d8 37 06 be d7 c9 ad bd
       0.06255814 -0.0398547 -0.1310724 -0.084857635
000380 e8 35 45 bc 77 84 4b bd c8 0d 00 bd c4 98 ca bd
       -0.012036778 -0.049686875 -0.031263143 -0.09892419
000390 f8 67 11 be 9a 9b 16 be dd 60 8d 39 d5 8a 14 be
       -0.14199817 -0.14707795 0.00026965784 -0.14506085
0003a0 f7 50 03 be f0 d7 c6 bd 66 7f 5c be af cf 7b be
       -0.12823854 -0.097091556 -0.21532974 -0.24590944
0003b0 b9 25 c7 bd fe 76 71 be 4e 69 0a 3d c5 01 05 be
       -0.09723992 -0.23580548 0.033791833 -0.12988956
0003c0 ef e6 87 bc fb 0d dc bd 05 6f b0 bd 76 92 c8 bd
       -0.01658961 -0.10744854 -0.08614925 -0.0979356
0003d0 96 38 29 ba f1 f1 ef bd c2 a4 2d bc 5f 09 bc bd
       -0.00064552703 -0.117160685 -0.010598363 -0.09181475
0003e0 30 28 25 be 9d b3 0d be ea d7 a7 bd 3d e5 7d be
       -0.16128612 -0.13838048 -0.08195479 -0.24794479
0003f0 b1 6b ec bd 8c 1e 4e be ab 76 3f be 1a cb e7 be
       -0.11543978 -0.2012884 -0.18697612 -0.45272142

res_block2.fc.weight f4 [128, 256]
000000 f4 26 37 3e f2 ba b6 ba cc 4a bb 3c f2 a7 9d be
       0.17885953 -0.0013941212 0.022862814 -0.30792195
000010 7c 9e f1 3d c4 74 12 3d 2b 36 9c be f9 d3 85 bd
       0.117978066 0.035755888 -0.30510077 -0.06534571
000020 37 39 b9 3d 28 d6 10 be 71 3d d5 bd e4 18 3f be
       0.09044116 -0.14144194 -0.1041211 -0.18661839
000030 8a 1b 24 bd 8f a9 e4 3d c3 57 9e 3c 2a b4 a0 be
       -0.040065326 0.11165153 0.019328957 -0.31387454
000040 46 57 d3 3d eb 81 46 3e ba bf 14 3d 14 58 6c 3d
       0.103193805 0.19385497 0.036315657 0.057701185
000050 5d bc 0c bd 93 d8 06 be b9 6e f2 3d bd aa 5c bd
       -0.034359325 -0.13168554 0.11837525 -0.053873766
000060 ef 90 0f 3d 1d d4 fd bd e4 c0 33 3d 1e af 04 3e
       0.03505033 -0.12393973 0.043885127 0.12957427
000070 da f9 0e 3e 09 96 10 be 52 2d 63 3e 43 64 62 bd
       0.13962498 -0.14119734 0.22185257 -0.0552714
000080 12 d3 a0 3e ac 05 a9 bc 17 24 ee 3c f0 cc 63 3b
       0.31411034 -0.020632587 0.029069943 0.0034759603
000090 b1 5c fd 3d 13 4e 35 3e 30 9c 84 3b b6 c5 57 3d
       0.12371195 0.17705564 0.0040469393 0.052678786
0000a0 ef 29 df 3d 55 84 4c bd 7a 1d 19 bd c8 07 00 3e
       0.1089667 -0.04993089 -0.037381627 0.12502968
0000b0 08 ca b1 bd 0b 53 91 bd bf da aa bc f9 c4 6f bc
       -0.086811125 -0.07095917 -0.02085626 -0.014634364
0000c0 5d 93 b4 bb 95 f8 dd 3c 5a 0d c7 3c c9 75 bc bc
       -0.005510731 0.027096072 0.024298359 -0.023005383
0000d0 8c af 99 bd ec ec 3f 3e 46 cf 0c 3d 6c 97 a3 3c
       -0.07504186 0.18742722 0.03437736 0.019969665
0000e0 a8 c4 27 be eb cc ec bd db 3c da bc d1 19 96 bb
       -0.16383612 -0.115625225 -0.026640346 -0.0045807143
0000f0 2e 26 1c bc 5f fd 31 be 2e 29 5e 3e ee 52 dc bc
       -0.009530587 -0.1738181 0.21695396 -0.026895013
000100 83 d2 eb be db 8e 87 bd 7e ec db 3d 3d 72 54 bd
       -0.46059045 -0.066190444 0.10738467 -0.05186676
000110 ac 40 2a 3d 3d 81 af 3e 50 4d dc 3e 29 6e f4 3d
       0.041565582 0.34278288 0.43027735 0.11935074
000120 a5 a0 39 3e 5e d9 f2 3d d3 d4 b0 bd c7 eb aa bc
       0.18127687 0.11857866 -0.08634343 -0.02086438
000130 8a c7 12 3d b4 7d 0b 3e 56 7d 91 3c 41 f9 89 3e
       0.035834827 0.1362217 0.01775996 0.26947978
000140 63 a2 ff 3d a9 75 32 3d 21 7d 96 3c 41 7f 13 bc
       0.12482145 0.04356924 0.018370213 -0.009002508
000150 a3 fd 44 3e 24 3f 36 3d c2 ca ad 3d c4 9d 03 be
       0.1923738 0.04449381 0.084859386 -0.12853152
000160 92 84 f9 3d 48 1f a8 3d 60 65 ff 3d e1 59 07 be
       0.12183489 0.082090914 0.124705076 -0.1321788
000170 a3 90 94 3e 0c 5b c9 bc c8 8f cd 3c bb ad 82 bd
       0.290166 -0.024579547 0.025092974 -0.06380793
000180 8c 64 9e 3d f9 70 ab 3c 22 2c 98 3c 24 e9 db bc
       0.077340215 0.020927893 0.018575732 -0.026844569
000190 90 06 90 3c 8d d7 1e bd 40 cb 58 3e 81 d6 a9 3e
       0.017581254 -0.038779784 0.21171284 0.33171466
0001a0 71 8c 26 3d a8 8e c8 3c 9f 02 b9 3c a7 6b 3d 3d
       0.04066128 0.024482086 0.022584258 0.046245243
0001b0 ce 34 2b 3d d0 4f ef 3d 24 a6 06 3e 14 d4 47 bd
       0.041798405 0.11685145 0.13149315 -0.048786238
0001c0 f7 ab 03 be 9d 6b 5b 3e 6a 44 d6 bd 7c f7 9b 3c
       -0.12858568 0.2142777 -0.10462268 0.019038908
0001d0 55 10 8d be 62 d9 9a 3d 10 40 cb 3e 14 ca 01 bd
       -0.27551523 0.07560994 0.39697313 -0.031686857
0001e0 08 2d 03 bc 2a ee c5 3d fb 05 88 3d 3d 85 db bc
       -0.008006342 0.09664567 0.06641766 -0.026796931
0001f0 95 f5 00 be 41 5b c1 3d 05 1d e9 bc 27 03 6e 3d
       -0.12593682 0.094412334 -0.02845622 0.058108475
000200 f5 e1 b2 3d 2a 74 99 bd 90 39 02 3d 67 ff 53 3d
       0.08734504 -0.0749286 0.031793177 0.051757243
000210 3f f5 62 3d 1c b0 1b be 45 a4 22 be b3 63 1b 3e
       0.055409666 -0.15203899 -0.15882976 0.15174751
000220 de bd 2c 3c 56 73 2b be 9d a5 c9 3c b6 67 f9 3c
       0.010543315 -0.16743216 0.024615103 0.030444961
000230 19 20 4c 3d 0d 1b e1 3b 9e 1c 0f 3c 6b 11 05 be
       0.0498353 0.00686968 0.00873485 -0.12994926
000240 ed 74 98 bd 79 1d f8 3d 99 61 5a 3e 4a c3 31 bd
       -0.07444177 0.121149965 0.21326293 -0.043399133
000250 a8 f2 ef 3d 20 81 ff bd fd 66 65 3d 8b 07 92 bc
       0.11716205 -0.124758005 0.05600642 -0.017825862
000260 2f b9 00 3e 22 4e 74 bc 02 cc c9 3d db d0 82 bd
       0.12570642 -0.014911206 0.098533645 -0.06387492
000270 2f 3a e5 bb d7 22 a8 bd 50 08 5a 3d c4 ee 4a bf
       -0.0069954614 -0.0820977 0.053230584 -0.7927058
000280 c3 6d 31 3d c8 0f 67 3d 4c c6 2c 3d 10 7a ff 3c
       0.043317568 0.056411535 0.042181298 0.031186134
000290 72 82 af bd 7d d7 47 bc 8a be 16 3e fa cf be bd
       -0.08569802 -0.0121973725 0.14721122 -0.09317012
0002a0 df 63 e0 be cb fd d5 bc da a3 89 bd 98 0d 2d bd
       -0.43826196 -0.026121994 -0.06720705 -0.042249292
0002b0 8b 20 af 3e c3 ec a9 bc cc 4f 0d 3e 4a e3 5f 3d
       0.34204516 -0.02074278 0.13799971 0.05466012
0002c0 67 b4 5b 3e b4 5f af be 77 d3 e7 be 91 58 80 3d
       0.21455537 -0.34252703 -0.45278522 0.06266893
0002d0 86 74 18 bc 12 fc 4b 3d 02 35 c7 3d 8b 1e 7d 3d
       -0.009305125 0.04980094 0.09726907 0.061796706
0002e0 c4 ba 22 3d 13 ed 1d be 79 29 a6 3d 70 d6 55 bd
       0.039728895 -0.15422468 0.08113379 -0.052206457
0002f0 1b d2 e5 bd c7 b8 1c 3e 11 7b 94 bc 3b f8 83 bd
       -0.11221715 0.15304862 -0.018125089 -0.064438306
000300 63 0e 85 bd 5c 95 05 3e 0b 5c cc 3d 61 16 45 3c
       -0.06496885 0.13045257 0.09978493 0.012029261
000310 12 8a 1a 3e 11 59 8a 3e f1 92 58 3d 03 6d 16 3d
       0.15091732 0.27021077 0.05287451 0.036725055
000320 7d 86 18 3c 68 98 c4 3d 97 b8 af 3a d5 aa 8b bd
       0.009309408 0.09599382 0.0013406452 -0.06819693
000330 29 bf 30 bd 6c 13 b5 bd d3 ea 87 bd 4f da 80 3e
       -0.043151055 -0.08841595 -0.06636586 0.25166556
000340 1f e8 cb 39 ac 5f a9 bd c9 58 15 3b 4b 4a 24 bd
       0.0003889212 -0.08270201 0.0022788516 -0.040109914
000350 94 5b fe bd df 93 f7 3d 35 16 8f 3d 1b 3d 11 3e
       -0.12419811 0.12088751 0.069866575 0.14183466
000360 92 c6 8d 3d 53 ed 45 be 45 9a 58 bd d8 1b 2d 3d
       0.0692264 -0.19328813 -0.052881498 0.042262882
000370 4a 8f 07 be e2 22 91 bd c2 c3 5a bc b6 c7 7e 3d
       -0.13238254 -0.070867315 -0.013352336 0.062202178
000380 55 a0 08 be 5b e4 ab 3d 36 4b 3d bc f3 24 1f 3e
       -0.13342412 0.08393165 -0.011553576 0.15541439
000390 41 3d ce bd ae 80 07 3e 9e 93 be bc a1 0e 4b 3a
       -0.10070277 0.13232681 -0.023263749 0.00077460153
0003a0 a2 71 76 3d 20 d8 87 be b6 cf 40 3d aa 3e 36 3a
       0.060166962 -0.26532078 0.04707309 0.00069520867
0003b0 09 15 77 be 8b e4 08 3e e3 ad 8c bc 30 f1 a2 bd
       -0.24129118 0.13368432 -0.01717276 -0.07956159
0003c0 38 dd c2 3d 49 3f b7 3d 4c 98 02 bd bc 4f 2e bd
       0.095148504 0.089476176 -0.031883523 -0.04255651
0003d0 6b 16 56 be da 63 d6 3c b4 1e 19 3d 0a be ac 3d
       -0.2090699 0.02617066 0.037382796 0.084346846
0003e0 6e d9 d5 bc 37 c0 88 be 61 be 03 3e 13 39 df bd
       -0.026104655 -0.26709148 0.12865593 -0.10899558
0003f0 04 bf 9e 3e cb 2b 4a 3d 24 67 3f 3e a5 55 7e bd
       0.31005108 0.04935817 0.18691689 -0.062093396
