best_residual_mlp_model.pth (torch, 690491 bytes, 24 tensors)

entry.weight f4 [256, 16]
00000000: d60d 6b3e 8c3e 703d 924d 273e 1f33 28be
00000010: b3ed 8e3d fcb2 0f3e b4f9 353e c850 17be
00000020: ed66 10be b54a 813d e282 633e 8c91 01be
00000030: 1d6e a1be 6f5a 89be c74e a9be 2256 babe
00000040: f11e 1cbe b2c2 2dbe 1e76 743e b0a1 9abd
00000050: 1756 dc3c fcee 3a3e 4357 623e bfd6 613e
00000060: b3e6 7d3e e974 d63d d498 35be fb62 a8bd
00000070: f439 0ebd 8a53 003e ac7d b23e 0e12 1d3e
00000080: 33c3 103e 1515 353e 57a8 a1ba 84b0 e83c
00000090: 38ae 743e 6826 8f3c d275 283e 9493 2ebe
000000a0: 3b3a 9dbc b8b2 d73c ccd4 3d3d 45b5 b6bd
000000b0: 8a2c cc3e 4f44 563e b220 c33e 9d34 cc3d
000000c0: be49 cc3d 3b6b 10be 6dcf 9f3d 7759 a1bd
000000d0: d399 babe dd60 293e 2bb6 523d ed85 783e
000000e0: 19d7 f13d 9567 593e 92e6 673e a2b0 26be
000000f0: dbf8 603e 6915 883e 2a38 85bd 0e93 a13e
00000100: 49eb 793e 38c2 e03d 79ed 8d3e 61ed 223e
00000110: d787 39bd 76db 27be 0217 f4bd af33 1fbd
00000120: da69 1dbe f72d 14be b24b 053e 66e6 b03d
00000130: 6f98 25be e251 e43c a770 d83d c402 34be
00000140: fd5c 213d 2ce9 6a3e 1db7 77be beba b1be
00000150: fd49 a13e 835b 7e3d 29b1 8dbe 648b 32be
00000160: c093 febd 5b02 99be b607 2cbe 0795 7abd
00000170: 58c8 8ebe 0869 a9bd 9213 74be 95c7 ce3c
00000180: 488f 283e cbc0 013e b209 d13d ae56 1d3e
00000190: 3d4f 92be c444 c23d 08ce adbc 6c6c 2c3e
000001a0: 2173 553e 5414 ba3d 7977 a63d 3471 4bbd
000001b0: bdf1 5a3e 57f3 a33e 9ae1 963d af39 a6bd
000001c0: 9409 4ebe 90d0 493e 857c adbd e2fe 89bd
000001d0: 67a0 c53d 63d4 fd3d ef78 3a3e 6524 36be
000001e0: a9f7 283e 5ab6 fe3d 5bb0 f13d 329b 58be
000001f0: 4050 8b3e f47d a73d 3ce8 8dbc bed3 15be
00000200: 56da e9bd a08c f43d dacd bcbd bdb1 5bbd
00000210: b1cd 8dbd 1fab 293d efd8 a83d 2f9e cb3d
00000220: 2897 443e 97d4 133e 23e9 39be af94 b53d
00000230: 50af 8d3e 0599 923e fa83 943d e4cf fd3d
00000240: 2ab2 0d3c 0cae a9be 86b2 993d 9366 84be
00000250: eba6 813e 94fa 7f3d 99e8 6f3d 5462 c73d
00000260: 04cb 0bbe b35b 98be f0af c13d f2d0 dabd
00000270: d2dd 1cbe 50e1 94bd ad1b 823b e707 44bd
00000280: cf1a e93d 9734 6bbe be48 513e 9bac 4abe
00000290: b197 eabd 2abc e73d 6ccd e03d 1ee8 6e3e
000002a0: c97d 703e 9d07 4d3e 439a cb3d 0989 0f3d
000002b0: 69e3 89bd 8b66 613d bdb1 4c3e 4f76 e83d
000002c0: 74d9 41be df8a e2bd 6aaf 2cbe 8288 973d
000002d0: aec0 163e f4fc a33c 58e8 05bd a0da 4b3d
000002e0: ac14 28be 830f f0bd ab70 0b3c e08a 38bd
000002f0: 7168 56be 611e 89bb 0932 05be cbbc 5fbe
00000300: 8067 6cbe d441 513e f34e e53d ac30 73bd
00000310: 9506 903e 229f 46be 803f f4be 2486 50bd
00000320: 39fe 6d3e 043f 11be 8404 ebbd 0246 8d3e
00000330: db31 ad3e e786 0c3c eff8 75be 559c 00bd
00000340: 95f8 07be 51c8 523e 1082 f7bd 0837 c4bd
00000350: 3bd8 873e cca7 d13d c698 593e 7a93 4fbe
00000360: 4012 9dbc 54f8 9ebd 6380 4ebd 0469 3d3d
00000370: ba73 4b3e 4c39 013e d6c2 cd3e 7002 813d
00000380: c6ec 28bf cf68 353e ad4c 9cbe 3f46 d0bd
00000390: 34d7 cebe 9960 363c fe54 d63c 79df a4bd
000003a0: 6e4a 7b3d 142e 333e f3ab debc 746d 1e3e
000003b0: 4347 3fbd a4a8 143e 1f00 a53e 7a04 47bb
000003c0: 9be8 c43e a576 153e 8c21 ed3d 3021 973d
000003d0: c080 cdbe 16f1 a1bb 23d8 283e 8581 f0bd
000003e0: fab0 0f3d 260c e1bd ec84 ae3c a59a a8bd
000003f0: 9d5a c3be bdb3 35be 8d23 9cbc 3ef0 96bd
0.22954497 0.0586534 0.16338184 -0.16425751 0.06978931 0.14033121 0.17771035 -0.1477691
-0.14101763 0.06313077 0.22217897 -0.12653178 -0.31529322 -0.26826808 -0.33067915 -0.3639384
-0.15246178 -0.16968802 0.23873183 -0.07550371 0.02689652 0.18255228 0.221036 0.22054575
0.24795036 0.104715176 -0.1773408 -0.08222004 -0.034723237 0.12531868 0.34861505 0.15338919
0.14136963 0.17683823 -0.0012333494 0.028404482 0.23894584 0.017474368 0.16451195 -0.17048484
-0.019192806 0.026330337 0.046345517 -0.08921293 0.3987773 0.20924495 0.38110882 0.09970973
0.09975003 -0.14103405 0.07803235 -0.07878392 -0.36445484 0.16540857 0.05144326 0.24269839
0.11808605 0.2123092 0.2264655 -0.16278318 0.21969931 0.26578835 -0.06504853 0.31557506
0.2440616 0.10974544 0.2772024 0.15910865 -0.045295563 -0.16392311 -0.11918451 -0.03886765
-0.1537241 -0.14470659 0.13017157 0.08637695 -0.1617143 0.027871076 0.10568362 -0.1757918
0.03939532 0.2294051 -0.24190946 -0.34712785 0.3150176 0.06209899 -0.27674225 -0.17435986
-0.12430525 -0.2988461 -0.16799816 -0.06117728 -0.27887225 -0.08271986 -0.2383559 0.025241653
0.16460907 0.12671201 0.10206927 0.15365097 -0.2857608 0.09485772 -0.021216407 0.16838235
0.208447 0.090859085 0.08128256 -0.049668506 0.21381278 0.3202159 0.07367249 -0.08116471
-0.20120841 0.19708467 -0.08471016 -0.06738068 0.09649735 0.12394025 0.18210195 -0.17787321
0.16500725 0.124371246 0.11801215 -0.21152952 0.27209663 0.081783205 -0.017322652 -0.14631554
-0.114185974 0.119408846 -0.092189506 -0.0536363 -0.06923998 0.04142296 0.08244502 0.099422805
0.19198287 0.14436565 -0.18155341 0.0886625 0.27672815 0.2863237 0.07251735 0.123931676
0.008648435 -0.331406 0.07504754 -0.25859508 0.2532266 0.06249483 0.05857143 0.097355515
-0.13651663 -0.2975746 0.094573855 -0.106843844 -0.15318993 -0.072695374 0.0039705844 -0.0478591
0.113820665 -0.2296928 0.20437905 -0.19792406 -0.11454714 0.11315186 0.10976681 0.23330733
0.23485483 0.20022435 0.099415325 0.035042796 -0.06732828 0.055029433 0.19989677 0.113506906
-0.18930608 -0.11061644 -0.1686379 0.07399084 0.14721939 0.020018078 -0.032692283 0.049769044
-0.16414136 -0.117217086 0.008510749 -0.045054317 -0.20938279 -0.0041845297 -0.13007368 -0.21849363
-0.23086357 0.20435268 0.11196699 -0.05937259 0.28130022 -0.19396642 -0.47704697 -0.050909176
0.2324151 -0.14184195 -0.11475471 0.27592474 0.338271 0.008577085 -0.24020742 -0.03139909
-0.1327842 0.20584227 -0.12085354 -0.09580809 0.26532158 0.10237083 0.21249685 -0.20271102
-0.019173741 -0.077622086 -0.050415408 0.04624273 0.19868365 0.12619513 0.4018771 0.06299293
-0.6598629 0.17715763 -0.3052725 -0.101696484 -0.40398562 0.011131429 0.026163574 -0.080504365
0.06135028 0.17498046 -0.027181601 0.1547144 -0.04669882 0.14517456 0.32226655 -0.0030367658
0.38458714 0.1459604 0.11578664 0.07379377 -0.4013729 -0.0049420698 0.164887 -0.11743454
0.035080887 -0.10988645 0.021303616 -0.08232621 -0.3815507 -0.17744346 -0.01905992 -0.07370041

entry.bias f4 [256]
00000000: f66a 1cbe 60b3 14bd f0ed 1bbe 5899 a5bd
00000010: d813 1b3d a393 083e ce19 35be 0cc3 343e
00000020: 073d 9f3d fe3a f2bd 2df8 a0bd 89d5 f23d
00000030: eb12 0cbe ff8d d2bd 505c 67be 058a ed3d
00000040: 2974 f0bd 47fd 063e bce4 bdbd 062b b53d
00000050: 78b9 46bc d840 11be 39d4 9abd 1d23 53ba
00000060: 3c7f 35be 713e 093e 6a37 9abc aa8f b3bd
00000070: fed5 cf3d 1759 903d 6c4e 1b3e 720e eebd
00000080: fc52 5ebd 4b0b 23bd 8d66 243e de81 1b3d
00000090: 4782 a8bd 8967 27be 28a8 eb3d 6f3f d5bd
000000a0: 9727 7a3b e971 293c 6826 743d 9f8f 823d
000000b0: b010 96bd be19 d33a 80da 0b3e 2c30 fa3d
000000c0: 2c6d 32be c9e6 b73d 07da 2d3e a913 b63d
000000d0: 8870 85bd aca0 29be 58cc 573d 8420 043b
000000e0: 8be6 d33c 8d1c 54be 5fa1 24be 46a5 193e
000000f0: c40e 84bd ea1e 223c 3015 1cbe 9c0a 3b3d
00000100: 2e4f 123e 7bf2 c13d 20d1 5dbe 7a1d 7d3d
00000110: 6bdb 613e 3391 23be 0b0a f83d dbaf 973d
00000120: 8eac 30be 9b6f 8cbd f782 c0bd 0a10 89bd
00000130: 64f0 683d 80d8 3f3e c066 07bc 426a d3b8
00000140: 580a f63c 4c9c 233e c8e5 d23c 92c4 08be
00000150: e6d4 593d e2b5 4a3e 3a4d 5ebd ab71 03be
00000160: 9416 4dbe a00b 64be d59d c03d 2c3a b73d
00000170: 05ef e1bd 7073 7fbd 86bb 80bd cfc8 bc3d
00000180: b563 00be 4bc9 bbbd 0bff 433e 7d6f 283e
00000190: 466a 033c 505a 65be 2953 1e3e d7c1 1abd
000001a0: 2b17 d5bb 5a3b 51be 9591 15be 26bb 80be
000001b0: 2ed8 77be e995 3fbe 1a65 81be 63f8 f2bd
000001c0: 26e1 c8bc 76bc ce3d a77d 363d 8af0 263d
000001d0: e05e a23d 39e5 89be ac4c 82bd 3798 81be
000001e0: 13e3 953d 7530 3d3c 804f aabd 5c64 1cbc
000001f0: 6e8b 1b3e d22b 903d 86d2 25be f7fa 4abe
00000200: 064a 603e 1347 cdbb 883c 473e 53d0 303e
00000210: 3601 63be a39f d0bc c51c a3bd 46d1 aebc
00000220: 0166 173c 8b53 ce3c 7913 713e f5a7 d6bd
00000230: a73b c43d ab68 c0bd 0a20 3a3e bb7b 95bd
00000240: 4c62 5cbe 14d4 343d a4b7 52be 3bc3 2cbd
00000250: e11d 8b3d ed7c 893d 2d0c b93c 6516 963d
00000260: b4f4 c8bd 7bb4 49be dae3 ce3d 8ae2 a23d
00000270: 7922 c0bd c8ee eebd d622 48be b28d 623e
00000280: 23f4 743d 0ed4 f9bd 7dd7 54bd 65e4 52be
00000290: 0f54 933d f15c 153e e53c 5e3d 7465 6abe
000002a0: 95d7 203e 2071 26be 640b 8b3d f045 253c
000002b0: e88f d23b dd76 b03d 9c35 09bd 8bcf 3ebd
000002c0: b931 e03d be2c 4c3d 1933 73be 6741 283c
000002d0: 999f b0bd beff dd3d aea6 c3bd 0b67 1b3e
000002e0: 67a7 0a3e 43b7 d3bd 2757 48be ecd1 363e
000002f0: ed54 34be 0414 a7bd a14f 3c3e 915b 9cbd
00000300: bfae 013e 575a 28be 08a9 273d 38eb a23d
00000310: c777 3abe b27d 2cbd 5ce8 68be 5c92 34bd
00000320: be90 eb3d 96a8 04be a969 023e 928f 46be
00000330: c1a8 2c3e 4b18 46be 5167 343e 6178 9e3d
00000340: cf78 d23d deec 143e 4aec 0fbe 4703 883d
00000350: 48b2 0cbe d1e6 813d 9ada 11be e8a9 863d
00000360: 579e 273e 3b6b 0bbe 0095 0cbd 8b6f 58be
00000370: 2c9c ddbd fe54 0dbd 8592 1d3e 0544 723d
00000380: 00cd 823d 54bf d2bd 92c1 653e 4fc6 ee3d
00000390: e0a6 0dbd a8e1 03be cd90 e03d 3895 82bd
000003a0: 19d3 16be e79e 34be e626 3bbd b719 8abd
000003b0: e50d 963d e152 33be a9a6 183d 3394 be3d
000003c0: 5f21 a6bd 080b c9bb b6e5 393e 8656 dcbd
000003d0: de02 15be 50e6 11bd e943 86bd e283 58be
000003e0: 8643 c1bd d0fa 95bd 3067 d8bd 600e 223e
000003f0: f69c 313d fdec 94bd 92ab bebd 8bcd 40be
-0.15275177 -0.036303878 -0.15227485 -0.080858886 0.03786072 0.13337569 -0.17685625 0.1765253
0.07775312 -0.11827658 -0.07859836 0.11857135 -0.13679092 -0.1028099 -0.22593808 0.11598591
-0.11740906 0.13182555 -0.09272143 0.08846097 -0.01212918 -0.14184892 -0.075600095 -0.00080542435
-0.17724317 0.13402726 -0.018825252 -0.08767636 0.10148238 0.070482425 0.15166634 -0.11623849
-0.05427836 -0.03980569 0.16054745 0.037965648 -0.082279734 -0.1634809 0.11506683 -0.104124896
0.003817057 0.0103421 0.05960694 0.0637505 -0.07327402 0.0016105694 0.1365757 0.12216219
-0.17424458 0.08979566 0.16977702 0.088904686 -0.06515604 -0.16565198 0.05268511 0.0020160982
0.025866767 -0.20714016 -0.16077183 0.15004453 -0.06448129 0.009895066 -0.15242457 0.045664415
0.14288017 0.094700776 -0.21661806 0.06179569 0.22056358 -0.15973358 0.121112905 0.07406589
-0.17253324 -0.068572246 -0.093999796 -0.06692512 0.05686988 0.18734932 -0.008264244 -0.00010081056
0.03003423 0.15977591 0.025744334 -0.13356236 0.05318155 0.19795945 -0.054272868 -0.1283633
-0.20028144 -0.2227006 0.09405104 0.08946642 -0.110319175 -0.06236595 -0.06285767 0.09217989
-0.12538035 -0.09169253 0.1914026 0.1644878 0.008020943 -0.22397733 0.1546141 -0.037782516
-0.006503006 -0.20432797 -0.14606316 -0.25142783 -0.2420356 -0.1870953 -0.25272447 -0.11863782
-0.024521422 0.1009454 0.044553425 0.04075674 0.07928252 -0.26932696 -0.0636228 -0.25311443
0.073187016 0.011547198 -0.08315945 -0.009545412 0.15189907 0.07039608 -0.1619359 -0.19822298
0.21903238 -0.006264576 0.19456685 0.1726697 -0.2216843 -0.025466746 -0.07964472 -0.021340024
0.009240628 0.02518632 0.23542584 -0.10481254 0.0958169 -0.09394964 0.18176284 -0.0729899
-0.21521872 0.044147566 -0.20577866 -0.042178374 0.06792808 0.06713281 0.022588814 0.0732849
-0.098122984 -0.19697754 0.10102053 0.07953365 -0.09381575 -0.11666638 -0.19544539 0.22124365
0.05980314 -0.12198649 -0.05196332 -0.20594938 0.07193767 0.14586236 0.054257292 -0.22890264
0.15707238 -0.16254091 0.06789282 0.010087475 0.0064258464 0.08616421 -0.03349839 -0.046584647
0.10946984 0.049847357 -0.23749961 0.010269499 -0.08624191 0.108397946 -0.09553276 0.15176027
0.13540421 -0.10337689 -0.19564496 0.17853516 -0.17610522 -0.081581146 0.18389751 -0.076346524
0.12664317 -0.16440712 0.040932685 0.07955021 -0.18209754 -0.04211206 -0.22744888 -0.04408489
0.11502217 -0.12954935 0.12735619 -0.19390705 0.1686125 -0.19345205 0.17617537 0.07737804
0.10276949 0.14543483 -0.14054981 0.0664125 -0.13739884 0.06342853 -0.14243546 0.06575376
0.16368996 -0.13615124 -0.034321785 -0.211363 -0.10820803 -0.034504883 0.15387924 0.0591469
0.06386757 -0.10290399 0.22437122 0.11658918 -0.034582973 -0.1287905 0.109651186 -0.063761175
-0.14728965 -0.17638741 -0.045691393 -0.06743186 0.07326869 -0.17512085 0.037268315 0.093056105
-0.08111834 -0.006135348 0.18154034 -0.107586905 -0.14551875 -0.035620034 -0.065559216 -0.2114406
-0.09436707 -0.07323229 -0.105665565 0.15825796 0.04336258 -0.072717644 -0.09310068 -0.18828408

res_block1.fc.weight f4 [256, 256]
00000000: ad94 503d 5b5e abbc 1616 25bc 97ef 353d
00000010: 6ead 133b c297 0ebd 29ea 04bd 5254 bd3c
00000020: eb90 a13c 3dd6 3c3d 2554 bd3c 0fd9 aa3c
00000030: 33a0 6fbd dd4d 303d 2d58 45bd d52b ce3d
00000040: 9e48 a83c c8c1 18bd 1bda 5fbd 8b7a 193d
00000050: 2138 b7bd fbf0 2b3d 44bf c4bc 197a 1b3d
00000060: f835 803d 0e9b 1abd ce02 b3bc 807d 52bb
00000070: 7890 45bc d66f 913c b711 44bb 33c9 203d
00000080: 4c1c 203d f048 f03c 6ac8 923d 5c7d 84bd
00000090: 2f3e 4dbd 8d99 21bd ba93 5abd c1cb 0e3d
000000a0: 08d4 fa3b 5038 243d 7dc6 1a3c 8e31 4b3d
000000b0: f5b3 b03c ea43 89bc aff5 c73c b4ac c23c
000000c0: d4ba 1bbd 437f 8bbd ae06 2b3d 9610 23bc
000000d0: 8e40 de3c adea 053c 0103 513d a2c0 b13c
000000e0: 6d54 c8bc b963 8e3c 85a5 48bb 4fa8 493c
000000f0: ce25 4bbd 28a7 93bc 418c 613d e13a 8abc
00000100: b4f1 a13d 9de0 48bb e310 0abb 6272 a73d
00000110: 1933 ab3b 47bd 373d de47 893c 36cf ff3b
00000120: 9fdd eb3c 3788 cd3c 7e35 b03c 5e60 26bb
00000130: 636d 2e3d e284 273d f191 94bc f9c0 5f3d
00000140: 63eb 1abd 0234 ed3b ba83 a23b 1a11 e83c
00000150: a78c 853d 8465 6a3d d174 9d3d 0d0f 37bd
00000160: 2747 213c 4202 98bd c964 293d 65a2 d53d
00000170: aa93 383d 1b64 243c 79cf e4bc afc0 1e3d
00000180: e9e0 593c 2dac 843d 9a79 f83c 7808 483d
00000190: 1cad e4bc ea7c 513c aaa2 c23c 900a c53d
000001a0: 25e5 adbb 243f ed39 2de3 32bd 6fd1 023d
000001b0: 399f f9bc 6f24 013d e659 18bd 784b ecbc
000001c0: 1542 dbbb b93f 6fbc 9785 913d 4255 79bb
000001d0: c989 243d 53e9 083d 6948 fb3c 81d1 903d
000001e0: 8b82 793c 9926 19bd f28a 0a3d 90f3 a6bd
000001f0: 40de d1bc 4692 d13d b603 a93b bf2c 0dbc
00000200: 1896 85bd 2885 8b3d e1e4 a83d 5f0d 22bd
00000210: f1cd 873c 8c1f cd3c 79e8 e53a ae76 433d
00000220: b2db 80bb e8f6 99ba 4cc3 11bd 6465 67bd
00000230: d26b 9d3d 6eac aa3d 4511 50bd b97c 24bd
00000240: 87ae 533c 2634 253d a57b 423d bb3e 013d
00000250: 54bc 38bc 7c6f 1d3d f008 f9bc 70b8 3ebd
00000260: 5e7a 833d e271 d5bc ffbf 39bd 97fd b9bc
00000270: e264 8ebd 1723 6dbb bd78 f7bb 8ac0 a4bc
00000280: 1a06 e73c b6d4 3ebd d982 b4bb 1a82 2fbc
00000290: 613d 993d fa6f e13c b533 24bd 07a6 673d
000002a0: 503b aabc 7fdd 843d 9aee e43d f899 413c
000002b0: 4f82 c43d 1ee3 92bc a9a7 68bb 3097 12bd
000002c0: 3830 cc3b ffbf d1bb 9dcd 0dbd 777a 06bd
000002d0: 9481 023d 7d2f 59bc d609 9abd 0989 b13c
000002e0: 1daf 0e3d 28dc 25bd a712 0d3d bb50 e43c
000002f0: 05b8 2cbd 995d 84bd 3675 3c3d 663c a83b
00000300: 4fa7 fcbc 7f6f 203d 8d37 273c d7f8 72bc
00000310: 27ba 883d 82a7 d43d 89ca f7bb a9c8 863d
00000320: 1b75 2ebd 6d36 8cbd e613 12bd aeea ef3b
00000330: 3d36 31bd d1d9 37bd 79ed b6bc 5588 413d
00000340: 0288 983b 1d38 0abc 5985 9f3b 7fa2 813c
00000350: cc16 02bd 7b17 ef3a 146f c9bc b29b 4dbd
00000360: 6055 39bd 18a8 6cbd 21d2 8bbb 9979 553c
00000370: cdc9 1d3d efb3 a43c c60d 7a3d 1c84 143d
00000380: 5f64 013d 3d02 853c dfb4 2d3d abb0 b83d
00000390: ec90 d8bc da12 843d 31cc 453c 13f9 f6bc
000003a0: 443b 37bd c364 133d 8e6b 63bd 6868 3f3d
000003b0: ecb0 e2bb c368 5ebd afc9 1bbd 80db 613d
000003c0: 5bb9 e5bc fc37 70bc 5f0e 7fbd 8fa6 1abc
000003d0: cc2f 12bd 9be1 0d3c 67a1 573d 31ad 8d3c
000003e0: 1bae 793d c60f c83d 6e5c 00bd d56b ad3d
000003f0: 603a 33bd 539d d03d ee9c e3bc a4d0 9e3c
0.05092304 -0.020919016 -0.0100760665 0.044417944 0.0022533792 -0.034812696 -0.032449875 0.023111496
0.019722423 0.04610275 0.023111412 0.020855455 -0.058502387 0.043043006 -0.048179794 0.10066954
0.02054244 -0.03729418 -0.05465136 0.03747038 -0.089462526 0.041977864 -0.024016984 0.03795824
0.06260294 -0.037745528 -0.021851923 -0.003211826 -0.01205837 0.017753523 -0.0029917785 0.03925438
0.039089486 0.029331654 0.07167132 -0.06469223 -0.05010813 -0.039453078 -0.05336354 0.034862284
0.0076546706 0.040092766 0.009446737 0.049607806 0.021570185 -0.016756017 0.024409143 0.023763992
-0.03801997 -0.068113826 0.041754417 -0.009952685 0.027130391 0.008173627 0.051028255 0.0216983
-0.02445432 0.017381536 -0.0030616235 0.012308194 -0.0495966 -0.018024042 0.055065397 -0.016873779
0.07907429 -0.0030651458 -0.0021067194 0.08176114 0.005224597 0.044858243 0.016757902 0.007806684
0.0287922 0.025089366 0.021509882 -0.002538703 0.042584788 0.04089821 -0.018135997 0.054627392
-0.03782214 0.007238866 0.0049595507 0.028328467 0.06520968 0.05722572 0.076882966 -0.044692088
0.009843624 -0.07422306 0.04135588 0.10431365 0.0450627 0.010033633 -0.027930962 0.038757976
0.013298252 0.064781524 0.030331422 0.0488362 -0.027914576 0.0127861295 0.023759205 0.09621155
-0.005306857 0.00045251206 -0.043673683 0.031938013 -0.030471431 0.031528886 -0.03719511 -0.02884458
-0.006691227 -0.014602595 0.07105558 -0.0038045202 0.040170465 0.03342564 0.030674176 0.0707121
0.015228878 -0.037390325 0.033823915 -0.081519246 -0.025618672 0.102329776 0.005157913 -0.008616625
-0.06522769 0.06812507 0.0824678 -0.039563533 0.016577693 0.025039457 0.0017540596 0.047720604
-0.0039324397 -0.0011746557 -0.03558664 -0.056493178 0.07686581 0.083336696 -0.05079772 -0.040158007
0.0129200285 0.040332936 0.047481198 0.031553965 -0.01127537 0.038436398 -0.03039977 -0.046562612
0.06419824 -0.02605528 -0.045349117 -0.022703929 -0.069528356 -0.0036184245 -0.007552235 -0.020111341
0.028201152 -0.046589576 -0.0055087623 -0.010712171 0.0748241 0.027519215 -0.040088374 0.05655482
-0.020780236 0.064875595 0.11178322 0.011816494 0.09595167 -0.017930564 -0.0035500324 -0.035788715
0.006231334 -0.0064010615 -0.034619916 -0.032831635 0.031861857 -0.013255951 -0.07521407 0.021671789
0.03483497 -0.04049316 0.034441616 0.027870527 -0.042167682 -0.06463165 0.04601022 0.005134153
-0.030841498 0.03916883 0.010206115 -0.014829836 0.06676131 0.10383512 -0.007561986 0.06581242
-0.04259215 -0.068463184 -0.035663508 0.007321677 -0.043264616 -0.04488546 -0.022330033 0.047249157
0.0046548853 -0.00843623 0.004868191 0.015824554 -0.031760022 0.0018241251 -0.024589099 -0.05019731
-0.045247436 -0.057777494 -0.0042669927 0.013029479 0.03852253 0.02010533 0.06104829 0.0362588
0.031589862 0.016236419 0.04240882 0.09018072 -0.026436292 0.06448908 0.012072609 -0.030148065
-0.044734254 0.035984766 -0.055522494 0.04673043 -0.0069180634 -0.054299127 -0.038034137 0.055140972
-0.028042486 -0.014661785 -0.062269565 -0.009439125 -0.035690114 0.008659746 0.05264416 0.017294498
0.060957056 0.097686335 -0.031338148 0.08467833 -0.043756843 0.10186257 -0.02778479 0.019386597

res_block1.fc.bias f4 [256]
00000000: fe1a 393d ee79 11bd f2b1 bebd d408 14bc
00000010: 93f6 1a3d c05e d33c d5f2 78bd c7aa cc3c
00000020: 1d22 823d 6de6 933d 1435 013c 800c 113d
00000030: f210 4dbd a1ad 88bd bde4 923c 9245 d53c
00000040: bb43 473d c604 56bd 1857 923d 17e4 863c
00000050: b0eb 483c 0758 b639 0bf6 9d3d 3d84 8a3c
00000060: e66c 2cba c124 a4bc 873c d03c ae57 a2bd
00000070: 1cad d73c 076d 403d 263d 903d 3c1e 41bd
00000080: 9d13 563b bd67 763c 6676 31bd 23cb a63c
00000090: 7c60 43bd c886 69bc 6964 723c 5f4b 3d3d
000000a0: 2ed0 81bd 38aa e33c 6f71 923c d7b8 853d
000000b0: cd0a 0dbc 76df a2bd 6fd7 ea3b a785 abbc
000000c0: 47f6 283c 8d26 113d e31d 3e3d 636e f63c
000000d0: bd16 e1bc 3c98 4c3d 12eb e53c 51d7 03bd
000000e0: 6567 75bd 75de 943d 3e53 87bc 0a5e a0bc
000000f0: bf2d 0cbd f41a 5b3d d654 a03c 559c 05bd
00000100: 00c5 833d fb60 fbbc 67f8 6ebd 4831 383d
00000110: 5b23 e13b 2b72 a23b 9bcb 183d ea3e 23bc
00000120: d94f 3a3d b37f 093d 1504 cdbc e60f a0bd
00000130: 13e2 18bd c9f1 823d 2c8b fbbc a497 ca3b
00000140: b2d3 8d3d 3715 14bd 167e 693d b7b0 67bd
00000150: 575f 1fbd 23c0 b53d 469b e1bb 43b1 823d
00000160: 890a 9b3d aa25 a1bc 0ca2 e23b 8dfc 253d
00000170: d8bc 27bd d86f a63c e5ba 983c 975b 093d
00000180: 2a9a 263c 636e 88bc 9f7e 173d 4283 683d
00000190: 72fa 0f3d 5128 aa3c afa4 173d 7621 35bc
000001a0: 03a2 32bd fb34 873c 5919 8f3b 23d2 21bc
000001b0: e6a0 5c3c e104 1a3d c8b4 77bc fcfb 8f3b
000001c0: 7d25 1bbd 83a8 82bc 70da dc3c 579d 32bc
000001d0: 1b68 b43d a4ca 01bc 99da 4e3d 521d 273b
000001e0: 1469 7f3d e983 4fbc c16b 9ebc 0cfd aabc
000001f0: 0dc7 cc3c 72dc 603d 1684 083d ac98 22bd
00000200: 1a4e 813d 8702 b13d fa2f 7cbd 2e9d 02bd
00000210: f0f9 88bb cec5 6c3d 5d41 303d 89b0 6b3c
00000220: 54a9 973c 078c 66bd 1fb1 453d bbd2 163c
00000230: 95e8 7cbc 0c31 f13c a8a4 cabc 5b18 7e3d
00000240: 3390 d83c 0326 d83a 7034 5d3d 1dad 423d
00000250: 6c5c 773d 38cb 273d 3c6c a43d f359 3a3d
00000260: 3345 953d 7e5f b43c 3573 cc3c 490b 193b
00000270: 93dc e1bc ff9a 1e3d 7247 523c 372f 07bd
00000280: f05a ac3c 34c3 80bd 3861 f637 4c59 023b
00000290: 15dc eb3c beb8 25bd 3a29 943d 0eb2 2dbd
000002a0: 74b9 1a3d 37a2 81bb 4ae2 0c3d 9453 76bc
000002b0: af84 733d 1bc1 8b3d c89e 8a3d 41d6 353d
000002c0: 94bf 25bd 838e f63a 5997 8dbd 75ad 303d
000002d0: bee7 81bc 252f f53c 92b8 ee3c 43a6 3c3d
000002e0: 3a6f 7bbd 029d d1bc 438d 9fbc e69e 833d
000002f0: e9b3 60bd c3fb 36bd cf13 773c 999f d13c
00000300: b24e 3dbd 74f9 133c b6cf 803d eed8 573b
00000310: cf24 21bc 86f6 4bbd e351 493d 23d3 f13c
00000320: 8fc5 98bc 4e3b 813d 0bdf 163c 4e47 b4bc
00000330: be13 973d 1e10 593c a8e9 8ebd e6f2 0cbd
00000340: fe3a b9bc f292 c0bd 3a7e 09bd 5290 663d
00000350: c967 a73d 722b 2c3d 54c3 90bd 1933 343c
00000360: 5a1e 97bc b439 9b3c ab5e 96bd fe29 703b
00000370: a29a 033d fc2e 4e3d 17e1 eb3c 01a1 03bd
00000380: ca09 89bc a9de f7bc 9910 8ebc 5724 833d
00000390: b208 afbb 21a0 2abd a667 283d 7806 0bbd
000003a0: cf16 cbbd aced 82bc 2674 1ebd 8bcc 9f3d
000003b0: 5e62 fa3c a520 d33c ab62 2c3d b746 0ebc
000003c0: 667a 83bc b40e 20bd ddab e0bc b4f9 ad3b
000003d0: f2e4 853d 1795 9cbc 44c7 733d 9df9 93bc
000003e0: 42f9 85bd c8fa 5cbc 8e04 d2bc dd5b 7cbc
000003f0: 8173 aab9 ef20 27bc c5d6 a4bb 8a98 38bd
0.045191757 -0.03551667 -0.09311284 -0.009035308 0.037832808 0.025802016 -0.060778458 0.024983777
0.06354163 0.072216846 0.00788619 0.03541231 -0.05006499 -0.06673742 0.017931337 0.02603415
0.048648577 -0.052250646 0.07145518 0.016466184 0.0122632235 0.0003477933 0.077129446 0.01690876
-0.00065775064 -0.020037057 0.025419487 -0.0792688 0.026327662 0.046978977 0.07042913 -0.047147974
0.00326655 0.015039382 -0.043325804 0.020360535 -0.047699437 -0.014253326 0.014794447 0.046214458
-0.06338535 0.027791128 0.017876355 0.06529396 -0.008608532 -0.07952778 0.007166795 -0.020937754
0.010312623 0.035437156 0.04641522 0.030081933 -0.027476663 0.04994987 0.028066192 -0.032187764
-0.059913058 0.07268993 -0.016519185 -0.019576091 -0.034223314 0.0534925 0.019571703 -0.032619793
0.06434059 -0.030685892 -0.058342364 0.044968873 0.00687067 0.0049574575 0.03730355 -0.00996373
0.045486305 0.03356905 -0.02502636 -0.078155324 -0.037324976 0.06393773 -0.03070601 0.0061826278
0.06925143 -0.036153045 0.05700501 -0.056565013 -0.038909283 0.08874538 -0.006884965 0.06381466
0.07570369 -0.01967128 0.00691629 0.040524054 -0.04095158 0.020317003 0.018643806 0.033534613
0.0101685915 -0.016654199 0.03698599 0.056765802 0.035150953 0.020771177 0.03702229 -0.011055341
-0.043611538 0.016504755 0.0043670353 -0.009876761 0.013466096 0.03760231 -0.015118785 0.0043940526
-0.03787755 -0.015949493 0.026959628 -0.010901771 0.08808919 -0.007921848 0.05050144 0.0025499654
0.06235607 -0.012665727 -0.01933849 -0.020872615 0.024997259 0.054897733 0.033329092 -0.03969638
0.06313725 0.0864306 -0.06156919 -0.03188818 -0.0041801855 0.05780583 0.043031085 0.014385351
0.01851336 -0.056285884 0.04826462 0.0092055155 -0.015436311 0.029442333 -0.024736717 0.062034946
0.026435947 0.001649082 0.054005086 0.047528375 0.060390875 0.04096529 0.080284566 0.04549594
0.07288589 0.02201819 0.024957279 0.0023352674 -0.027570998 0.038722035 0.012834417 -0.033004012
0.021039456 -0.06287232 2.9370756e-05 0.001988965 0.028791467 -0.040459387 0.07234426 -0.042406134
0.037774518 -0.003956105 0.034395494 -0.015034575 0.05945271 0.06823941 0.06768566 0.04439378
-0.040465906 0.0018810782 -0.06913633 0.04313417 -0.015857574 0.029929707 0.029140744 0.046056997
-0.06138537 -0.025587562 -0.019476539 0.06426792 -0.054859076 -0.044673692 0.015080406 0.025588797
-0.046217628 0.009031642 0.06289618 0.0032935697 -0.009835436 -0.04979565 0.04915036 0.029519623
-0.01864889 0.063101396 0.009208451 -0.022006657 0.073768124 0.013248472 -0.0697816 -0.034411334
-0.022611137 -0.094030276 -0.033567645 0.05628998 0.08174092 0.04203362 -0.07068506 0.010998511
-0.01844709 0.018948413 -0.07342275 0.0036646123 0.03212989 0.050337777 0.028793855 -0.032135967
-0.0167283 -0.03025754 -0.017341899 0.06403416 -0.0053416127 -0.041656617 0.04111447 -0.033941716
-0.0991646 -0.015982471 -0.038684987 0.07802685 0.030564483 0.025772402 0.042086285 -0.008683852
-0.016049575 -0.039076522 -0.0274257 0.005309308 0.065378085 -0.01911406 0.059516206 -0.01806336
-0.06541683 -0.013487525 -0.025636937 -0.015402761 -0.00032510984 -0.010200723 -0.0050304853 -0.045067348

res_block1.ln.weight f4 [256]
00000000: 6241 703f 03d9 663f def6 933f ac44 7d3f
00000010: 4b6a 873f c1d3 723f 76b1 803f 6e6a 763f
00000020: baec 6c3f 97eb 6d3f 5aa9 763f 4ea6 7d3f
00000030: 1172 713f f5ac 8c3f de4d 793f 3051 7a3f
00000040: 3439 863f d70b 9d3f 402b 773f 9834 793f
00000050: 4b0b 6c3f 73cb 7f3f b834 653f 500e 803f
00000060: 683c 8a3f 9086 893f 1eeb 713f 85b5 9a3f
00000070: cdc5 5a3f 0c0b 853f 6f98 6d3f ba27 893f
00000080: 9ee1 713f 55cf 823f 9efb 713f e7ee 613f
00000090: 4d84 7e3f aa03 6a3f a851 743f f188 6d3f
000000a0: 4310 893f f3f7 813f 28c6 853f 788d 733f
000000b0: 492a 813f 9d96 893f 7b1b 7f3f af65 8a3f
000000c0: 89c6 6b3f ee25 6c3f ec37 763f 8324 883f
000000d0: 748c 6b3f c3b2 783f a5e7 793f 20b4 7d3f
000000e0: 1b9e 833f 4e38 713f 13c8 683f e3df 703f
000000f0: ac6c 7c3f 3bcc 7f3f b845 763f df7c 863f
00000100: 6143 883f 339f 753f 0cee 8d3f 2231 633f
00000110: 0e66 833f 3fcc 813f aad0 713f 8f65 833f
00000120: 1360 803f f304 7b3f 7cc9 7a3f 9806 843f
00000130: 1cf0 783f 0e1d 743f c404 5b3f 87fd 643f
00000140: 6c89 663f 9f18 ab3f f701 773f 40f7 983f
00000150: 0df3 823f 4a4d 913f 3a9c 6a3f f8c1 793f
00000160: e70a 6e3f abbe 843f ecb1 673f 386e 723f
00000170: d164 813f bba1 693f 8f23 7d3f 38f0 6f3f
00000180: 43b8 7c3f a53d 633f 90d1 6f3f 9d1c 6d3f
00000190: f667 6f3f bbcc 8a3f 8258 6c3f 3d65 7d3f
000001a0: 36e5 6f3f 9670 733f d877 773f c5d3 6b3f
000001b0: 8898 773f fc11 6d3f c692 823f 5903 753f
000001c0: 0505 8a3f 1c11 7d3f 6b82 723f 7bfe 6e3f
000001d0: 710d 7e3f 48d6 863f b01c 6a3f 4e88 7d3f
000001e0: d659 703f 98cf 703f 6dfe 7f3f 0e2d 7a3f
000001f0: e650 7a3f 77d9 8a3f 5044 7c3f ed2d 7d3f
00000200: 07eb 603f b6ac 6a3f a3a8 7f3f dfde 8f3f
00000210: f8b4 7d3f 1daf 7f3f 73b5 643f 6790 6a3f
00000220: 08b5 753f c8c2 793f 96e2 7f3f 00e0 863f
00000230: 082c 743f d6ee 603f 20ee 633f d12a 6f3f
00000240: bd6e 8c3f f96e 7c3f 833d 783f 52fd 723f
00000250: a54f 693f 8a5d 813f f786 663f 0092 6e3f
00000260: 5ab6 853f f27a 703f 6013 793f 4e81 773f
00000270: 7512 813f e944 643f 45cd 6d3f 8f7a 833f
00000280: 6102 843f 8446 9b3f 349e 863f 1318 803f
00000290: ea84 6d3f 8318 793f ac1a 733f 0be5 8c3f
000002a0: 25fe 793f 601c 833f c771 683f 0068 833f
000002b0: cd4d 9a3f 56bb 7e3f d08d 6f3f d4b9 773f
000002c0: 11b8 783f 8993 903f d936 883f 007d 6f3f
000002d0: 0907 7e3f eba7 7a3f e374 743f 55e4 7e3f
000002e0: d9f7 8c3f 1ef4 7a3f b92a 793f 21d2 703f
000002f0: 7c2e 883f 1bb9 8a3f 5ff4 8a3f 1157 7c3f
00000300: 3b6f 7c3f 3f6b 6e3f 17dd 6b3f 4fc8 803f
00000310: 93cb 733f a110 7f3f df79 773f 89c9 733f
00000320: d402 833f 39d3 5c3f 8d6d 873f fdaa 733f
00000330: b413 6b3f 4e0c 6c3f 88dd 973f 6cc3 733f
00000340: 7938 7b3f bb2b 893f ed12 7c3f 6cd8 7a3f
00000350: b8c7 6f3f 0fce 713f a128 883f 6457 713f
00000360: 2ad4 743f ef42 643f 49e3 873f 591a 773f
00000370: 8d66 733f a22d 673f 45a1 9e3f b1ea a53f
00000380: 4979 8a3f 36b4 6e3f b66d 7a3f 5fe1 663f
00000390: e4df 6b3f fdf6 803f 41a7 813f eb6a 743f
000003a0: 56aa 943f 5424 823f 83ab 813f be57 823f
000003b0: 440e 853f 4db3 6a3f c7b8 793f 66aa 823f
000003c0: 5715 6c3f c327 7d3f 5a26 7c3f f4c7 6c3f
000003d0: 9f26 743f 4035 7c3f 4264 723f 4c45 7b3f
000003e0: a395 803f d994 573f 0cba 773f c5a1 793f
000003f0: 24c8 743f 58a1 703f c36f 7d3f 7931 743f
0.93849766 0.90174884 1.1559713 0.9893291 1.0579313 0.9485436 1.0054157 0.9625615
0.92548716 0.92937607 0.9635216 0.99081886 0.94314677 1.0990282 0.9738444 0.9778013
1.0486207 1.2269238 0.9655037 0.97345877 0.9220473 0.99919814 0.8953357 1.0004368
1.0799685 1.074419 0.94499385 1.2086645 0.8545807 1.0393996 0.9281072 1.0715249
0.9448489 1.0219523 0.9452456 0.8825516 0.99420625 0.9141184 0.954371 0.9278708
1.0708088 1.0153793 1.0451097 0.9513774 1.009103 1.0749089 0.99651307 1.0812281
0.92099816 0.92245376 0.9617908 1.0636142 0.9201119 0.9714777 0.97619087 0.99102974
1.0282625 0.9422654 0.9093029 0.94091624 0.9860332 0.99921006 0.9620013 1.0506858
1.0645562 0.95946044 1.1088271 0.88746846 1.026552 1.0140456 0.9445902 1.0265368
1.002932 0.98054427 0.9796369 1.0314512 0.9724138 0.95356834 0.85554147 0.8944935
0.9005344 1.3366889 0.96487373 1.1950455 1.0230423 1.1351712 0.9164463 0.975616
0.92985386 1.0370687 0.9050586 0.9469943 1.0108892 0.91262406 0.98882383 0.9372592
0.9871866 0.8876594 0.9367914 0.92621785 0.93518007 1.0843729 0.9232255 0.989826
0.93709123 0.9509367 0.9666724 0.9212001 0.9671712 0.92605567 1.0201042 0.95708233
1.0782782 0.9885423 0.9473025 0.93357056 0.9923926 1.0534143 0.91450024 0.9903611
0.9388708 0.9406676 0.999976 0.97725 0.9777969 1.0847615 0.98541737 0.988982
0.87858623 0.91669786 0.99866694 1.123989 0.9910426 0.99876577 0.8933937 0.9162659
0.95979357 0.9756284 0.9995512 1.0537109 0.95379686 0.87864435 0.89035225 0.9342471
1.0971295 0.9860683 0.9696886 0.94917786 0.9113715 1.0106671 0.9004969 0.9319153
1.0446274 0.939376 0.9729519 0.9668168 1.0083758 0.8916765 0.9289134 1.0271777
1.0313226 1.2130895 1.051703 1.0007347 0.92780936 0.97303027 0.94962573 1.1007398
0.9765342 1.0243034 0.9079861 1.0266113 1.2054993 0.995046 0.93575764 0.96767926
0.97155863 1.1295024 1.0641738 0.9355011 0.99229485 0.9791247 0.95490855 0.9956716
1.1013137 0.98028743 0.97330815 0.9407063 1.0639186 1.083774 1.0855826 0.9857035
0.98607224 0.93132395 0.9213423 1.0061129 0.95232505 0.9963475 0.96670336 0.95229393
1.0235238 0.862598 1.0580307 0.9518278 0.9182694 0.92206275 1.1864481 0.95220065
0.98133045 1.071647 0.9846638 0.97986484 0.9366412 0.94455045 1.0637399 0.9427397
0.95636237 0.8916463 1.0616237 0.9652458 0.95078355 0.90304005 1.2392966 1.2962247
1.0818263 0.9324373 0.97823656 0.9018764 0.92138505 1.0075375 1.0129167 0.95475644
1.1614482 1.0167336 1.0130466 1.0183027 1.0394979 0.9167984 0.9754757 1.0208251
0.9222006 0.98888797 0.9849602 0.92492604 0.9537143 0.98518753 0.9468423 0.98152614
1.0045666 0.842115 0.9676826 0.97512466 0.9561789 0.9399619 0.9899866 0.9538799

res_block1.ln.bias f4 [256]
00000000: b9be 87bd 2092 d0bd 69eb dcbd 345f 62bd
00000010: e54c 98bd 7e27 6ebd 49ad dbbd 8459 c0bd
00000020: a840 d9bd 8e79 9abd a705 8cbd 5f02 38bd
00000030: dda9 7bbd 679d 7ebd 26d6 bbbd 6c84 4cbd
00000040: c47d 6dbd 7500 dbbd 52dd 9abd 1b7f cabd
00000050: 3680 73bd 3aad aebd f897 e5bd c22a 35bd
00000060: e8a5 a5bd 80a0 7cbd 2387 bebd cd4b 84bd
00000070: 1742 cdbd 39af 2cbd 7464 cebd d815 9dbd
00000080: a289 5fbd 234e 7fbd ee45 33bd d3a7 00be
00000090: a33f 5ebd 1bf7 a7bd 2893 9cbd 71eb 55bd
000000a0: 0958 a3bd be17 aabd c40d 33bd ccca a4bd
000000b0: 0a56 a9bd a38c 64bd fda9 a1bd aeb2 3cbd
000000c0: 8ef3 cbbd 848a c8bd 0032 bcbd 5424 6cbd
000000d0: c56e b0bd a5db 12bd 886f afbd 9958 49bd
000000e0: 2cb2 73bd ff39 a1bd 277f ddbd 3b2d 36bc
000000f0: f6e6 73bd 4ea6 48bd 1379 5d3b fb96 c6bd
00000100: 9356 cdbd 60c9 41bd 913e a9bd fb73 08be
00000110: fc59 72bd 4ccd e9bd eaa2 89bd 3530 69bd
00000120: d17b 1bbd 7bf0 0ebd 6c61 d2bd 3ff8 8cbd
00000130: d054 c2bd 5dff b4bd dc86 eebd a31d 95bd
00000140: ac92 e3bd 5edb b5bd 78c9 50bd a007 93bd
00000150: 6724 97bd 47f3 5ebd b369 b7bd 7fd4 87bc
00000160: 2372 82bd 93cd 58bd 071e 06be 5942 2abd
00000170: 9ada 13bd 57b6 0cbe cc6f 9ebd a21d acbd
00000180: d8ab 6ebd c3ab 01be e988 adbd dddb d4bc
00000190: a626 a4bd f124 84bd 947b dbbd 14e1 59bd
000001a0: 92f2 b2bd ae37 65bd 2130 94bd d9bf abbd
000001b0: e68c 9ebd 8166 8abd efdd 0fbe 9d67 adbd
000001c0: 2e2a cebd 6d86 edbd 0876 b8bd 8bab bfbd
000001d0: 1067 70bd f91d 3cbd fbfd bdbd 5fc8 95bc
000001e0: f1f8 34bd a673 97bd 3a07 16bd 2b92 84bd
000001f0: 4845 38bd 4639 ecbc be91 67bd ec29 44bd
00000200: fad8 02be 73f6 bbbd dc66 dfbd 07a0 6bbd
00000210: 123b 60bc 86e2 47bd d268 b6bd 3828 d6bd
00000220: b00f a0bd cb58 babd 97f2 35bd cdee 9abd
00000230: f676 c0bd 1f1b 04be b4c0 03be 0401 08be
00000240: 788b 26bd 90ce d6bd a17b bdbd 6db8 77bd
00000250: f196 e5bd c443 16bd 35fb c4bd e2a7 14be
00000260: 1d9f 76bd bfa4 8cbd 6d22 c1bd 52fe 36bd
00000270: 284e eabd 7593 0cbe 7c90 7bbd 98f4 cdbd
00000280: d90f adbd 422f b3bd e578 96bd ffac 5ebd
00000290: 91a2 81bd b582 dcbd 8209 d8bd 84b8 97bd
000002a0: 4d17 6bbd a598 44bd 42fa 0bbe 7e2a bdbd
000002b0: 506d bfbd 7b0a bebd bb4b abbd 39fd 76bd
000002c0: 8236 82bd 3b3b b9bd 128b 8dbd 668f b8bd
000002d0: 5fa0 45bd 8f06 13bd c0f1 84bd 5e27 58bd
000002e0: 42d3 9abd 6dc8 56bc 8863 42bd 1ac6 c8bd
000002f0: 1223 8bbd fcb1 63bd 553e 7fbd 7806 65bd
00000300: 4cb2 adbd 3e39 c3bd e959 d9bd 93b6 71bd
00000310: 8085 39bd e245 77bd 72ab 42bd 9ad5 6fbd
00000320: 887f 52bd ba07 e4bd d442 c5bd 5a0f 4fbe
00000330: 60cf a5bd 1013 a3bd 26c5 ebbc eac5 8cbd
00000340: 0bad 55bd 6a4c 9bbd ac89 8abd ae78 76bd
00000350: 9a73 98bd 08b2 b1bd 4ccf 94bd b545 e6bc
00000360: 284f 8cbd 731a ebbd dd86 48bd 6ed5 e8bd
00000370: 81c8 7abd 23cd e6bd 7742 c5bd 6f5f cebd
00000380: a3b9 1dbd 3e9a c6bc 50d9 b4bd 1fec b8bd
00000390: 7b35 d8bd 3314 86bd 35a0 71bd bc23 b3bd
000003a0: 3350 d5bd dcb6 eebd a4d5 29bd ea29 a2bd
000003b0: 8259 5abd b0c4 b3bd 50dd 65bd 3ff0 99bd
000003c0: 7542 60bd 2932 a2bd e378 d0bd 31c0 a6bd
000003d0: 1461 99bd 3a4a e6bc 7cda b2bd bf11 b9bd
000003e0: 7989 debd a558 04be 4866 a4bd c16f 46bd
000003f0: ac73 3fbd bde2 9fbd d46c dabd df46 f4bd
-0.06628174 -0.10184121 -0.107870884 -0.055266574 -0.074365415 -0.05814313 -0.10726411 -0.09392074
-0.10608035 -0.07542716 -0.068370156 -0.044924136 -0.06144129 -0.06216183 -0.09171705 -0.049930975
-0.057981268 -0.106934465 -0.07561745 -0.09887525 -0.059448443 -0.08529134 -0.11210626 -0.04423023
-0.08088285 -0.061676502 -0.09303119 -0.0645977 -0.10022371 -0.042159293 -0.10077754 -0.07670182
-0.054574616 -0.062330376 -0.043767862 -0.1256402 -0.054259907 -0.082014285 -0.07645255 -0.052226488
-0.07975776 -0.0830531 -0.0437143 -0.08046493 -0.08268364 -0.055798184 -0.07893751 -0.04606884
-0.09958564 -0.09792045 -0.09189224 -0.057651833 -0.086148776 -0.035854 -0.08566195 -0.04915676
-0.05949609 -0.0787239 -0.10815268 -0.011119182 -0.059546433 -0.048986726 0.003379409 -0.09696766
-0.10026278 -0.047311187 -0.08263887 -0.13325493 -0.059167847 -0.114161104 -0.067205265 -0.05693074
-0.037959877 -0.03489731 -0.10272488 -0.06883287 -0.09488833 -0.08837769 -0.11646816 -0.072810434
-0.1111196 -0.088797316 -0.050973386 -0.07179189 -0.0737999 -0.054431226 -0.089557074 -0.016580818
-0.06369426 -0.052930426 -0.13097392 -0.04156718 -0.036097147 -0.13741432 -0.07736167 -0.084040895
-0.05826935 -0.12663178 -0.08473379 -0.025983745 -0.08015184 -0.064523585 -0.1071693 -0.053193167
-0.08737673 -0.055961303 -0.07235742 -0.083862014 -0.07741718 -0.06757832 -0.14049505 -0.08467028
-0.10066639 -0.11597905 -0.09006888 -0.09358891 -0.058692038 -0.04592702 -0.092769586 -0.018284021
-0.04418272 -0.07395105 -0.036627986 -0.06473192 -0.044987947 -0.028835904 -0.056535475 -0.047891542
-0.12778082 -0.09177866 -0.10908291 -0.05752566 -0.013685958 -0.048800014 -0.08906712 -0.1045689
-0.07815492 -0.09098967 -0.044420805 -0.07565079 -0.0939769 -0.12900971 -0.12866479 -0.13281637
-0.04066035 -0.104886174 -0.09252096 -0.060478617 -0.112104304 -0.03668572 -0.096182264 -0.14517167
-0.060210336 -0.0686736 -0.09430394 -0.044676133 -0.11440688 -0.13728125 -0.061417088 -0.10056418
-0.08450288 -0.08749248 -0.073472776 -0.0543642 -0.06329835 -0.10767118 -0.105486885 -0.074082404
-0.05739527 -0.047997136 -0.13669685 -0.0923662 -0.093470216 -0.09279343 -0.08364054 -0.060300086
-0.06358053 -0.090445004 -0.06911291 -0.09011726 -0.048248645 -0.035894927 -0.06491423 -0.05277192
-0.075598255 -0.013109309 -0.0474582 -0.0980341 -0.067937985 -0.05558966 -0.062315304 -0.055914372
-0.08481273 -0.095324025 -0.10612852 -0.059012007 -0.04529333 -0.06036938 -0.047526784 -0.058553316
-0.051391155 -0.11134286 -0.09631887 -0.202207 -0.08096194 -0.0796262 -0.028780531 -0.068736866
-0.05216698 -0.07582934 -0.0676454 -0.060173683 -0.07443924 -0.08676535 -0.07266101 -0.02810941
-0.06851035 -0.11479654 -0.04895674 -0.113688335 -0.06122637 -0.112695955 -0.09631818 -0.10076796
-0.038507115 -0.02424347 -0.088305116 -0.090294115 -0.105570756 -0.065468214 -0.058990676 -0.0874705
-0.104156874 -0.116559714 -0.04146351 -0.07918151 -0.053308018 -0.087777495 -0.056119263 -0.075165264
-0.05475088 -0.079197235 -0.10179307 -0.08142126 -0.07489219 -0.028111566 -0.08733079 -0.09036588
-0.108660646 -0.1292444 -0.08027321 -0.04844642 -0.046741173 -0.07806919 -0.106652886 -0.1192758

res_block2.fc.weight f4 [128, 256]
00000000: 5be0 093c 6caa af3a 912c 30bd 1a8a 923d
00000010: 8ef7 1cbd 7d52 a23d bc01 14bd 9584 b03d
00000020: 969a 233d c767 253d f227 19bd 10fe 5bbd
00000030: 2767 fe3c f237 a0bd 51d0 9fbc 81b6 1abd
00000040: 3152 14bd c209 7bbd 2260 353d 5e11 483d
00000050: 9c8d ed3c d791 8d3d 97fe 8abd 6cc4 033d
00000060: 455d ba3d 476f 783c 2538 2abc f0e6 373d
00000070: cd0f 20bc 172d 51bd d709 bebc 1b28 e9bc
00000080: 54df 073d 2baf e4bb 9af6 743d a781 0abc
00000090: 040d 563a 3d1f 263c 7d07 1b3d 0b52 283d
000000a0: da08 063d 0275 4b3c 7845 053d b3bc 513d
000000b0: 4e25 283d 854c 7a3d ecbb 523d 40f7 c43d
000000c0: d87f 9abd fa00 14bc cfdf dd3b 9eb4 5a3c
000000d0: be07 9abd 0802 4f3d afb1 5f3d 512f eabc
000000e0: 14cb 57b9 34ca dfbc 0480 953d e93c 323d
000000f0: 3e24 aebc 8ea0 2fbb 8ffd 7d3d 7663 f03c
00000100: 9be8 d83c ca4c 9b3d c372 cf3c 44b6 0b3d
00000110: 61ca 4cbd e918 6d3d 730d 9bbc 5848 30bd
00000120: 45c9 0f3d 3f65 5bbd 47cb 643d 0f90 bc3c
00000130: ed28 7fbc 4574 5fbd 40dd 3b3b 9919 a5bd
00000140: 1833 653d 8fb6 ad3c 30df f0bc f379 3dbd
00000150: 30c9 69bd 2c33 dabb ada0 69bc a819 a03d
00000160: 060d 3b3d 7c86 553b fcdc 933d 2f66 a0bd
00000170: 9e38 86bc f4dd 98bd d2f9 e53c e4eb d33c
00000180: 5caf a53c c1f1 923d a197 99bc 0c84 1b3d
00000190: 1d5c 9c3c 4dfd 11bc e632 fbbc 0d7b 343d
000001a0: 6fa2 a4bd d792 5dbd 1f04 8fbd c7e9 7c3d
000001b0: 038d 593d 7974 27bd 6cb8 2f3c d940 4b3b
000001c0: 40e4 193d 8ce8 bd3c b701 023c b67f b8bc
000001d0: 412b 313d 4d5b 0d3d da6a 1f3d e2f0 9e3c
000001e0: ddbc 11bb e6e9 873d 60ec dfbc 042e 7b3d
000001f0: a05c 7b3c 1188 74bc 75ce 4f3d 5a86 74bc
00000200: 4ed6 57bd e91b 3f3d eeb7 ac3d ba9c 12bb
00000210: 3333 a03c 843a b33c aeb6 c0bc ecdd 2f3c
00000220: 6f19 fc3c f647 dcbc e98d 273d 202b 8d3d
00000230: 1b77 6a3c 877e 45bd b063 033b 0371 113c
00000240: be98 9f3b c467 843c 064f 273d 4084 853c
00000250: b570 683d 9369 963c eb5c ba3c 6aef 0d3d
00000260: 21d0 3c3d 0742 313c f691 1f3d 9fc3 493d
00000270: 795a c6bb e1b2 8dbd aa71 333c 1e9c 63bd
00000280: 56be 3b3c a9f9 a33c 9583 f0bc 0242 bbbc
00000290: 152e b23c 809d 94bc 3a89 a2bc da82 cdbc
000002a0: 4e66 96bd 9238 8fbc c88e 21bb 7971 8c3d
000002b0: 370b 973d 9f3b d0bc 35b4 1ebb 8f5f 6cbd
000002c0: 8da2 d0bc a27a 0bbd 6f8f 9c3d 00cb 1fbd
000002d0: 29b1 17bd f700 e43c 9296 6c3c c458 7fbd
000002e0: f3c3 b9bd 395d 733d 6a8b d23b 2f53 1ebd
000002f0: 759a 713d 164a a93b 6514 21bc c8ff a0bc
00000300: c979 053d 7db1 1ebd e51b 623d f6b0 c63c
00000310: de83 283d 1d35 42bd b738 383d b995 803c
00000320: 946e 41bd 7bc0 70bb c75d 1abd 1b1e e73c
00000330: 875b 3f3d 6003 6dbc 0866 84bc dee0 04bd
00000340: 12d2 d53c e60d 2b3d 3e41 43bd e5e9 903a
00000350: 09c5 9d3c a223 023d 2f1a d33c a4ea 5c3d
00000360: 63fe b9bc ae7c 603c 33ce 05bd 3ea5 dd3c
00000370: de9a f33c 7581 653d e4d0 de3b 88c9 8ebd
00000380: 69bd 663d 3578 5d3c 226f 0d3d 183c 55bc
00000390: ebf2 083d 4585 83bc 7e08 e43d c6dd 00bc
000003a0: 90f4 33bd e540 05bd 9724 8a3d 6663 2d3d
000003b0: 555b d83c 126e 2e3c 85ce afbd 494f 923c
000003c0: cae8 0dbd f9d7 27bd cdf7 b43b e002 9c3d
000003d0: 8298 6b3b 4325 8cbc fcc9 83bd fa0c 04bd
000003e0: 3a07 913c 8b0f 80bd e254 38bc 69be cc3c
000003f0: a685 3d3d d14f 49bd 4fd2 8dbc 57c2 24bd
0.008415307 0.001340223 -0.04301125 0.07155247 -0.038322024 0.0792589 -0.036134467 0.08619038
0.039942347 0.040382173 -0.03739161 -0.05370909 0.031055046 -0.07823171 -0.019508513 -0.037771706
-0.036211196 -0.061288603 0.044281133 0.048844688 0.028998189 0.06912582 -0.067868404 0.032169744
0.09099821 0.015163249 -0.010389362 0.044897974 -0.009769392 -0.05106839 -0.023198051 -0.028461507
0.033171967 -0.0069788895 0.05980549 -0.008453763 0.00081653916 0.010139284 0.03784894 0.041093867
0.032723285 0.012418034 0.032536954 0.05120535 0.0410512 0.06110813 0.051448748 0.09617472
-0.075439155 -0.009033436 0.006771065 0.013348727 -0.07521008 0.050539047 0.05461281 -0.028587015
-0.0002057965 -0.027318098 0.07299808 0.04351512 -0.021257516 -0.002679858 0.06200939 0.029344302
0.026478102 0.07583006 0.025323277 0.03410937 -0.04999769 0.057885084 -0.018927312 -0.043037742
0.035104055 -0.053563353 0.055857923 0.023017911 -0.015573722 -0.054554243 0.002866581 -0.08061523
0.05595693 0.021205215 -0.0294033 -0.046258878 -0.057076633 -0.006658932 -0.0142594995 0.078173935
0.045666717 0.003258138 0.07219884 -0.0783199 -0.016384419 -0.07464209 0.028073225 0.025869317
0.02022522 0.07175017 -0.01874906 0.037967727 0.019086892 -0.008910489 -0.030663919 0.044062663
-0.08038794 -0.054095116 -0.06983208 0.061746385 0.053112995 -0.04088256 0.010725122 0.0031013994
0.03757119 0.023182176 0.007934979 -0.022521835 0.04325414 0.0345109 0.03892026 0.019401971
-0.0022237815 0.066364095 -0.027334392 0.06132318 0.015341908 -0.014925019 0.050734002 -0.01492461
-0.05269461 0.046657477 0.08433519 -0.0022371248 0.019555664 0.021878488 -0.023524608 0.010734063
0.030773846 -0.026889782 0.04090682 0.06892991 0.0143106235 -0.04821637 0.0020048432 0.008877042
0.004870503 0.01616276 0.040846847 0.016298413 0.05674811 0.018360889 0.022749385 0.03465215
0.046096925 0.010818965 0.03895756 0.049258824 -0.0060532656 -0.06918884 0.010952393 -0.055568807
0.011458954 0.020016508 -0.029359618 -0.022858623 0.02175049 -0.018141508 -0.019840825 -0.025086809
-0.07343732 -0.01748303 -0.0024651755 0.06857581 0.07375186 -0.025419055 -0.0024216298 -0.05770832
-0.025468135 -0.0340525 0.07644545 -0.039011955 -0.037034187 0.027832491 0.014440196 -0.062340513
-0.090705775 0.059415076 0.006425311 -0.03865355 0.058985192 0.0051663024 -0.009831523 -0.019653216
0.032586847 -0.038743485 0.055202384 0.024254303 0.041141383 -0.047413934 0.044975962 0.015696393
-0.047224596 -0.003673582 -0.03768709 0.028212598 0.046718147 -0.014466137 -0.016161934 -0.032441013
0.026101146 0.0417613 -0.04766964 0.0011056034 0.019258993 0.031772263 0.025769321 0.05393471
-0.022704309 0.013701601 -0.03266735 0.027056333 0.029736932 0.056031663 0.006799804 -0.06972033
0.05633298 0.013517429 0.034529813 -0.013014816 0.03343479 -0.016054759 0.11134432 -0.007865375
-0.043934405 -0.03253259 0.0674526 0.04233112 0.026410738 0.01064636 -0.08584312 0.017860072
-0.034645833 -0.040977452 0.005522704 0.07617736 0.0035949056 -0.017107612 -0.0643501 -0.032238938
0.017703641 -0.062529646 -0.011250706 0.024993138 0.046270035 -0.049148384 -0.017312197 -0.0402244

res_block2.fc.bias f4 [128]
00000000: 4321 2b3d d6f4 9f3d ae64 443b 6179 963d
00000010: 0a76 33bd 7402 493d 084b 75bd c906 96bd
00000020: 0ae9 22bd 1c5c a8bd 4ffb 5f3d 54dc 133d
00000030: 24ea 883d b88d 1bbd 9793 493d 465a 22bd
00000040: 3124 913b f085 c23c efe4 cc3c d061 2b3d
00000050: 6ff1 113d 9b5d 843d 42c2 553d 6d30 373d
00000060: f70e 12bc 2fa7 3b3d 12f9 343c eea3 c73c
00000070: 3b62 1abd 3612 62bc e8f7 853c 6ac1 753d
00000080: 17da a53c 0ff1 81bd 1b0a ee3c 5832 17bd
00000090: 3299 393c c319 803d df05 e0bb 3405 0d3d
000000a0: 55ec 35bb 2822 d0bb eaaa 333d 884d 933a
000000b0: 13a9 50bd a8a5 0dbd 1676 7fbd d631 bfbc
000000c0: 6c07 123b 97e4 8b3d f0b0 8d3c 5422 623d
000000d0: 892e 143a 1992 94bd 745e c93c 13f6 79bc
000000e0: 0184 43bd a59d 51bd ec39 a23d 683e 5aba
000000f0: 0811 743d 394f 223d 7368 93bb dd35 4fbd
00000100: da66 13bc 87e0 4f3b 0bdf 1bbd ee50 5c3d
00000110: b272 c73d 19c8 b83c eb09 a83c aa16 07be
00000120: d27c 0d3c 5e1b 543c b1d7 44bd 3812 84bd
00000130: 9609 103d f709 563b 6783 8d3d 5d5e 563c
00000140: 6b12 6fbd eb05 6d3c aa41 e1bc e769 993d
00000150: 25af 673d df61 c2bd 6555 97b9 0ded 7e3c
00000160: fbff 50bd 7672 753d 749f 93bd b6d5 67bc
00000170: 5a5e 64bd 6345 483d a386 e4bb eb14 be3c
00000180: 530d f1bb f561 7e3d 6d70 633d ad2e b6bc
00000190: 43c1 86bc 7f60 22bd 0855 07bd 1700 813d
000001a0: 0131 db3c 71a6 1bbc 9aac efbc b068 c23d
000001b0: 21a7 743a ca68 2abd b4ea 0cbd 156d 8f3c
000001c0: 0776 4ebb 6b62 bc3d 74ac a83d aa55 a6bb
000001d0: 7e44 543d af00 72bc c23b 153b d0a7 9abb
000001e0: f513 be3c fa10 c53b 80a6 80bc 0477 83bc
000001f0: fe95 1abd b8f8 443c 0c17 a7bc dc37 89bd
0.041779768 0.078103706 0.0029967236 0.0734737 -0.043813743 0.049074605 -0.05988601 -0.07325513
-0.039773025 -0.082206935 0.054683026 0.036098793 0.06685284 -0.03797695 0.04921302 -0.039636873
0.004429363 0.023745507 0.025011508 0.04184133 0.03563064 0.06463166 0.05218721 0.044723917
-0.008914701 0.045813736 0.011045711 0.02437016 -0.037691336 -0.013798287 0.016353562 0.059998907
0.020245595 -0.063448064 0.029057553 -0.036913246 0.0113280285 0.06254914 -0.0068366374 0.03442879
-0.0027759273 -0.006351728 0.04386417 0.0011238316 -0.05094249 -0.03458181 -0.062368475 -0.023339193
0.0022282256 0.068307094 0.017296284 0.05520852 0.0005652686 -0.072544284 0.024581172 -0.015256423
-0.04773331 -0.051175732 0.07921204 -0.00083253393 0.059586555 0.039626334 -0.0044985353 -0.050588477
-0.00899669 0.0031719522 -0.038054507 0.053788118 0.09738673 0.022556351 0.020512542 -0.1319224
0.0086357165 0.012945978 -0.04805726 -0.064487875 0.03516539 0.0032659748 0.06909829 0.013084021
-0.058367174 0.014466743 -0.027497131 0.074909024 0.056563515 -0.09491324 -0.00028864588 0.015559447
-0.051025372 0.05992361 -0.07208148 -0.014150074 -0.055754043 0.048894297 -0.0069740578 0.023203334
-0.0073563247 0.062105138 0.05552714 -0.022239054 -0.016449576 -0.039642807 -0.033040076 0.06298845
0.026756765 -0.009500132 -0.029257108 0.09492624 0.00093327655 -0.04160384 -0.034403518 0.017508069
-0.0031503455 0.09198459 0.08236018 -0.00507613 0.05182313 -0.014770671 0.0022771214 -0.004719712
0.023202876 0.0060139867 -0.015704393 -0.016047962 -0.0377407 0.01202219 -0.020396732 -0.067001075

res_block2.ln.weight f4 [128]
00000000: ab5f 6d3f 8ef4 803f c749 813f b9e1 753f
00000010: 0ea8 723f 0f6f 6b3f e1ee 6a3f f269 703f
00000020: eb5f 6e3f 26a1 993f 2373 743f cf10 7d3f
00000030: 0bdb 7c3f 9cd5 6e3f f3e6 6a3f 52cb 703f
00000040: 6ec5 853f f904 6c3f e610 7d3f a721 763f
00000050: 4f54 6d3f 6b89 6f3f 4b0a 6b3f b100 7a3f
00000060: ce86 683f 8f76 6f3f b001 623f 110d 6a3f
00000070: 9af5 743f 7644 793f d4bd 783f 5e3e 753f
00000080: 6823 7c3f b74c 923f fe85 6e3f bc96 733f
00000090: c6ea 733f b2ca 703f be50 783f 88b3 703f
000000a0: c4f1 713f da6c 843f 1d7b 753f 4258 833f
000000b0: 852e 663f 2a5e 6c3f 5b16 783f 0e3a 843f
000000c0: dfa3 783f c79d 673f bde4 653f 6662 6c3f
000000d0: 5588 8c3f 2270 8a3f ec47 6b3f 7e02 763f
000000e0: d763 783f d7db 713f 1b7f 713f 745a 663f
000000f0: 40c1 713f 1e6f 743f 9180 753f 66e6 653f
00000100: 70e5 703f 21d9 623f 61f9 773f 84c0 6a3f
00000110: 2096 813f b959 6f3f ff52 6d3f d811 7a3f
00000120: 7692 803f ea21 793f 7f2d 813f 8fd3 8f3f
00000130: 65b6 853f 4c0f 733f 2b7b 773f 9189 773f
00000140: 7da1 713f cfb2 683f 12af 7c3f 4f66 7e3f
00000150: 6ccc 6a3f bb63 953f bf17 843f f0be 743f
00000160: af0a 743f 67f8 703f 0f77 753f 2bca 6f3f
00000170: f3fa 803f 5a4a 6f3f 25d8 753f 3317 843f
00000180: 9dd2 773f 2c10 813f 40b0 693f 55e0 743f
00000190: 0e6d 7e3f ce5d 823f 9514 813f 9d2e 673f
000001a0: c6dc 783f 188b 7c3f 153f 6c3f 9cbd 653f
000001b0: b958 893f 99b4 713f 6491 763f 6811 803f
000001c0: 74c1 713f e865 743f 1272 6b3f a0a8 6d3f
000001d0: b7b2 693f ff92 6d3f 5dd6 763f db8a 843f
000001e0: f9da 713f 11cc 6f3f e612 743f deb8 853f
000001f0: cf7b 843f f8a2 793f 088a 853f 3bd0 853f
0.927241 1.0074632 1.010064 0.9604755 0.9478768 0.91966337 0.9177075 0.9391166
0.9311511 1.2002304 0.95488185 0.9885377 0.98771733 0.9329469 0.9175865 0.9406024
1.0450876 0.9219509 0.9885391 0.961451 0.9270677 0.9356906 0.9181258 0.97657305
0.90830696 0.9354028 0.88283825 0.9142619 0.9568726 0.9737009 0.97164655 0.9579829
0.98491526 1.1429662 0.93173206 0.9515188 0.9528011 0.9405929 0.969982 0.9402394
0.9450953 1.0345719 0.9589098 1.0261309 0.89914733 0.9233118 0.9690911 1.0330217
0.9712505 0.90475124 0.8980215 0.92337644 1.0979105 1.081547 0.9190662 0.9609755
0.97027344 0.94476074 0.9433457 0.8998177 0.944355 0.9548205 0.958993 0.89804685
0.94100094 0.8861256 0.96864897 0.91700006 1.012394 0.9349628 0.92704767 0.9768348
1.0044696 0.97317374 1.0092009 1.1236438 1.0446287 0.94945216 0.96672314 0.96694285
0.94387037 0.9089784 0.98704636 0.9937486 0.91718173 1.167106 1.0319747 0.9560385
0.953288 0.9412903 0.95884794 0.9366786 1.0076584 0.93472826 0.96032935 1.031958
0.96805745 1.008306 0.9128456 0.95654804 0.99385154 1.0184877 1.0084406 0.903055
0.97211874 0.9864974 0.92283756 0.89742446 1.0730201 0.94416195 0.963156 1.0005312
0.9443581 0.95467997 0.9197093 0.92835426 0.9128832 0.92802423 0.9642084 1.0354875
0.9447475 0.93670756 0.95341337 1.0447042 1.0350283 0.97514296 1.0432749 1.0454172
