KEPLER_best_residual_mlp_model.pth (torch, 702989 bytes, 24 tensors)

entry.weight f4 [256, 28]
0	0x3e97774b	0.295832
1	0xbeae29a0	-0.34016132
2	0xbeb49403	-0.35269174
3	0xbdec5700	-0.115400314
4	0x3c4fd94e	0.012686087
5	0x3e79c527	0.24391614
6	0xbe199fc5	-0.15002353
7	0xbd54feb1	-0.052000705
8	0x3ead5587	0.33854315
9	0x3d81d8e8	0.063402
10	0x3e8de2fd	0.2771224
11	0x3bf532ad	0.0074828477
12	0xbe8e44f9	-0.27786997
13	0x3d320477	0.04346129
14	0x3d647bfc	0.055782303
15	0xbeb550d3	-0.35413226
16	0xbf026578	-0.5093608
17	0xb9c0cc31	-0.00036773228
18	0xbd301ecf	-0.04299813
19	0x3ca21a29	0.019787865
20	0xbe4eef70	-0.20208526
21	0xbe51900e	-0.20465109
22	0xbf292ffa	-0.6608883
23	0x3e11138d	0.14167614
24	0x3e751e66	0.23937377
25	0xbe50195a	-0.20322171
26	0xbe45e97c	-0.19327348
27	0x3eb6e333	0.35720214
28	0xbe8ddc1b	-0.2770699
29	0xbea67426	-0.3251049
30	0x3ebe82b2	0.37209088
31	0x3e5d6d30	0.21623683
32	0x3e2b090d	0.16702671
33	0xbd88c774	-0.06678668
34	0x3df42b2f	0.11922299
35	0xbe345f14	-0.17614394
36	0xbe7d6ed0	-0.24749303
37	0x3e605850	0.21908689
38	0x3ebf64be	0.37381548
39	0xbe805e87	-0.2507212
40	0xbe45cb20	-0.19315767
41	0xbe9d0220	-0.30665684
42	0xbd9788f1	-0.073991664
43	0xbdcb96d8	-0.099408805
44	0x3e32115e	0.17389438
45	0xbe124f40	-0.14288044
46	0x3e963de2	0.29344088
47	0xbeda259a	-0.42606813
48	0xbe220266	-0.15821227
49	0x3ea6da98	0.3258865
50	0xbecd6b39	-0.40120867
51	0xbe86a101	-0.2629471
52	0xbeb01101	-0.34387973
53	0xbe635d24	-0.22203499
54	0xbe21b7d8	-0.15792787
55	0x3d27a49d	0.04092847
56	0x3e9f4a14	0.31111205
57	0xbeb14d0b	-0.34629092
58	0xbee5562f	-0.44792315
59	0xbe750364	-0.23927075
60	0xbcecb25e	-0.028893646
61	0x3eb1075e	0.34575933
62	0x3c77dc0f	0.01512815
63	0xbd5a44e9	-0.053288374
64	0x3e98e3c9	0.29861286
65	0xbe1fd9dd	-0.15610452
66	0x3ef8ff66	0.48632354
67	0xbef2c992	-0.4741941
68	0x3c53db37	0.012930683
69	0x3c6756e5	0.014119838
70	0x3e116679	0.14199246
71	0xbee3af7f	-0.4446983
72	0xbf0d6a80	-0.5524063
73	0x3d9536e0	0.07285857
74	0xbdf30f7e	-0.11868189
75	0xbe8f65d9	-0.2800739
76	0xbbd7928b	-0.0065787486
77	0xbe8a82e5	-0.2705299
78	0x3e03ae82	0.12859538
79	0x3d9495b1	0.07255114
80	0xbe4d3e13	-0.2004321
81	0x3c7a8142	0.0152896065
82	0xbdc1ad6f	-0.09456908
83	0x3de894dc	0.11356518
84	0xbea25c24	-0.31710923
85	0x3e8169f7	0.25276157
86	0xbe11503c	-0.14190763
87	0xbd73b954	-0.059502915
88	0x3cdf8c6b	0.027288636
89	0x3eed001f	0.46289155
90	0xbe721c70	-0.2364366
91	0xbd9e8174	-0.07739535
92	0x3e217d34	0.15770417
93	0xbe2ee81a	-0.17080727
94	0xbef32d9d	-0.47495738
95	0xbd14e4bd	-0.036350954
96	0xbdb72ec0	-0.08944464
97	0xbe55f173	-0.20892887
98	0x3e8cbbaa	0.27486926
99	0x3db44181	0.088015564
100	0x3f044175	0.5166238
101	0x3eb0b46f	0.3451266
102	0xbebc6955	-0.36799112
103	0x3e63ba25	0.22238977
104	0x3ebb6771	0.36602357
105	0xbd5650ab	-0.052323025
106	0x3fc23e0f	1.5175189
107	0x3e8711f0	0.26380873
108	0x3dde3b7e	0.10851191
109	0x3e7ab3e7	0.2448269
110	0x3d93109b	0.071809016
111	0xbe51ab70	-0.20475554
112	0x3e237947	0.15964232
113	0x3dc76434	0.09735909
114	0xbece639b	-0.40310368
115	0x3e1dee85	0.15423019
116	0x3e6a31bc	0.22870535
117	0x3e479754	0.19491321
118	0x3d23c0b7	0.03997871
119	0xbe088069	-0.13330235
120	0x3e42919c	0.19000858
121	0x3d846c9f	0.0646603
122	0xbebad10f	-0.36487624
123	0xbeab83c3	-0.33498964
124	0x3d6e9482	0.058247097
125	0x3e89dcd3	0.26926288
126	0x3def64ae	0.11689125
127	0x3e185a9b	0.14878313
128	0x3c280df8	0.010257237
129	0x3d3c8281	0.046022896
130	0xbe6abf53	-0.22924547
131	0xbc392e53	-0.011302548
132	0x3e676b0b	0.22599427
133	0xbd79eda6	-0.061017655
134	0xbd7e41f7	-0.062074628
135	0xbd701813	-0.05861671
136	0xbe1104a2	-0.14161924
137	0x3daf180e	0.0854951
138	0x3e09e7cd	0.13467331
139	0x3eb149bd	0.3462657
140	0x3da41304	0.080114394
141	0xbf2ef4c8	-0.68342257
142	0x3e97b919	0.29633406
143	0xbe771d69	-0.24132313
144	0x3e1299e5	0.14316519
145	0x3eb964fc	0.36209857
146	0x3c10deb0	0.008842155
147	0x3ba0f9f2	0.0049126083
148	0xbd70de97	-0.05880603
149	0x3dcfbc5f	0.10143351
150	0x401ee020	2.4824295
151	0xbea4653a	-0.3210848
152	0xbf0bd254	-0.5461781
153	0xbf8be474	-1.0929093
154	0xbdcc7d73	-0.09984865
155	0x3e5abb6f	0.21360563
156	0xbe2f765c	-0.17134994
157	0xbe97cbd9	-0.2964771
158	0x3de1c100	0.1102314
159	0xbeac15a3	-0.33610258
160	0xc0088e7b	-2.1336963
161	0xbdce6389	-0.100775786
162	0xc1486c6e	-12.526472
163	0xbe80214c	-0.25025403
164	0x3dcb2575	0.09919254
165	0xc006c829	-2.1059668
166	0xbfdffed4	-1.7499642
167	0xbe40eef0	-0.18841147
168	0x3e5956a4	0.21224457
169	0xbad2c8bb	-0.0016081551
170	0xbe8abb8f	-0.2709622
171	0x3ea4f2ec	0.32216585
172	0xbe2ccfb4	-0.16876107
173	0xbe81b26e	-0.25331444
174	0x3e15abde	0.14616343
175	0xbda075ce	-0.078349695
176	0xbdb1b953	-0.08677926
177	0xbd902c8c	-0.07039747
178	0xbeafd1e2	-0.34339815
179	0xbd120b0b	-0.035655063
180	0xbda855fb	-0.082195245
181	0x3cb8b464	0.022546954
182	0xbc392f59	-0.0113027925
183	0x3ed46e4d	0.41490403
184	0xbf01e819	-0.5074478
185	0xbed0e39f	-0.4079866
186	0x3ecefb5e	0.40426153
187	0x3e3ed53b	0.18636028
188	0x3d82095c	0.063494414
189	0xbdde75f8	-0.108623445
190	0xbf3109cc	-0.69155574
191	0xbdcfb594	-0.10142055
192	0xbdc5cfb7	-0.09658759
193	0x3e943746	0.2894842
194	0x3e466dae	0.19377777
195	0x3d7192a9	0.058977757
196	0xbf2ffd79	-0.68746144
197	0x3efc8491	0.4931989
198	0x3dacd432	0.084389105
199	0xbe48f879	-0.19626035
200	0xbe69f0bc	-0.22845739
201	0x3d0209c5	0.0317476
202	0xbe0f5120	-0.1399579
203	0xbdb05f36	-0.0861191
204	0xbd1b5ee4	-0.03793229
205	0xbc240d42	-0.0100129265
206	0x3f69f70c	0.9139259
207	0xbe4a08c2	-0.19729903
208	0xbe002101	-0.1251259
209	0xbed45631	-0.4147201
210	0xbd211f9c	-0.039336786
211	0x3e7fd54e	0.24983713
212	0x3f290755	0.6602681
213	0x3e9e7ca6	0.30954474
214	0xbe7a782d	-0.24459906
215	0x3bca5a8e	0.0061753457
216	0xbef8463b	-0.48491082
217	0xbe204e9c	-0.15654987
218	0xbf4b9622	-0.7952596
219	0xbe82726b	-0.2547792
220	0x3e0b243a	0.13588038
221	0xbeeb3844	-0.45941365
222	0xbe9c2b18	-0.30501628
223	0xbed05f96	-0.40697926
224	0xbe93d81c	-0.28875816
225	0x3eaa2f86	0.33239383
226	0x3e71c0ec	0.2360875
227	0x3e80100b	0.2501224
228	0x3c6fdc0c	0.014639866
229	0xbda2a202	-0.07941057
230	0xbd4f22da	-0.050570346
231	0xbe8dd1c8	-0.27699113
232	0xbe267d22	-0.16258672
233	0xbe270769	-0.1631142
234	0x3c7dedff	0.015498637
235	0xbe7d3823	-0.24728446
236	0x3de4d392	0.11173166
237	0x3e0f5975	0.13998969
238	0x3d6394bd	0.05556177
239	0x3e90e6ca	0.28301078
240	0x3e3f299f	0.18668221
241	0x3e703702	0.23458484
242	0x3dcabd02	0.09899332
243	0xbd0677c2	-0.032829054
244	0x3e37bcd3	0.17943124
245	0xbeb315cc	-0.34977567
246	0x3e49239e	0.19642493
247	0x3e6bb31e	0.23017547
248	0x3e5ebbe6	0.21751365
249	0x3e8c06fb	0.27349076
250	0x3e5143a6	0.20435962
251	0xbdaa4481	-0.08313847
252	0xbd758f2f	-0.059951004
253	0x3d7e7b12	0.062129088
254	0xbe8e0806	-0.27740496
255	0xbdc008fd	-0.093767144

entry.bias f4 [256]
0	0xbe70514f	-0.23468517
1	0x3dc8849b	0.097909175
2	0xbe913bbf	-0.28365895
3	0xbe2025e2	-0.15639451
4	0x3e1759ea	0.14780393
5	0xbdd785b9	-0.105235524
6	0xbeaf3b21	-0.342248
7	0x3db5bb34	0.08873597
8	0xbdaa785f	-0.0832374
9	0x3e0f6259	0.1400236
10	0xbee99788	-0.45623422
11	0xbeb79fe7	-0.35864183
12	0xbf051448	-0.5198407
13	0xbea5b3eb	-0.3236383
14	0xbdc9d822	-0.09855677
15	0xbdba67aa	-0.091018036
16	0xbe83b711	-0.25725606
17	0x3f7421d0	0.95364094
18	0xbde388ce	-0.11110078
19	0x3e0ddc86	0.13853654
20	0xbeb17731	-0.34661248
21	0xbe83c267	-0.25734255
22	0xbdac620e	-0.0841714
23	0x3d5935b9	0.05302975
24	0xbe919496	-0.28433675
25	0x3e287d34	0.16454011
26	0x3d0be130	0.034150302
27	0xbec468a1	-0.38361076
28	0xbf1272e8	-0.57206583
29	0xbeba9c7b	-0.3644751
30	0x3e8393e9	0.25698784
31	0xbe9a63e4	-0.30154335
32	0xbe1400a1	-0.14453365
33	0xbd2be9a1	-0.041970853
34	0xbd9413b0	-0.072303176
35	0xbe0783b8	-0.1323384
36	0x3d90b991	0.07066644
37	0xbe4ab3cf	-0.19795154
38	0xbe83a692	-0.2571302
39	0xbddca6d3	-0.10774007
40	0xbeb726a4	-0.35771668
41	0x3ee5f9db	0.44917187
42	0x3bc17ab8	0.005904522
43	0xbead0665	-0.3379394
44	0xbe599261	-0.21247245
45	0xbee14464	-0.4399749
46	0xbd642854	-0.055702522
47	0xbea741af	-0.326673
48	0x3d512680	0.051062107
49	0x3d694802	0.056953438
50	0xbe6531ae	-0.22382233
51	0x3cd30089	0.025757091
52	0xbef33485	-0.47501007
53	0x3e53a560	0.20668554
54	0xb9cb024c	-0.0003872089
55	0xbe0d1828	-0.13778746
56	0xbe357410	-0.17720056
57	0xbd11463e	-0.03546738
58	0xbeaad378	-0.33364463
59	0x3e304687	0.17214404
60	0xbf0b4b2d	-0.54411584
61	0xbe5bd0f6	-0.21466431
62	0xbda736d1	-0.08164752
63	0xbe9b9e8e	-0.30394405
64	0xbeff4b87	-0.4986231
65	0xbde6a819	-0.11262531
66	0x3db67a2a	0.0891002
67	0xbe1fb76c	-0.15597314
68	0xbe9e2daa	-0.30894214
69	0xbe7651e4	-0.24054676
70	0xbcdf6e89	-0.027274387
71	0xbdd3fe9a	-0.10351296
72	0xbe2cf20b	-0.16889207
73	0xbacede00	-0.0015782714
74	0xbdc66ac4	-0.09688333
75	0xbe210bb4	-0.1572712
76	0x3dd1697e	0.10225199
77	0xbf0aefbe	-0.5427207
78	0xbdda1b5b	-0.10649749
79	0xbe82137d	-0.25405493
80	0x3d41b65d	0.047293056
81	0x3c0155c8	0.007893987
82	0xbd242968	-0.04007855
83	0xbe4ab5e3	-0.19795947
84	0xbdffdf9e	-0.124938235
85	0xbdc8dbbc	-0.09807536
86	0xbe08cf3c	-0.13360304
87	0xbedc828b	-0.43068346
88	0x3cd5a461	0.026079359
89	0xbe5099bf	-0.2037115
90	0xbd720df0	-0.059095323
91	0xbec215de	-0.37907308
92	0xbe896660	-0.26835918
93	0xbf078cae	-0.52949035
94	0x3e2ffd20	0.17186403
95	0xbdc870a0	-0.097871065
96	0x3e390ea9	0.18071999
97	0xbe9484ba	-0.29007512
98	0xbf08c938	-0.53432035
99	0xbece773c	-0.40325344
100	0xbebb0bc9	-0.3653243
101	0x3d5a0036	0.053222857
102	0x3ebfbafb	0.37447342
103	0xbd8cdc0c	-0.06877908
104	0xbc3259bf	-0.010885655
105	0xbec4e0a6	-0.38452643
106	0xbd0b4b14	-0.034007147
107	0xbe0ed527	-0.13948499
108	0x3d56f6d5	0.05248149
109	0x3e47a332	0.19495848
110	0xbec2feec	-0.38085115
111	0xbe4b02d2	-0.19825295
112	0xbe86d2bb	-0.2633265
113	0xbe98ac9e	-0.29819196
114	0xbeb31924	-0.34980118
115	0x3e262daa	0.16228357
116	0x3eb3295c	0.34992492
117	0xbea55f10	-0.3229909
118	0x3e1bafe4	0.15203816
119	0xbd1f52d3	-0.038897347
120	0x3dc6f4a7	0.097146325
121	0x3b5f03d1	0.0034029374
122	0x3e51e10a	0.20496002
123	0xbeee0e1f	-0.4649515
124	0xbe2df00c	-0.16986102
125	0xbe9c52d4	-0.30531943
126	0x3c6d8088	0.014495976
127	0xbe9e1c80	-0.3088112
128	0xbe7876ef	-0.2426412
129	0xbe0deec1	-0.13860609
130	0x3d52ff44	0.05151297
131	0xbe333a94	-0.17502815
132	0xbe38f390	-0.18061662
133	0x3d84f25d	0.064915396
134	0xbe23f3fc	-0.16011041
135	0x3c62ab18	0.013834737
136	0xbe9360b5	-0.2878472
137	0xbe67ef35	-0.22649844
138	0xbbc97a7f	-0.006148636
139	0xbd708711	-0.05872256
140	0x3d7aafc1	0.06120277
141	0x3db0b652	0.08628525
142	0xbe20311d	-0.15643735
143	0xbe1908d7	-0.14944778
144	0xbe0031bd	-0.12518974
145	0xbe89d72a	-0.2692197
146	0x3da15e6e	0.07879339
147	0xbe0a9170	-0.13532043
148	0xbeaa6bee	-0.3328547
149	0xbdce91e6	-0.10086422
150	0xbd4cd612	-0.05000884
151	0xbde967c8	-0.11396748
152	0xbd3326a8	-0.043738037
153	0x3e5941dd	0.21216531
154	0xbe9791fd	-0.29603568
155	0xbd666753	-0.05625088
156	0xbe9bf095	-0.30456987
157	0xbd79f285	-0.0610223
158	0x3e70986f	0.23495649
159	0x3e594af7	0.21220003
160	0xbe8b3cb2	-0.27194744
161	0x3dca4675	0.0987672
162	0x3d36a02f	0.044586357
163	0xbe75c0be	-0.23999307
164	0xbf29e88e	-0.66370475
165	0xbf0a6bd0	-0.5407076
166	0x3d9c1a09	0.07622153
167	0xbc9836fa	-0.018580902
168	0xbe8b89a6	-0.27253455
169	0xbca2e903	-0.0198865
170	0xbdd96c35	-0.10616342
171	0xbece420a	-0.4028476
172	0xbe558eae	-0.20855209
173	0xbe5bb3fa	-0.21455374
174	0x3e17ab50	0.14811444
175	0xbf079890	-0.52967167
176	0x3dd7bc3b	0.10533949
177	0xbdd03b8f	-0.1016761
178	0xbe297c16	-0.16551241
179	0x3de00885	0.10939125
180	0x3dfcb18a	0.123385504
181	0xbeaba42f	-0.335237
182	0xbe8679de	-0.26264852
183	0xbefdb2f2	-0.49550587
184	0x3e0a0bff	0.13481139
185	0xbe884a0c	-0.26618993
186	0x3d6057b1	0.05477113
187	0xbb7be643	-0.0038436807
188	0x3d9076e6	0.07053928
189	0x3df72f5c	0.1206958
190	0x3e75543e	0.23957917
191	0xbde2b134	-0.11068955
192	0x3e0cc7af	0.13748048
193	0x3d419025	0.047256608
194	0x3cd9f6ca	0.026606936
195	0x3e880ca3	0.2657214
196	0x3e7be984	0.24600798
197	0xbdea1de6	-0.11431484
198	0x3c48a13c	0.0122454725
199	0xbe76d244	-0.24103647
200	0x3d4225df	0.047399398
201	0x3d599811	0.053123537
202	0x3d88736f	0.06662642
203	0xbf14c110	-0.5810709
204	0xbe54e8e4	-0.20791966
205	0xbe01419f	-0.12622689
206	0x3e1efb25	0.15525492
207	0x3cee5714	0.029094256
208	0xbef5a268	-0.4797547
209	0xbdca49d8	-0.09877366
210	0xbe508ac7	-0.2036544
211	0x3decc936	0.115618154
212	0xbc45eff6	-0.012081137
213	0x3e5af186	0.21381196
214	0xbe5cfe46	-0.21581373
215	0x3d4e59a6	0.050378464
216	0xbe15bc31	-0.1462257
217	0xbe93951c	-0.288247
218	0xbec18ea8	-0.3780415
219	0xbe1f3c9e	-0.15550467
220	0xbe83657d	-0.25663367
221	0x3b80680d	0.003918654
222	0xbe61fc5f	-0.22068928
223	0xbe92055b	-0.2851971
224	0xbea27f5b	-0.3173779
225	0xbd2301c0	-0.03979659
226	0xbe861d18	-0.26194072
227	0x3dcce3a7	0.10004359
228	0xbdcad6d4	-0.099042565
229	0xbe51ad6b	-0.2047631
230	0x3d6daa4c	0.058023736
231	0x3dae5b96	0.085135624
232	0xbf06f955	-0.527242
233	0x3d90a1a1	0.07062078
234	0xbedc08ae	-0.42975372
235	0xbe7fbed1	-0.24975134
236	0xbe182c70	-0.14860702
237	0x3e14fb5e	0.14549014
238	0xbd9a43b6	-0.07532446
239	0xbdafb706	-0.08579831
240	0xbef35a8b	-0.47530016
241	0xbf1bdbce	-0.6088227
242	0xbe2f3b40	-0.17112446
243	0xbe25942a	-0.16169801
244	0x3d3d717a	0.046250798
245	0x3dce6899	0.10078544
246	0x3d27e726	0.040991925
247	0x3d80d562	0.062906995
248	0xbe66a815	-0.22525056
249	0xbca19981	-0.019726517
250	0xbc973548	-0.018458024
251	0x3d0782e8	0.033083826
252	0xbdb58adb	-0.08864375
253	0xbe374b6a	-0.17899862
254	0x3ceaa3df	0.028642593
255	0x3e0fc2e6	0.14039192

res_block1.fc.weight f4 [256, 256]
0	0xbe5541c2	-0.20825866
1	0x3ed2e3ea	0.4118951
2	0x3d22bc57	0.039730396
3	0xbe841310	-0.25795794
4	0x3e94aad6	0.29036587
5	0xbf0788f7	-0.52943367
6	0xbda0153b	-0.078165494
7	0xbdd192e4	-0.10233095
8	0x3e88af29	0.26696137
9	0x3e070cfd	0.13188548
10	0x3e88747e	0.26651376
11	0xbddd2119	-0.107973285
12	0xbe0961b0	-0.13416171
13	0x3d4ff998	0.05077514
14	0xbd44fa01	-0.048089985
15	0xbde07e76	-0.109616205
16	0x3db181a3	0.08667304
17	0x3edb772c	0.42864358
18	0x3e7f62fa	0.249401
19	0x3ed133b9	0.40859774
20	0xbd792e73	-0.060835313
21	0xbdbb5192	-0.09146418
22	0xbe8f2834	-0.2796036
23	0x3ec86fe8	0.39147878
24	0xbe93f6f3	-0.28899345
25	0x3e77a708	0.24184811
26	0x3e6f80d3	0.23388986
27	0x3e8ea249	0.2785819
28	0xbd5d021e	-0.053957097
29	0xbe02d31c	-0.12775844
30	0x3ed95dcb	0.4245437
31	0x3e234cf7	0.15947329
32	0xbe0766fd	-0.1322288
33	0x3e4a882d	0.1977851
34	0xbcf948a4	-0.030430146
35	0xbddf9d41	-0.10918666
36	0x3eb682b1	0.35646585
37	0xbe3936f2	-0.18087366
38	0x3e29681c	0.16543621
39	0x3bce229e	0.006290748
40	0xbd29fa14	-0.04149826
41	0x3efda07f	0.4953651
42	0x3db1e33c	0.0868592
43	0xbe3cb969	-0.18430103
44	0xbc6b7a32	-0.014372395
45	0xbda6cd79	-0.081446595
46	0xbbf69e21	-0.0075261747
47	0xbb6a3e1d	-0.0035742589
48	0x3f126804	0.57189965
49	0xbead46a2	-0.3384295
50	0xbd4733ea	-0.048633493
51	0x3d95e83b	0.07319685
52	0xbe7b54c2	-0.24544051
53	0x3e37a986	0.17935762
54	0xbde118f3	-0.10991087
55	0xbe42e2c8	-0.19031823
56	0xbe11814f	-0.14209484
57	0x3f04e34b	0.5190932
58	0xbe292b02	-0.16520312
59	0x3e8c7db7	0.27439663
60	0xbd07688b	-0.033058684
61	0xbe86aa9e	-0.26302046
62	0xbe566917	-0.20938526
63	0xbe7316e9	-0.23739208
64	0xbdf9852f	-0.12183606
65	0x3e15690b	0.14590852
66	0xbd64aa80	-0.055826664
67	0xbd8fa2ed	-0.070134975
68	0xbe10ff69	-0.14159931
69	0xbe73c71e	-0.23806426
70	0xbe377caa	-0.1791865
71	0x3d87961f	0.0662043
72	0x3e6ecaa5	0.2331949
73	0xbe6482ce	-0.22315523
74	0x3e35664a	0.17714801
75	0xbe3e5e36	-0.18590626
76	0xbdfe3c62	-0.12413861
77	0xbe934b24	-0.28768265
78	0xbd2e8275	-0.042604882
79	0xbdc73d7e	-0.097285256
80	0xbf552262	-0.8325559
81	0xbdf63afb	-0.120229684
82	0xbd9b007e	-0.07568453
83	0xbe65d86e	-0.22445843
84	0xbe4415dc	-0.19148964
85	0xbe2cf3c1	-0.1688986
86	0xbe1904c4	-0.14943224
87	0xbdd549b8	-0.10414451
88	0xbe841f37	-0.25805065
89	0xbbfbfb81	-0.0076898937
90	0x3e01e5ce	0.1268532
91	0xbdad5703	-0.08463862
92	0xbe9b0223	-0.30275068
93	0xbc98d89d	-0.018657977
94	0x3e08d34b	0.13361852
95	0x3e56d483	0.20979504
96	0x3cd3b47c	0.025842898
97	0x3e9472af	0.28993747
98	0xbe30ae50	-0.17253995
99	0xbe3601f8	-0.17774189
100	0xbe70e930	-0.23526454
101	0x3ea96a26	0.33088797
102	0xbd49c351	-0.049258534
103	0xbdb3c185	-0.08777145
104	0xbe458428	-0.19288695
105	0xbddb600a	-0.10711677
106	0xbdd78487	-0.105233245
107	0xbe5f5fa9	-0.21813835
108	0xba8aed12	-0.0010599217
109	0x3d506177	0.0508742
110	0xbe35044d	-0.17677422
111	0x3ea35c40	0.3190632
112	0x3e6e9a13	0.23300962
113	0xbdfc5b57	-0.12322109
114	0xbc939437	-0.01801501
115	0x3d6b3aed	0.057429243
116	0xbef12ce4	-0.4710456
117	0xbd9dd692	-0.07706942
118	0x3daaeb3a	0.08345647
119	0xbddde916	-0.10835473
120	0x3e73a599	0.23793639
121	0xbf941429	-1.1568652
122	0xbe41ee6f	-0.18938611
123	0xbe653cff	-0.2238655
124	0xbd980688	-0.07423121
125	0xbe51686c	-0.2044999
126	0x3ed57d74	0.41697276
127	0xbcf440f5	-0.02981613
128	0xbe975d52	-0.29563385
129	0xbe842867	-0.25812075
130	0xbe4ef7d2	-0.20211723
131	0xbe5190c6	-0.20465383
132	0xbe67f8d8	-0.2265352
133	0x3db7b7d8	0.08970612
134	0xbd907499	-0.07053489
135	0xbe096d77	-0.13420664
136	0xbda65128	-0.08120948
137	0xbe238ca6	-0.15971622
138	0x3e9952db	0.29946026
139	0xbcf0163d	-0.029307479
140	0x3cef0403	0.029176718
141	0x3dcd6d2b	0.10030588
142	0x3e928491	0.28616765
143	0xbd151192	-0.03639371
144	0xbdd96972	-0.10615815
145	0x3e30d3d1	0.17268302
146	0xbe034e06	-0.12822732
147	0xbe10081e	-0.14065596
148	0xbd815063	-0.06314161
149	0x3eb46e75	0.35240522
150	0xbdce3c99	-0.10070152
151	0xbd7718aa	-0.060326256
152	0x3e82fb05	0.25582138
153	0x3d8449f5	0.06459419
154	0x3e9775d1	0.29582074
155	0xbe01ca8b	-0.1267492
156	0xbe66ee6f	-0.22551893
157	0x3cf03fd7	0.029327316
158	0x3ee8065d	0.45317355
159	0x3d04c57b	0.032414895
160	0xbeaf35b9	-0.34220675
161	0x3e7cc753	0.24685411
162	0xbdacc46f	-0.08435904
163	0x3e725725	0.23666056
164	0x3d988b7b	0.07448479
165	0xbe283e47	-0.16430007
166	0xbdc5a64d	-0.0965086
167	0x3e511593	0.20418386
168	0x3d961f9c	0.07330248
169	0x3de2b528	0.11069709
170	0xbdcdde78	-0.10052198
171	0xbe72642b	-0.23671024
172	0x3ebefba7	0.3730137
173	0xbdfb107b	-0.12259003
174	0x3e509762	0.20370248
175	0xbdb6fdb0	-0.08935106
176	0x3f043ca0	0.51655006
177	0xbd7624d8	-0.06009373
178	0xbdff7fc2	-0.1247554
179	0x3e69ceec	0.2283284
180	0x3e370c24	0.17875725
181	0xbdf6559e	-0.12028049
182	0x3d5a8eb3	0.053358745
183	0xbe47366c	-0.19454354
184	0x3deef4fa	0.11667819
185	0xbe8ecf2b	-0.27892432
186	0xbc6b1fe7	-0.014350868
187	0x3e0655b3	0.13118629
188	0xbdda5dab	-0.10662397
189	0xbda995f6	-0.08280556
190	0x3f2730cb	0.6530883
191	0xbcc70dfa	-0.024298657
192	0xbd0085ee	-0.031377725
193	0xbe1cf30a	-0.15327087
194	0x3de8faeb	0.11375984
195	0x3eb01f2e	0.34398788
196	0x3e8b256c	0.27176988
197	0x3e71220a	0.23548141
198	0x3d656661	0.05600584
199	0xbdf8827a	-0.121342614
200	0xbde362f7	-0.111028604
201	0xbe7c0d7c	-0.24614519
202	0x3dce2361	0.10065342
203	0xbe39b74f	-0.18136333
204	0x3ce6009e	0.028076466
205	0x3e74220e	0.23841116
206	0x3cae2fea	0.021263082
207	0x3d9d495f	0.0768001
208	0xbe536c2f	-0.20646738
209	0xbe4c5192	-0.19952992
210	0xbe29f610	-0.16597772
211	0x3df57051	0.11984313
212	0x3ec344af	0.3813834
213	0xbe9dc3ec	-0.3081354
214	0x3e389151	0.18024184
215	0xbe71d73c	-0.23617262
216	0xbe6ded6b	-0.23235099
217	0x3a825ef3	0.000994651
218	0xbde43f02	-0.1114483
219	0xbe6ad0fc	-0.22931284
220	0xbc2f9437	-0.0107164895
221	0x3dd6fd6f	0.10497557
222	0x3cbf2749	0.023334162
223	0x3e9d2b0a	0.306969
224	0xbdc52015	-0.0962526
225	0xbe1d3574	-0.15352422
226	0xbcadaaf5	-0.021199683
227	0xbd8ee6fe	-0.06977652
228	0xbd204ef7	-0.039137807
229	0x3e72f01e	0.2372441
230	0xbe84e2cc	-0.25954282
231	0xbe89bb37	-0.26900646
232	0xbe988c9b	-0.29794773
233	0x3dfda4cc	0.12384948
234	0xbe4dcff0	-0.20098853
235	0xbf4b0035	-0.7929719
236	0xbd75ed9d	-0.06004106
237	0xbd937832	-0.0720066
238	0x3e9c81bd	0.30567732
239	0xbe626b2f	-0.221112
240	0xbe413ece	-0.18871614
241	0xbe4cb8ed	-0.19992419
242	0xbe5c5972	-0.21518496
243	0xbe9dcaa9	-0.3081868
244	0x3e0dd11f	0.13849305
245	0xbd8bcee2	-0.06826569
246	0x3c9dd8fd	0.019268507
247	0xbe0dce0f	-0.13848136
248	0xbdfb7013	-0.12277236
249	0xbe4f870d	-0.20266362
250	0xbacb2d56	-0.0015501182
251	0x3e9184f3	0.28421745
252	0x3e260348	0.16212189
253	0xbe29154b	-0.16512029
254	0x3da95f17	0.0827009
255	0xbe6bfbdd	-0.23045297

res_block1.fc.bias f4 [256]
0	0xbf106fde	-0.56420696
1	0x3d58ffda	0.052978374
2	0x3f38e270	0.72220516
3	0x3f2deb7f	0.67937464
4	0xbee0a716	-0.43877476
5	0x3f074547	0.52840084
6	0x3db0da9b	0.08635446
7	0x3e31a2a5	0.173472
8	0xbe024b3b	-0.1272401
9	0xbeca7963	-0.39545736
10	0x3e271dd6	0.16319975
11	0x3ea6a26c	0.32545793
12	0xbd77d647	-0.060507085
13	0x3eb1289a	0.3460129
14	0x3db9d583	0.09073927
15	0x3ec022b3	0.37526473
16	0x3f442394	0.7661679
17	0xbdf352fb	-0.11881062
18	0xbdfec035	-0.12439004
19	0x3e87f53f	0.26554295
20	0x3ec321c7	0.38111708
21	0xbe8950b7	-0.26819393
22	0xbebf2008	-0.37329125
23	0x3ece1f99	0.40258482
24	0x3e78b30a	0.24287048
25	0xbd975ce0	-0.073907614
26	0x3ed76e05	0.42076126
27	0xbea4797a	-0.3212393
28	0xbebf6c13	-0.37387142
29	0xbcf67945	-0.030087123
30	0x3ec3ec7c	0.3826636
31	0xbc6ba76b	-0.014383177
32	0x3df7d470	0.12101066
33	0x3ed39538	0.41324782
34	0x3d9cc481	0.07654668
35	0xbf105e64	-0.5639403
36	0x3ef11562	0.47086626
37	0xbd89a499	-0.06720848
38	0x3e869a84	0.2628976
39	0x3ebf93f2	0.3741756
40	0x3f0fe953	0.562154
41	0xbd939b62	-0.07207371
42	0x3c056b57	0.008143268
43	0x3e8db730	0.27678823
44	0x3eefe0a3	0.46851072
45	0xbe20eae9	-0.15714611
46	0xbec37606	-0.38175982
47	0x3f208ec9	0.6271787
48	0x3ec38ea6	0.3819477
49	0x3ee0d850	0.43915033
50	0x3ecace0e	0.39610332
51	0x3e384fc5	0.1799918
52	0x3e8b2bfe	0.27182
53	0x3e8a7dde	0.27049154
54	0x3e329acf	0.17441867
55	0x3dd230e1	0.10263229
56	0x3d868342	0.06568004
57	0x3d9da83a	0.07698102
58	0xbe868d08	-0.26279473
59	0x3da444c7	0.08020931
60	0x3f326df1	0.6969901
61	0x3e88cb15	0.2671744
62	0xbdcbcf8c	-0.09951696
63	0x3ed31d26	0.41233176
64	0xbe579c2f	-0.21055673
65	0x3f0497e5	0.5179427
66	0x3f15eead	0.58567315
67	0x3e968d0f	0.29404494
68	0x3e094738	0.13406074
69	0xbe8ae674	-0.27128947
70	0x3f1f2882	0.62171185
71	0x3f404a12	0.7511302
72	0x3eb5e4e6	0.35526198
73	0x3ed4375a	0.4144848
74	0xbe056239	-0.1302575
75	0x3f14fb7b	0.5819623
76	0xbf71e001	-0.9448243
77	0xbe9bcbb0	-0.3042884
78	0x3e722078	0.23645198
79	0x3f0b4a00	0.5440979
80	0x3d149366	0.036273383
81	0x3f09209f	0.535654
82	0x3f2416cd	0.6409729
83	0xbebe0cdb	-0.37119183
84	0x3f154fcf	0.58324903
85	0x3f6a46bf	0.915142
86	0x3eb5ea7a	0.35530454
87	0x3e895d61	0.26829055
88	0x3d0e8b17	0.034800615
89	0x3f1a45cf	0.6026277
90	0x3f0c77f8	0.5487056
91	0x3ead18e8	0.33808064
92	0x3eb3593d	0.3502902
93	0xbeb12095	-0.3459517
94	0xbeb67471	-0.35635713
95	0xbf46d5a5	-0.77669746
96	0x3f001f2c	0.50047565
97	0xbbe4fdf8	-0.0069882832
98	0xbe9f6696	-0.31132954
99	0xbef7a500	-0.48368073
100	0xbf0cdf51	-0.55028254
101	0x3e377ff7	0.17919908
102	0x3dc8ecc3	0.09810784
103	0x3f1759d0	0.5912142
104	0xbf24ca74	-0.6437142
105	0x3f1b1a78	0.60587263
106	0x3f134846	0.57532156
107	0x3eba71b2	0.36414868
108	0x3f03eb23	0.51530665
109	0xbe06aa5f	-0.13150929
110	0x3efa77d3	0.48919544
111	0x3d8db947	0.069201045
112	0x3daac77a	0.083388284
113	0x3ec7911a	0.3897789
114	0x3f339bfb	0.7015988
115	0xbe5a9102	-0.21344379
116	0x3eff054a	0.49808723
117	0x3ee9e600	0.4568329
118	0x3f6b73fd	0.9197386
119	0x3ecf17e0	0.40447903
120	0xbe031fbf	-0.12805079
121	0x3d1c356e	0.038136892
122	0xbeb1e5ad	-0.3474554
123	0xbf043652	-0.51645386
124	0x3ece2849	0.4026511
125	0x3ee7e4b0	0.45291662
126	0x3e9839cc	0.29731596
127	0x3f0d8386	0.55278814
128	0xbe9d8d97	-0.30772087
129	0x3ee8c704	0.45464337
130	0x3f141e07	0.5785832
131	0x3e71d761	0.23617317
132	0x3e31c52b	0.1736037
133	0x3e7dbc14	0.24778777
134	0x3eab4c8c	0.33456838
135	0x3ecf6d12	0.40512902
136	0x3e5a2fa1	0.21307231
137	0x3e538f9a	0.20660248
138	0x3ead8131	0.33887628
139	0xbeef760e	-0.46769756
140	0x3e2a6f42	0.16644004
141	0xbbbe08e3	-0.005799399
142	0xbcf3920e	-0.02973273
143	0xbdc457d5	-0.09587065
144	0x3ea0f279	0.31434992
145	0x3db034a4	0.086037904
146	0x3f25dfde	0.6479472
147	0x3dc01e7d	0.09380815
148	0xbd7a64c0	-0.06113124
149	0x3ea48149	0.32129887
150	0xbebbbf9e	-0.3666963
151	0x3f1c0180	0.6093979
152	0xbf093cd9	-0.5360847
153	0xbedd339b	-0.43203434
154	0xbd71b88a	-0.05901388
155	0x3f23086b	0.6368472
156	0x3e4e9430	0.20173717
157	0x3e9def15	0.30846468
158	0x3efa66d2	0.4890657
159	0x3e9c80a9	0.3056691
160	0xbe4fcffe	-0.20294186
161	0x3ef01797	0.46892998
162	0x3dc8db93	0.098075055
163	0x3e9047f7	0.28179905
164	0xbe0bd7e7	-0.13656579
165	0xbe975cc1	-0.29562953
166	0x3edc8bf4	0.43075526
167	0xbe5d3881	-0.21603586
168	0x3e3e2843	0.18570046
169	0xbe865e64	-0.2624389
170	0x3f2d4fb8	0.67699766
171	0xbebc3b40	-0.36763954
172	0xbdfad626	-0.12247877
173	0x3db3de8c	0.08782682
174	0xbe043d42	-0.12913993
175	0x3f0da286	0.55326116
176	0x3e7b4dc2	0.24541381
177	0x3eb35a20	0.35029697
178	0x3adc3104	0.0016799276
179	0xbe8e96c5	-0.27849403
180	0x3ddc70bd	0.107636906
181	0x3d20a66c	0.039221212
182	0x3e21fc06	0.15818796
183	0x3c6b9e5d	0.0143810185
184	0x3c4e6880	0.012598157
185	0xbf076e89	-0.5290304
186	0x3e2c6dc1	0.16838743
187	0xbe63bdd9	-0.2224039
188	0x3df8236a	0.1211613
189	0x3e4d0bb9	0.20024003
190	0x3dc6a00d	0.09698496
191	0x3f0350e6	0.51295316
192	0x3f0c9693	0.5491726
193	0x3eb9a6ee	0.3626017
194	0x3f1394ce	0.5764893
195	0x3f014cf5	0.5050805
196	0x3eafa410	0.34304857
197	0x3f0552b7	0.5207934
198	0xbebe3c7a	-0.37155515
199	0x3ed55d0a	0.41672546
200	0x3e9a1768	0.30095983
201	0x3e46df65	0.19421156
202	0xbee2517b	-0.4420279
203	0x3df2105d	0.11819527
204	0xbc207389	-0.009793171
205	0x3ea0fb74	0.31441844
206	0x3cfcdbf3	0.030866599
207	0x3d2af0fa	0.04173372
208	0xbe3ebd1a	-0.18626824
209	0x3ea9d42a	0.3316968
210	0x3e127a8c	0.1430456
211	0xbe1e07e2	-0.15432695
212	0x3f1104e9	0.5664812
213	0xbe4453b1	-0.1917255
214	0xbeed08b5	-0.46295705
215	0x3ebf0d52	0.3731485
216	0xbf0279f4	-0.50967336
217	0x3ed64de8	0.41856313
218	0x3ec76589	0.38944653
219	0x3eadf5c7	0.33976576
220	0xbdd8071b	-0.1054823
221	0x3dc6f522	0.09714724
222	0x3bfc5479	0.0077004996
223	0x3f1a527d	0.6028212
224	0x3e721aec	0.23643082
225	0x3eed89c0	0.46394157
226	0x3c862e4d	0.0163795
227	0x3e5675b8	0.20943344
228	0x3f22a1f8	0.63528395
229	0x3d986b4b	0.074423395
230	0x3f079f64	0.52977586
231	0x3ea1b8a9	0.31586197
232	0xbe29b720	-0.16573763
233	0xbf00e401	-0.50347906
234	0xbe849716	-0.2589652
235	0x3eb13eee	0.34618324
236	0x3d1310d1	0.03590471
237	0x3e8a638d	0.27029076
238	0xbec3aed8	-0.38219333
239	0xbe1ee163	-0.15515666
240	0x3eca6026	0.3952648
241	0xbf12dcdb	-0.5736825
242	0x3ea2f1cd	0.31825104
243	0x3e68f589	0.22749914
244	0xbe39b72f	-0.18136285
245	0x3e187616	0.14888796
246	0x3eaec801	0.34136966
247	0xbf3006e6	-0.68760526
248	0x3e27ec46	0.16398725
249	0x3ead0128	0.33789945
250	0x3f111e1c	0.5668657
251	0x3f233c56	0.6376394
252	0x3e1ac8ea	0.15115705
253	0x3f0c13c4	0.5471766
254	0xbdab7745	-0.08372358
255	0xbe78e7f0	-0.24307227

res_block1.ln.weight f4 [256]
0	0x3f53a8bc	0.82679343
1	0x3f36f288	0.71463823
2	0x3ed39a3b	0.41328606
3	0x3ef582c0	0.47951317
4	0x3f972e1e	1.1810949
5	0x3f21290b	0.6295325
6	0x3f8c21bd	1.0947796
7	0x3f8455a7	1.0338639
8	0x3f8e92ca	1.1138546
9	0x3f4a70e6	0.7907852
10	0x3f0a1eef	0.5395345
11	0x3ed5019c	0.4160279
12	0x3f5ecf59	0.8703514
13	0x3f399151	0.7248736
14	0x3f0f031a	0.5586411
15	0x3f028583	0.5098497
16	0x3f311ff1	0.69189364
17	0x3f415b61	0.7553006
18	0x3f8a1253	1.0786842
19	0x3f23bcef	0.63960165
20	0x3f78cf38	0.9719119
21	0x3fbef8a2	1.4919627
22	0x3fa9ae5a	1.3256333
23	0x3f460c0a	0.7736212
24	0x3f9bafa1	1.2162973
25	0x3f381591	0.7190791
26	0x3f7564f2	0.95857155
27	0x3f631e45	0.8871806
28	0x3fa785e1	1.3087732
29	0x3f4fa93a	0.81117594
30	0x3f29df67	0.6635651
31	0x3f46248e	0.7739953
32	0x3f580e23	0.8439657
33	0x3f208096	0.62696207
34	0x3ed88559	0.42289236
35	0x3f8ea466	1.114392
36	0x3f1ba096	0.6079191
37	0x3f74c9a6	0.9562019
38	0x3f3f327f	0.74686426
39	0x3f633921	0.88759047
40	0x3f6cccfc	0.9250028
41	0x3f54e93f	0.83168405
42	0x3f1041bb	0.56350297
43	0x3f4b979d	0.7952822
44	0x3f3a4589	0.7276235
45	0x3f830e9d	1.0238835
46	0x3f215816	0.63025033
47	0x3f75bc78	0.95990705
48	0x3f4a82cd	0.79105836
49	0x3f76af25	0.96361
50	0x3f21d87f	0.6322097
51	0x3f5de277	0.8667368
52	0x3f27d1c8	0.65554476
53	0x3f34bdaa	0.70601904
54	0x3f03546f	0.5130071
55	0x3f6d4596	0.92684305
56	0x3f5e9100	0.8694
57	0x3f4a6c8e	0.7907189
58	0x3f86f813	1.0544456
59	0x3f43ce52	0.76486695
60	0x3f8ee1bb	1.1162637
61	0x3f76a033	0.96338195
62	0x3fab29b1	1.3372098
63	0x3f41fa3d	0.7577246
64	0x3f746066	0.9545959
65	0x3f813c4e	1.0096529
66	0x3f90b88e	1.1306322
67	0x3f11812a	0.56837714
68	0x3f843c53	1.033091
69	0x3f74bd9e	0.9560183
70	0x3f164129	0.58693177
71	0x3f04c999	0.51870114
72	0x3ebef1de	0.37293905
73	0x3f9e3ab4	1.2361665
74	0x3f3898d5	0.72108203
75	0x3eeca983	0.46223077
76	0x3f873d32	1.056555
77	0x3f424581	0.75887305
78	0x3f0e8e44	0.5568583
79	0x3ed42771	0.4143634
80	0x3f9a3d46	1.2049949
81	0x3f178bf1	0.5919791
82	0x3f2b66e6	0.66953886
83	0x3fc143cf	1.5098819
84	0x3f16a762	0.58849156
85	0x3f3a6689	0.72812706
86	0x3f3676cd	0.71275026
87	0x3f83e5f0	1.0304546
88	0x3f0e0161	0.55470854
89	0x3f0ef812	0.55847275
90	0x3f978783	1.183823
91	0x3f7813f5	0.9690545
92	0x3f7b919c	0.9826906
93	0x3faa3ef8	1.3300467
94	0x3f96a0bf	1.1767806
95	0x3fa5ca7e	1.2952421
96	0x3efb92fa	0.49135572
97	0x3f7698af	0.96326727
98	0x3f5eeed4	0.8708317
99	0x3fb0a08b	1.3798994
100	0x3fb4e8dd	1.4133564
101	0x3f198aa5	0.5997718
102	0x3f8bff23	1.0937237
103	0x3f1758da	0.5911995
104	0x3f95b19b	1.1694826
105	0x3f38e934	0.7223084
106	0x3f271f6e	0.6528233
107	0x3f2aa7b1	0.66662127
108	0x3f95971e	1.1686742
109	0x3f5674db	0.8377206
110	0x3f598541	0.84968954
111	0x3f2a017c	0.66408515
112	0x3f5eab98	0.8698058
113	0x3f107aeb	0.5643756
114	0x3f1d8f62	0.6154691
115	0x3f3e48e6	0.74329984
116	0x3f2d7161	0.6775113
117	0x3f6267c3	0.8843958
118	0x3f048515	0.5176557
119	0x3f44c5ea	0.7686449
120	0x3f332679	0.6998058
121	0x3f6dca93	0.9288723
122	0x3f8fb7d7	1.1227978
123	0x3fa4a86c	1.2863898
124	0x3f7a3f97	0.9775328
125	0x3f8e43f4	1.1114488
126	0x3f177428	0.59161615
127	0x3f49828d	0.7871483
128	0x3f2b5b4f	0.669362
129	0x3ef78472	0.48343235
130	0x3f00ac0e	0.50262535
131	0x3f3ace4f	0.7297105
132	0x3f8e5005	1.111817
133	0x3f64f5d3	0.894376
134	0x3f104bda	0.5636574
135	0x3f4e79cc	0.806546
136	0x3f52ec63	0.8239195
137	0x3f41dad0	0.75724506
138	0x3f642e59	0.8913322
139	0x3f25e5f1	0.6480399
140	0x3f27ca90	0.6554346
141	0x3f36555c	0.71224
142	0x3f6be180	0.9214096
143	0x3f2089db	0.6271035
144	0x3f9b5683	1.2135776
145	0x3f25db6a	0.64787924
146	0x3ec6cbc3	0.38827333
147	0x3f1b21e3	0.6059858
148	0x3f86a859	1.0520126
149	0x3f2a9a5e	0.66641796
150	0x3f9eff1f	1.2421607
151	0x3f070a34	0.52749944
152	0x3faf2178	1.3682089
153	0x3eeae96f	0.4588122
154	0x3f283ad6	0.65714777
155	0x3e4869ef	0.1957166
156	0x3f77f9d6	0.96865594
157	0x3f108ecb	0.56467885
158	0x3f4977b6	0.7869829
159	0x3f35f5e6	0.71078336
160	0x3f5ba19b	0.85793465
161	0x3f030e2c	0.511935
162	0x3f102de4	0.56320024
163	0x3f407d2a	0.75190985
164	0x3f560ad2	0.8361026
165	0x3f86c6c2	1.0529406
166	0x3ee349b7	0.44392177
167	0x3f3f368a	0.74692595
168	0x3f44404e	0.7666062
169	0x3f79dfb2	0.97606957
170	0x3f05ca6a	0.52261984
171	0x3f7521f0	0.9575491
172	0x3ebadf01	0.36498263
173	0x3f10812c	0.564471
174	0x3f845dea	1.034116
175	0x3f80eab2	1.0071623
176	0x3f43d49a	0.7649628
177	0x3f8f0d58	1.1175947
178	0x3f8cacd7	1.0990247
179	0x3eded7d9	0.43524054
180	0x3f480b9f	0.7814273
181	0x3f6ee974	0.9332497
182	0x3f18babc	0.59659934
183	0x3faa9e09	1.3329479
184	0x3f9655f2	1.1744978
185	0x3fba08d3	1.4533943
186	0x3f2d72a4	0.6775305
187	0x3f36043a	0.711002
188	0x3f521bc1	0.820736
189	0x3f98dee3	1.194302
190	0x3f2b1c76	0.668403
191	0x3f14ce62	0.58127415
192	0x3f05db3e	0.5228766
193	0x3f03ac87	0.5143513
194	0x3f43658e	0.76326835
195	0x3f0ff03f	0.5622596
196	0x3f9fc2c5	1.2481314
197	0x3f1c3a36	0.6102632
198	0x3f8fa73f	1.1222914
199	0x3f67273d	0.9029425
200	0x3f0673c3	0.5252039
201	0x3f052d5a	0.52022326
202	0x3f78d1bd	0.97195035
203	0x3f2fba6c	0.6864383
204	0x3f49261f	0.78573793
205	0x3eeb53a1	0.4596224
206	0x3f1ecfb8	0.62035704
207	0x3f0f1b5f	0.5590114
208	0x3f879013	1.0590843
209	0x3f4f99f7	0.81094307
210	0x3fa0e237	1.2569035
211	0x3fa6bb64	1.3025937
212	0x3eff2fa2	0.49841028
213	0x3f3f6135	0.747577
214	0x3f9c2278	1.2198019
215	0x3f1f5538	0.6223941
216	0x3f9813b5	1.1881014
217	0x3f493264	0.78592515
218	0x3f6bc175	0.92092067
219	0x3f4c9a98	0.7992339
220	0x3f32d27f	0.6985244
221	0x3f038415	0.51373416
222	0x3f3571d5	0.7087682
223	0x3f80b892	1.0056326
224	0x3f29090d	0.66029435
225	0x3ef687c4	0.48150456
226	0x3fa72ff0	1.3061504
227	0x3f16d3bf	0.5891685
228	0x3f57dc91	0.8432093
229	0x3f2068e8	0.62660074
230	0x3f397a5a	0.7245232
231	0x3f45d2a9	0.77274567
232	0x3f4db178	0.8034892
233	0x3fa28cc0	1.2699203
234	0x3faeac7e	1.364639
235	0x3f9a5a55	1.2058817
236	0x3f6f1e80	0.93405914
237	0x3f870936	1.0549686
238	0x3f3050ad	0.688731
239	0x3f8d9aa8	1.1062822
240	0x3edcb6f3	0.4310833
241	0x3fa47fa6	1.2851455
242	0x3f514c35	0.8175691
243	0x3fb22a21	1.3919107
244	0x3f81f9e0	1.0154381
245	0x3f53f854	0.82800794
246	0x3f80cdda	1.0062821
247	0x3fa01103	1.2505192
248	0x3f58cf14	0.84690976
249	0x3f455e34	0.7709687
250	0x3f690f61	0.9103909
251	0x3f774be1	0.9660016
252	0x3f5b2803	0.8560793
253	0x3f294af6	0.66130006
254	0x3f86f3b8	1.0543127
255	0x3f42dd1e	0.7611865

res_block1.ln.bias f4 [256]
0	0xbdfd5f3d	-0.12371681
1	0xbdc73a20	-0.09727883
2	0xbeffbdc3	-0.49949464
3	0xbe7c34b5	-0.24629481
4	0xbf132cac	-0.5749004
5	0xbece0bb4	-0.40243304
6	0xbe3e8976	-0.18607125
7	0x3d911eb1	0.07085932
8	0xbeb43785	-0.35198608
9	0xbecd438d	-0.400906
10	0xbe2ee41e	-0.17079207
11	0xbe1ebd2c	-0.15501851
12	0xbe96ac87	-0.29428503
13	0xbed65e51	-0.41868833
14	0xbea2cf19	-0.31798628
15	0xbe31d152	-0.17365006
16	0x3c8714f5	0.016489485
17	0xbdb1326f	-0.086521976
18	0xbeee6e13	-0.46568355
19	0xbe03fa0a	-0.12888351
20	0xbf0f0f92	-0.55883133
21	0xbeb91da3	-0.36155424
22	0xbe898020	-0.26855564
23	0xbd9ce2d9	-0.07660455
24	0xbedd2e62	-0.4319945
25	0xbe464f7c	-0.19366258
26	0x3d8f2841	0.069901
27	0xbe8075e5	-0.25089946
28	0xbedc5020	-0.4302988
29	0xbec8c059	-0.3920925
30	0xbe63cf6a	-0.22247091
31	0xbc879c34	-0.016553976
32	0xbdbfdec9	-0.09368665
33	0xbe0751d5	-0.1321481
34	0xbe750a23	-0.23929648
35	0xbee0bc08	-0.43893456
36	0xbe8322fb	-0.25612625
37	0xbeef7d1b	-0.46775135
38	0xbd8a6bbf	-0.06758832
39	0xbead4e72	-0.33848912
40	0xbe9720f6	-0.29517335
41	0xbdd07632	-0.10178794
42	0xbebccc96	-0.36874837
43	0xbef3187d	-0.4747962
44	0xbead937a	-0.33901578
45	0xbf1850e2	-0.5949842
46	0xbeb479e5	-0.35249248
47	0xbeb2cec9	-0.3492339
48	0xbe3350c8	-0.17511284
49	0xbdb152b5	-0.08658353
50	0xbe2c9eb0	-0.1685741
51	0xbda10aac	-0.078633636
52	0xbf02fd58	-0.5116782
53	0xbdfe5d08	-0.12420088
54	0xbeacb877	-0.33734486
55	0xbec7acf6	-0.38999146
56	0xbd736fad	-0.059432674
57	0xbe89c176	-0.2690541
58	0xbe9898c3	-0.29804048
59	0xbd6b6718	-0.057471365
60	0xbccc00ce	-0.024902727
61	0xbe945fff	-0.2897949
62	0xbe5dcfc0	-0.21661282
63	0x3db334e9	0.08750326
64	0xbe63303f	-0.22186373
65	0x3d1882d0	0.037234128
66	0xbda3a1c2	-0.07989837
67	0xbe536953	-0.20645647
68	0xbe4c6271	-0.19959427
69	0xbed53329	-0.41640595
70	0xbe2dea00	-0.16983795
71	0xbe3e379e	-0.18575904
72	0xbed30750	-0.41216516
73	0xbe9656ac	-0.29363
74	0xbea735b0	-0.32658148
75	0xbda3018c	-0.079592794
76	0xbebdc12b	-0.37061438
77	0xbe770412	-0.24122646
78	0xbc743e35	-0.014907409
79	0xbd8e5221	-0.069492586
80	0xbf1214f5	-0.5706323
81	0xbe0bef89	-0.13665594
82	0xbe18a43f	-0.14906405
83	0xbee14699	-0.43999174
84	0x3d578a3c	0.052622065
85	0xbe0aa78b	-0.13540475
86	0xbd24826c	-0.040163442
87	0xbe4946bc	-0.1965589
88	0xbe7b4733	-0.24538879
89	0xbf03d04d	-0.51489717
90	0x3e2ef05d	0.17083879
91	0xbdbb8fe7	-0.091583066
92	0xbe73d52a	-0.23811784
93	0xbf075526	-0.528643
94	0xbeb66c54	-0.35629523
95	0xbf179078	-0.59204817
96	0xbc12d8aa	-0.00896279
97	0xbe186c76	-0.14885125
98	0xbe98bbe4	-0.2983085
99	0xbf00a233	-0.50247496
100	0xbef7a67e	-0.4836921
101	0xbe384197	-0.1799377
102	0x3df893ff	0.12137603
103	0x3d4b288e	0.049599223
104	0xbeef1909	-0.46698788
105	0xbebd054e	-0.3691811
106	0xbecfbf12	-0.40575463
107	0x3d8254cf	0.06363832
108	0x3e8ce390	0.27517366
109	0xbe9727c8	-0.29522538
110	0xbe86f4cb	-0.26358637
111	0xbe78603e	-0.24255463
112	0xbd3ff1b3	-0.04686136
113	0xbe3a1344	-0.18171412
114	0xbe9f4328	-0.31105924
115	0xbe969b1d	-0.29415217
116	0xbe94d7ad	-0.29070798
117	0xbe854c37	-0.2603471
118	0xbe8dbd13	-0.27683315
119	0xbeef4ec3	-0.46739778
120	0xbef5210b	-0.47876772
121	0xbe1db1b8	-0.15399826
122	0xbe95eae4	-0.2928077
123	0xbeebc215	-0.4604651
124	0x3d4f3d5e	0.050595634
125	0xbecad876	-0.39618272
126	0xbed424c1	-0.4143429
127	0xbe0e5c8a	-0.13902488
128	0xbe92c893	-0.2866865
129	0xbe09d2b6	-0.13459286
130	0xbe0f1b8f	-0.13975357
131	0xbe722958	-0.23648584
132	0xbea98485	-0.33108917
133	0xbd59ea2f	-0.05320185
134	0xbe7ed134	-0.24884492
135	0xbee95d2f	-0.45578906
136	0xbee88084	-0.4541055
137	0xbde28edb	-0.11062404
138	0xbec59e38	-0.38597274
139	0x3e88fe55	0.2675654
140	0xbef7e0b8	-0.48413634
141	0xbe467dec	-0.19383973
142	0xbedc9ee6	-0.4308998
143	0xbf021b99	-0.5082336
144	0xbec6a15c	-0.38794982
145	0x3d49f912	0.049309798
146	0xbee42bbe	-0.44564623
147	0xbef429dd	-0.4768819
148	0xbe1b1aa2	-0.15146878
149	0xbda4e0ef	-0.08050715
150	0xbf0c8ade	-0.54899395
151	0xbea76ddf	-0.32701012
152	0xbf276bd1	-0.6539889
153	0xbec22093	-0.37915477
154	0xbe22e762	-0.15908578
155	0xbcb5af24	-0.02217824
156	0xbe91e335	-0.28493658
157	0xbdd6cff8	-0.10488886
158	0xbe33323e	-0.17499635
159	0xbe911626	-0.2833721
160	0xbecafc60	-0.39645672
161	0xbe2f9152	-0.17145279
162	0xbe24497c	-0.16043657
163	0xbd8473be	-0.064673886
164	0xbf10d184	-0.56569695
165	0xbea7c9aa	-0.32771045
166	0xbca74157	-0.020416899
167	0xbe840e6c	-0.25792253
168	0xbe7a9d04	-0.24473959
169	0xbe90e3b4	-0.28298724
170	0x3c2ba8bd	0.010477242
171	0xbec3880e	-0.3818974
172	0xbe4a7263	-0.19770198
173	0xbdf26ce3	-0.11837175
174	0xbeabe910	-0.3357625
175	0xbf241f8e	-0.6411065
176	0xbe301c4a	-0.17198291
177	0xbf0daf80	-0.55345917
178	0xbed50c5b	-0.4161099
179	0xbe4563c1	-0.19276334
180	0xbe70b818	-0.23507726
181	0xbe8eb4c5	-0.2787229
182	0xbe84ca5b	-0.25935635
183	0xbe96a5e2	-0.29423434
184	0xbe40709d	-0.18792959
185	0xbecea927	-0.40363428
186	0xbda70168	-0.08154565
187	0xbeca017b	-0.39454255
188	0x3d4a3f49	0.04937676
189	0xbebcbbdf	-0.36862084
190	0xbe857aa8	-0.26070142
191	0x3dac6bf4	0.08419028
192	0xbedd7c18	-0.4325874
193	0xbe345af9	-0.17612828
194	0xbdc6fcfd	-0.097162224
195	0xbe10b409	-0.14131178
196	0x3e16d47d	0.14729495
197	0xbeb5e213	-0.35524043
198	0xbf151692	-0.58237565
199	0xbe5a4891	-0.21316744
200	0xbe2bdc52	-0.16783264
201	0xbf083fd4	-0.53222394
202	0xbef1382b	-0.47113165
203	0xbeb03a11	-0.344193
204	0xbe0618ad	-0.1309535
205	0xbde82d72	-0.11336793
206	0xbdabfe95	-0.08398167
207	0xbe91950d	-0.2843403
208	0xbeefa960	-0.4680891
209	0xbeae51d8	-0.34046817
210	0xbedd5e1e	-0.43235868
211	0xbf045612	-0.5169383
212	0xbf079f6c	-0.52977633
213	0xbda140d0	-0.0787369
214	0xbecdc1e8	-0.40187
215	0xbea77cff	-0.32712552
216	0xbd7634bc	-0.060108885
217	0xbea8d543	-0.32975206
218	0xbf087cd5	-0.5331548
219	0xbe78c448	-0.24293625
220	0x3ce52e4d	0.02797618
221	0xbe810170	-0.2519641
222	0xbdcdde82	-0.100522056
223	0xbcf8e474	-0.030382372
224	0xbea174ca	-0.31534415
225	0xbe2965a0	-0.16542673
226	0xbe8a389a	-0.2699631
227	0xbd0c50e3	-0.034256827
228	0x3b642195	0.0034810056
229	0xbddc5593	-0.107585095
230	0xbd184d5c	-0.03718315
231	0xbe702912	-0.23453167
232	0xbeda8f8d	-0.42687646
233	0xbef77405	-0.48330703
234	0xbed15ebe	-0.40892595
235	0xbe9667e5	-0.2937614
236	0xbf2237ec	-0.6336658
237	0xbe5bacf6	-0.21452698
238	0xbe82c5ad	-0.2554144
239	0xbee06181	-0.4382439
240	0xbe9b3417	-0.3031318
241	0xbf112811	-0.5670176
242	0xbe06ec27	-0.13176022
243	0xbec71968	-0.3888657
244	0xbeada511	-0.33914998
245	0xbca6fb0e	-0.020383384
246	0xbe86ae91	-0.2630506
247	0xbe4e447f	-0.20143317
248	0xbe100955	-0.1406606
249	0xbd261b19	-0.040553186
250	0x3e7ce4cf	0.24696659
251	0xbcdad642	-0.026713494
252	0xbd2eb2cf	-0.042650994
253	0xbe0b1345	-0.1358157
254	0xbeec5e5f	-0.4616575
255	0xbebe40e5	-0.37158886

res_block2.fc.weight f4 [128, 256]
0	0xbe076a0e	-0.1322405
1	0x3e5c9290	0.21540284
2	0x3bbac825	0.0057001286
3	0xbdeb16d4	-0.114789635
4	0xbeccfe95	-0.4003798
5	0xbe8026e7	-0.2502968
6	0xbcd4f337	-0.02599488
7	0xbd9c3194	-0.07626644
8	0xbeb0ae2e	-0.3450789
9	0xbebe57d2	-0.37176377
10	0xbeae7467	-0.34073183
11	0xbc746ddd	-0.014918772
12	0x3cbbec98	0.022939965
13	0x3c7bbe0a	0.015365133
14	0x3e8024cf	0.25028083
15	0xbe8731f8	-0.2640531
16	0x3c800554	0.01562754
17	0x3b4a2937	0.003084732
18	0xbf24a689	-0.6431661
19	0xbc59324a	-0.013256619
20	0xbe0fb70c	-0.1403467
21	0xbc492da9	-0.012278953
22	0x3d7f29cb	0.062295716
23	0xbdd0d413	-0.101967
24	0xbc8432e2	-0.016137544
25	0xbeb0968d	-0.3448986
26	0xbe2907d8	-0.16506898
27	0x3dc08b3d	0.094015576
28	0xbe4147e4	-0.1887508
29	0x3d4050a6	0.046951912
30	0xbe1ec977	-0.1550654
31	0xbe2869b0	-0.16446567
32	0xbdb1c0a9	-0.08679325
33	0xbe68e6e7	-0.22744332
34	0x3b46f596	0.0030358783
35	0x3e68d6ed	0.22738238
36	0xbd01a34a	-0.031649865
37	0xbd49a1c0	-0.049226522
38	0xbebd3d30	-0.36960745
39	0xbe686d61	-0.22697975
40	0xbe4d5dda	-0.20055333
41	0xbeceb66c	-0.40373552
42	0x3dabd006	0.08389287
43	0x3d3252e3	0.04353608
44	0xbe0ef136	-0.13959202
45	0xbd904a1b	-0.070453845
46	0x3d876c8d	0.06612501
47	0xbe0987d7	-0.13430725
48	0xbef83499	-0.4847763
49	0xbda6a9e3	-0.08137872
50	0xbd7b1cbc	-0.0613067
51	0x3e4bc9d3	0.19901209
52	0xbd560283	-0.05224849
53	0xbe1809e6	-0.14847526
54	0xbeb09b6f	-0.34493586
55	0x3cfeb2ab	0.031091055
56	0xbe35dd7d	-0.17760272
57	0x3d0f9824	0.035057202
58	0x3e87d557	0.26529953
59	0xbe9ef391	-0.310452
60	0x3e8a5225	0.27015796
61	0xbdb149a3	-0.08656623
62	0x3cb3b337	0.021936042
63	0x3e1dd344	0.15412623
64	0xbdce1ab7	-0.10063689
65	0x3e590d33	0.21196441
66	0xbd686202	-0.056734093
67	0xbefc0016	-0.49218816
68	0xbdc80d58	-0.0976817
69	0x3dcb8581	0.09937573
70	0xbe2ed71e	-0.17074248
71	0xbdf2ed52	-0.118616715
72	0xbeddf256	-0.4334895
73	0xbe35d8da	-0.17758504
74	0xbe54fceb	-0.20799606
75	0xbd8c5c72	-0.0685357
76	0xbd91e4d8	-0.071237266
77	0x3e6db2f5	0.23212798
78	0xbe50d141	-0.20392324
79	0xbe107837	-0.14108358
80	0xbe396b96	-0.18107447
81	0xbc0507ba	-0.008119518
82	0xbe637675	-0.22213157
83	0x3d8cfb61	0.06883884
84	0xbdbb9ab5	-0.091603674
85	0xbd8b5662	-0.068035856
86	0xbd485529	-0.04890934
87	0xbca95188	-0.02066876
88	0xbe0944b5	-0.13405116
89	0x3cd650a6	0.026161503
90	0x3d998466	0.07495956
91	0xbcdbe170	-0.026840895
92	0xbe13dfbc	-0.14440817
93	0x3d555bcc	0.052089497
94	0x3ec36864	0.3816558
95	0xbf10f294	-0.56620145
96	0xbe013f9e	-0.12621924
97	0x3e701924	0.2344709
98	0x3d4f163c	0.050558314
99	0xbe807f15	-0.25096956
100	0xbe9faabf	-0.31184956
101	0xbe210b78	-0.15727031
102	0xbd21586e	-0.039390974
103	0xbc56264d	-0.013070655
104	0xbe9fa4ab	-0.3118032
105	0xbdbd41e0	-0.0924108
106	0xbe5cdfa1	-0.21569683
107	0xbdb2bec0	-0.08727789
108	0x3a915b6b	0.0011089867
109	0xbd75ebb3	-0.060039233
110	0xbe58ba33	-0.2116478
111	0xbe9968b3	-0.29962692
112	0xbf36681d	-0.71252614
113	0xbdeef904	-0.1166859
114	0xbd23f9f9	-0.040033314
115	0x3ddd84b4	0.10816327
116	0x3dc5a3eb	0.096504055
117	0xbbf10453	-0.007355252
118	0xbd80e8a3	-0.06294372
119	0xbdc1c573	-0.094614886
120	0x3d7e7ecd	0.062132645
121	0xbd80c3c0	-0.06287336
122	0xbe967ab8	-0.29390502
123	0x3d90d09b	0.07071038
124	0xbd0f992b	-0.03505818
125	0xbe3600a8	-0.17773688
126	0xbb6e6253	-0.0036374524
127	0xbdfc2957	-0.123125724
128	0x3e41b4e6	0.18916664
129	0xbe1a51a7	-0.1507021
130	0xbddb3ecb	-0.10705336
131	0xbde1d2fe	-0.11026572
132	0xbdc5689a	-0.09639092
133	0xbf174a1f	-0.59097475
134	0x3cc31d76	0.023817759
135	0xbd9a2c61	-0.07527996
136	0xbe025984	-0.1272946
137	0xbdf5e182	-0.12005903
138	0xbd16f26a	-0.036852278
139	0xbd4bf630	-0.04979533
140	0x3dd1b5c9	0.10239751
141	0x3e2eee48	0.17083085
142	0xbee278a8	-0.44232678
143	0xbc4712d8	-0.012150489
144	0xbbbe8015	-0.0058136084
145	0xbeb37d88	-0.3505671
146	0xbc1a5063	-0.00941858
147	0xbd8387de	-0.06422399
148	0x3cf1bcef	0.029509036
149	0xbe1a22bd	-0.15052314
150	0xbe05c537	-0.13063513
151	0xbe2aeae8	-0.16691172
152	0xbe91b900	-0.28461456
153	0xbe157cc4	-0.14598376
154	0x3e3a04bb	0.18165867
155	0xbe40fa40	-0.18845463
156	0xbd2e365b	-0.042532306
157	0x3cf3b118	0.02974753
158	0x3d855232	0.06509818
159	0xbe625172	-0.22101381
160	0x3e1c7143	0.15277581
161	0xbea82474	-0.32840312
162	0x3e79d311	0.24396922
163	0xbe969d9f	-0.2941713
164	0x3be8b835	0.0071020373
165	0xbe0687fd	-0.13137813
166	0xbe0fa67d	-0.14028354
167	0x3e7af243	0.24506478
168	0x3db8b726	0.09019308
169	0x3c18b9ae	0.009321613
170	0xbe12165b	-0.1426634
171	0x3e1302dd	0.14356561
172	0xbd9c9418	-0.07645434
173	0xbe3fb745	-0.18722256
174	0xbeeac992	-0.4585691
175	0x3c98ec82	0.018667463
176	0xbf0edbbb	-0.5580403
177	0xbd301c3a	-0.04299567
178	0xbc9193fb	-0.017770758
179	0xbdab1da9	-0.083552666
180	0xbea0ee66	-0.31431884
181	0xbabd00d9	-0.0014419808
182	0xbf1bb7d0	-0.6082735
183	0xbe1b6ed2	-0.15178993
184	0x3d003db8	0.03130886
185	0xbea1ac3c	-0.31576717
186	0xbd80547e	-0.062661156
187	0x3c5ca766	0.013467645
188	0xbd711e42	-0.058866747
189	0xbd101055	-0.035171825
190	0xbe0dc3c5	-0.13844211
191	0xbe07aa62	-0.1324859
192	0x3c42c039	0.01188665
193	0x3e6f2845	0.23355205
194	0xbd88b037	-0.06674235
195	0xbf05cc7c	-0.52265143
196	0x3d8c32de	0.0684564
197	0x3db5dd5a	0.0888011
198	0xbedab5a6	-0.42716712
199	0xbd4eb09e	-0.050461404
200	0xbd36e263	-0.044649493
201	0xbd9ccbdb	-0.0765607
202	0xbe02d78d	-0.12777539
203	0x3d7d1948	0.06179169
204	0xbe0255c0	-0.12728024
205	0xbe7d7b23	-0.24754004
206	0xbee2f24e	-0.4432549
207	0xbeb5d4b1	-0.35513833
208	0xbd94c50e	-0.07264148
209	0x3ba895b7	0.0051448005
210	0xbe1aafcd	-0.15106125
211	0xbea86b6f	-0.32894465
212	0xbe94cb4f	-0.29061362
213	0x3be491f6	0.0069754077
214	0x3f30f16a	0.6911837
215	0xbdc6960d	-0.09696589
216	0xbe0f39e2	-0.13986924
217	0xbcf4392e	-0.029812422
218	0xbd852887	-0.065018706
219	0xbd8717eb	-0.06596359
220	0xbe3af042	-0.18255714
221	0x3d70ee22	0.05882085
222	0x3dd321be	0.1030917
223	0xbd45c6b0	-0.048285186
224	0xbe04f2f5	-0.12983306
225	0xbe45a2df	-0.19300412
226	0x3d7cf1ff	0.061754223
227	0xbefa018a	-0.488293
228	0x3dcb82c3	0.0993705
229	0x3d9b771a	0.07591076
230	0xbe0e902c	-0.13922185
231	0xbd84e4db	-0.06488963
232	0x3e56eceb	0.20988815
233	0x3e1d8373	0.15382175
234	0xbda67e46	-0.081295535
235	0xbe640500	-0.22267532
236	0xbd6fb4dc	-0.05852209
237	0xbdd9b3f8	-0.106300294
238	0xbca9ce15	-0.02072815
239	0x3f1c6f06	0.6110691
240	0xbd9d0f02	-0.07668878
241	0xbe123f83	-0.1428204
242	0xbb479f47	-0.0030459927
243	0xbe3b909b	-0.18316881
244	0xbef26c56	-0.4734828
245	0x3dd03f0b	0.101682745
246	0xbec3b58d	-0.3822445
247	0xbde568da	-0.112016395
248	0xbe17b841	-0.14816381
249	0xbdc8c9bf	-0.09804105
250	0xbe816166	-0.25269622
251	0xbd90939a	-0.07059403
252	0xbe27ac55	-0.16374333
253	0xbde618a9	-0.11235172
254	0x3de3fa55	0.111317314
255	0x3c998079	0.018738018

res_block2.fc.bias f4 [128]
0	0xbae3fdb2	-0.0017394333
1	0x3e469111	0.19391276
2	0x3e545e6a	0.20739141
3	0x3e47aa9c	0.19498676
4	0x3ea0075e	0.3125562
5	0x3e940f9c	0.2891816
6	0xbef589de	-0.47956747
7	0xbc31fce2	-0.010863515
8	0x3e805117	0.25061867
9	0xbe91129b	-0.28334507
10	0xbe1eb338	-0.15498054
11	0xbed7a9aa	-0.4212163
12	0x3e82c69d	0.25542155
13	0x3e98443e	0.29739565
14	0xbd611c88	-0.05495885
15	0x3f02f611	0.5115672
16	0xbf1b650b	-0.60701054
17	0xbeb22693	-0.34795055
18	0xbe0677df	-0.13131665
19	0x3df263bc	0.11835429
20	0x3e4079a8	0.18796408
21	0x3e586487	0.21132098
22	0x3e6e166e	0.23250744
23	0xbf4ce163	-0.8003141
24	0x3f2abc15	0.6669324
25	0xbe957cca	-0.2919677
26	0xbe084dad	-0.13310881
27	0x3dd28102	0.102785125
28	0xbdc02feb	-0.093841396
29	0xbf2579a0	-0.6463871
30	0x3ddc61a0	0.10760808
31	0x3edeb494	0.43497145
32	0xbf085b46	-0.5326427
33	0x3d89b3a4	0.06723717
34	0xbfaf3534	-1.3688111
35	0x3e3ca3ad	0.18421812
36	0xbedfaf51	-0.43688443
37	0x3f817d82	1.0116427
38	0x3f26c5c7	0.65145534
39	0x3dd5814e	0.104250535
40	0x3e19ac53	0.15007143
41	0x3d87dbff	0.06633758
42	0x3d20cfd4	0.0392607
43	0xbeb8509b	-0.35998997
44	0x3ee9640e	0.45584148
45	0xbea93fbf	-0.33056447
46	0x3c83f830	0.016109556
47	0x3f18abb0	0.59636974
48	0xbce08bd4	-0.027410425
49	0xbf33753a	-0.7010075
50	0xbe41a1f4	-0.18909436
51	0x3e494cbb	0.19658177
52	0xbe0d62be	-0.13807198
53	0x3e58ec5d	0.21183915
54	0xbda706cc	-0.08155593
55	0x3d58cf91	0.052932326
56	0xbeb7cb07	-0.35897085
57	0x3efb9a86	0.4914133
58	0x3eba70c7	0.36414167
59	0xbe062c8e	-0.13102934
60	0x3e8bc643	0.272997
61	0xbe2b35d8	-0.16719759
62	0x3e9d43b9	0.3071573
63	0x3e81c7c2	0.25347716
64	0x3e06cc31	0.1316383
65	0x3e86e8a7	0.26349375
66	0x3ed8c26e	0.42335838
67	0x3db8020a	0.08984764
68	0x3ee83a8a	0.45357162
69	0x3d5e47bb	0.054267626
70	0x3f04ba21	0.5184651
71	0x3f5f2286	0.87162054
72	0xbea73634	-0.3265854
73	0xbf3b03bc	-0.73052573
74	0xbdadb5b9	-0.084819265
75	0x3e7ed796	0.24886927
76	0x3f2cf9ce	0.6756867
77	0x3e809a46	0.251177
78	0xbe812b27	-0.25228235
79	0xbf06670d	-0.52500993
80	0xbecd892a	-0.4014371
81	0x3e3a24e9	0.18178143
82	0xbed4a3a5	-0.415311
83	0xbe85cad8	-0.2613132
84	0x3c024e1b	0.007953192
85	0x3f71bc5c	0.9442804
86	0x3c857e8f	0.0162957
87	0xbeaea8ce	-0.34113163
88	0x3d8276f4	0.06370345
89	0x3eabbb90	0.33541536
90	0x3d9a08eb	0.07521232
91	0xbe151409	-0.14558424
92	0x3d98ab5d	0.0745456
93	0x3f780489	0.9688192
94	0x3df972f4	0.12180129
95	0x3f86c949	1.0530177
96	0xbeba0cac	-0.36337793
97	0x3e684ddd	0.22685952
98	0x3db1bf30	0.08679044
99	0xbeee8a39	-0.4658983
100	0xbeb56e89	-0.35435894
101	0x3e96f6c7	0.2948515
102	0x3d6af7ea	0.057365336
103	0x3e96c857	0.29449722
104	0x3e0fdcd8	0.14049089
105	0x3e8ad5af	0.27116153
106	0xbe388a98	-0.1802162
107	0xbe45a357	-0.1930059
108	0xbeaa03a5	-0.33205906
109	0x3ef6ae41	0.4817982
110	0xbedc5aaf	-0.43037936
111	0x3ed40d50	0.41416407
112	0x3b4d0f9a	0.0031289817
113	0x3ebc06a7	0.36723825
114	0xbefe416e	-0.49659294
115	0xbe3579fd	-0.17722316
116	0x3eda499d	0.42634287
117	0xbeb614e6	-0.3556282
118	0xbf11c469	-0.56940323
119	0xbdf83b25	-0.12120656
120	0x3e7c9561	0.24666359
121	0x3e423785	0.18966492
122	0x3ee9343d	0.45547667
123	0x3e600d0b	0.21879975
124	0x3e890db3	0.26768264
125	0xbe8879ac	-0.26655328
126	0xbdc1250a	-0.09430893
127	0x3dbe5808	0.092941344
