residual_mlp_model.pth (torch, 690277 bytes, 24 tensors)

entry.weight f4 [256, 16]
00000000: 7b4a 32bf b360 ccbc b4b7 2bbd 2b16 1cbf
00000010: d74b 113f 4ab0 e83c e5bc e33d 1412 923c
00000020: 9d68 0b3d 9223 073d d2aa 87bb df6e f5bd
00000030: 92b4 13be 9124 82be 4af1 833e abf9 363e
00000040: 1404 26bf 3924 5f3e 0cc5 69be fd7e 163e
00000050: cde8 19be 743b ccbd 3c18 d3bf 4896 db3c
00000060: 733d f63d c22b 253e e094 b33d c28d 00be
00000070: 14eb a83e 502a d63e af78 013f 337b 933e
00000080: 9aba 0c3f f7df 673e 6de7 133e e793 1c3c
00000090: 5ac9 3b3f d90b 44be fdb3 5d3d 7a28 9abc
000000a0: 4980 1ebe e8e5 f23d bfe3 3a3e 5981 903d
000000b0: 5462 6f3f 275f 64bd 7dd2 483f 65d3 eb3e
000000c0: 727f 38bf 5c2f 333e c30b ee3e e778 bf3e
000000d0: ee9b 8c3e 8aaa f33d cc5f b1be 34b5 0b3e
000000e0: 3dcf a83e eb19 a33d 4111 833e 6d20 7abe
000000f0: 9700 99be 08cd 6ebe 9211 5bbe adae 27bf
00000100: 32e9 1abf 6d34 813d 16a4 c13e c616 aebc
00000110: 149f 56bf 4220 da3c 9358 d03d 5e8c 71bc
00000120: aea8 74b8 1a27 06bd 3348 f73a a69e 3c3d
00000130: d7d5 b23e e6f8 13bd 2a70 e9be d6fb 50bb
00000140: 1201 903f 4d7e 4fbf 7703 093f 8810 7abe
00000150: a386 cb3e 0a08 bebd 70c1 473d 7ddd 543e
00000160: 6875 313f 033a 95be f693 39be 3665 333b
00000170: 37c1 073d 0b18 9cbe f819 a43e 8ca3 183f
00000180: b7e6 b4be 7675 8a3e 7f41 dcbe 0e87 7b3c
00000190: cae2 003f 7489 f1bc d136 edbe e54a dbbd
000001a0: bfea aa3d 559e be3d 226f 84bd 641b bdbd
000001b0: 6666 8bbc 22ee 62bd 900f d8bd e7c3 8ebe
000001c0: 2652 773f 61a9 d23d d39e 3dbf 4128 8bbf
000001d0: d364 a43e cbe6 173d d670 abbe 22df ec3d
000001e0: 06d9 443e 0db4 3cbf 2b00 30be 6a7b 43be
000001f0: 2fc7 afbe 374d 623d 7a40 6dbe 3990 19be
00000200: 2aa8 8cbe 9042 2e3e b24b 763e 047b 573e
00000210: 800e 59bf aed4 0d3d 21ef c03c 1b53 023c
00000220: 5e24 553c 61f6 973e 5c0e a43d 3dbd 8b3d
00000230: 99b7 123f 38d4 153f f068 603f b791 fc3e
00000240: f9b5 913c f967 b8bb bf18 483e 1cf2 e23e
00000250: 6131 da3d ead6 5d3d ea07 c0bf 631f 56bd
00000260: eafc 66bb 29e2 863c 2f59 843c 496d 233e
00000270: a7d9 573e 794d 37bf cf45 e4be cf98 1abf
00000280: a26b 163f 0337 5cbd d213 833e 0222 ed3d
00000290: ec09 5cbf 49e8 aabc fcb3 8abd 5c23 a0bc
000002a0: 1079 d9bd d81f 833d ef52 403d 7871 25bd
000002b0: 4e6c 4cbf e489 3ebf 13a5 1bbf 3bdc ebbe
000002c0: c533 9f3e edd2 fdbc 2578 53be 0ee9 38bf
000002d0: 38d8 2f3f 8c6e 023b d753 413d eae7 b6bd
000002e0: 5b52 a2bd 92fd 6fbe 49db c43c 54fc 80be
000002f0: a0bc 9cbe aa87 cfbf 95a7 36be 5f82 a0bd
00000300: 4e77 a43d e7f1 32bf e4e9 91be 03b2 0e3e
00000310: 3c7d b2bd 8c08 aa3c 49c7 93bf 1143 9b3d
00000320: dcbd 2dbd cb20 e23d 3fee d63d 0701 2b3e
00000330: a31f 62bf 1171 8bbf 6969 20bf fa2d e3be
00000340: 4b03 22bf 9a6d d33e 534e fe3e 6f7a bdbd
00000350: 7658 e83e 99eb 313e 299a 953e 50b5 183f
00000360: 3629 46be d205 273e a329 b33e 8712 0ebe
00000370: 08ed 853f 36fa 1c3f 72e4 7c3f 5d53 523f
00000380: 55d3 f5be 62cb 7d3e 50fc 90be 0d13 bebd
00000390: b2ce 3fbf 9c4d 8c3c 41d0 b23d fabc fbbd
000003a0: 32d4 f83c ac5d 833d f50e 40be 6cde b7bd
000003b0: 0314 1cbf b2fb 9ebf dbfd 62bf 41c6 edbe
000003c0: 5227 47be 308a 6f3e 153a 2dbf 4146 0fbf
000003d0: 8a63 313f c08a 45bc 1502 a8be 8c07 cfbd
000003e0: e7fc 2f3e e92b 6b3e 46b7 fdbc 4f50 923e
000003f0: 19f3 243d 6822 25bf 5b29 02bf d0e9 d0be
-0.696449 -0.024948454 -0.04192324 -0.60971326 0.5675635 0.028404374 0.11120013 0.017830886
0.034035314 0.032992907 -0.0041402364 -0.119840376 -0.14424351 -0.25418523 0.25770026 0.17868678
-0.6484997 0.21791162 -0.22829074 0.1469688 -0.15030213 -0.09972277 -1.6491771 0.026805058
0.12023439 0.16129974 0.0876863 -0.12554076 0.3299185 0.41829157 0.50574774 0.2880493
0.5497223 0.2264403 0.1444375 0.009556747 0.73354113 -0.19145145 0.05412673 -0.018818129
-0.15478624 0.118602574 0.1825094 0.07055921 0.9350941 -0.055754807 0.7844618 0.4605972
-0.72069466 0.17498535 0.46493348 0.3739693 0.27462715 0.11897762 -0.346434 0.13643342
0.3297061 0.07963928 0.255991 -0.24426432 -0.29883263 -0.233204 -0.21393421 -0.6550091
-0.6051208 0.063088275 0.378205 -0.021251094 -0.83836484 0.02662671 0.10173144 -0.014742939
-5.833123e-05 -0.032752134 0.0018866122 0.046049736 0.34928772 -0.03612604 -0.45593387 -0.0031888387
1.1250327 -0.81052095 0.5352091 -0.24420369 0.39751157 -0.09278877 0.04876846 0.20787616
0.6931977 -0.29145822 -0.18122849 0.002737356 0.03314325 -0.30487093 0.32051063 0.5962455
-0.3533227 0.2704274 -0.4301872 0.015352024 0.5034605 -0.029484488 -0.46330884 -0.107076444
0.083455555 0.09307543 -0.064665094 -0.0923374 -0.0170166 -0.055402882 -0.10549843 -0.27883837
0.96609724 0.10286213 -0.7407047 -1.087166 0.32108173 0.037085336 -0.33484524 0.11565997
0.19223413 -0.73712236 -0.17187564 -0.19090047 -0.34331653 0.05524942 -0.23169127 -0.14996423
-0.2747205 0.17017579 0.24052313 0.2104302 -0.8478775 0.034626655 0.023551526 0.007954384
0.013009159 0.2968016 0.08010551 0.06823204 0.573114 0.58526945 0.8766012 0.49329922
0.017786967 -0.005627629 0.1954069 0.4432534 0.106539495 0.054160036 -1.5002415 -0.052276026
-0.0035245963 0.016465263 0.016155807 0.15959658 0.21079122 -0.7160259 -0.4458451 -0.6038942
0.58757985 -0.0537634 0.2560106 0.11578752 -0.8595264 -0.020862715 -0.067726105 -0.01954811
-0.10618794 0.06402558 0.04695409 -0.040391415 -0.7985276 -0.74429154 -0.6079876 -0.4606646
0.31094185 -0.030984366 -0.206513 -0.72230613 0.686893 0.0019902317 0.047199097 -0.08930953
-0.07925864 -0.23436573 0.024030345 -0.2519251 -0.3061266 -1.6213276 -0.17837365 -0.07837366
0.08030568 -0.69900364 -0.28498757 0.13935094 -0.08715293 0.020756029 -1.1545192 0.07581151
-0.042417392 0.11041411 0.104946606 0.1669961 -0.88329524 -1.089388 -0.62660843 -0.44371015
-0.63286275 0.41294557 0.49669132 -0.09251868 0.4537999 0.1737503 0.29219177 0.5965166
-0.19351658 0.16310814 0.34992704 -0.13874255 1.0462961 0.6131929 0.9878608 0.8215845
-0.48012796 0.24784616 -0.283175 -0.092809774 -0.74924767 0.01712685 0.087311275 -0.12291904
0.03037462 0.06414351 -0.18755706 -0.089779705 -0.60968035 -1.2420561 -0.886686 -0.46440318
-0.19448593 0.23392558 -0.6766675 -0.55966574 0.6929251 -0.012057006 -0.32814088 -0.10108861
0.17186318 0.22965969 -0.03097118 0.28576896 0.0402709 -0.64505625 -0.50844353 -0.40803385

entry.bias f4 [256]
00000000: 65bc 543e fcff 52bc b632 6f3e 870e 9d3e
00000010: 3ef3 27be d160 8ebe c4ce 3c3e c6c0 41bd
00000020: e312 03be b5bc 10be 88a4 1dbe 166b 673e
00000030: 511d f8be 851e 6cbe 0c47 40bd 6750 1abe
00000040: 7f12 34be bd9c 22be 4fb3 88bd 40da b8bd
00000050: 451a 58be 1b64 3ebd 73b5 1d3d 697f be3c
00000060: 1bbf f33d 957b 163e e596 513e 2a3e 5e3e
00000070: 69aa e23d a667 2cbe 74a1 8a3e 69ea cfbe
00000080: 15d9 d1bd 07ca aabd 5720 9fbe 68b4 58be
00000090: a4f8 ba3d 26a8 68bd f961 2e3e badd 64be
000000a0: c8e8 91be dbea 4fbe 4c8c 5cbe 33d9 b63e
000000b0: 4718 6ebd 0aae cebd e0ae 683d e6c2 1e3c
000000c0: 3743 94be 7b71 4abe a120 3ebe 04fb 4b3d
000000d0: e955 8ebd 4fff 93bd 2677 313d ecce 55be
000000e0: 6ce9 3ebe 2ac7 99be 83ef d4be 8d38 a8be
000000f0: 58ce 30be 082f 1a3e 5ddb 2e3d 4f1d ca3d
00000100: 6427 8fbe 4b2a 8cbd cc85 20be 85b3 e5be
00000110: 2810 653e 97c3 cc3d 7f5c 753e 658a b8bd
00000120: 4f7e c8bd 88a8 44bc 2573 57be 21f3 83be
00000130: 698d 2cbd 75a7 25be 1662 81be 8fa3 2a3e
00000140: 5c8d 253d 0b7d c93d 0ce5 123d 7df3 8c3e
00000150: ff4f 373d 28c5 1ebe 8d72 28be fa7f 063e
00000160: 3df0 ce3d 796d d93d 0069 063e 444c 9ebe
00000170: 71a1 a43d 2977 85be fe67 41bd 690b 483e
00000180: 0130 27be c730 8dbe 524d 67be 53be e9bd
00000190: 3a4e 0ebc 248e 1dbb 193b cabd ba8b acbe
000001a0: 0533 96be 6194 423e e6dd fa3c 9081 913d
000001b0: effb 4abb 7516 53be 66db 203e 74f7 3cbe
000001c0: 556d bdbe 8705 4abe 4ba9 473d dd9f c33c
000001d0: 7c1b 1cbd 477f b93e a298 133e b3c0 193e
000001e0: 7515 033e bfe9 d1bd f058 6abe 2fcf 8cbe
000001f0: 4993 093e 5230 943d 0ee0 61bd 1dff 3d3d
00000200: 4a51 9a3d e10b 51be 7c83 ddbb 4c25 abbc
00000210: 720d a2be cc67 d3bb f6c6 9bbe 45c4 d5bd
00000220: 3e10 59be d461 1fbb d825 433e b9b0 34be
00000230: 3611 1bbe 6873 d9bd 9b8c 373d 0ff0 bc3e
00000240: 4520 1fbe 399e a13d bd23 4ebe a275 35be
00000250: 69e0 933e 2b91 51be e8c5 db3e 1827 133d
00000260: fb01 343e 2b50 c0bd e100 1cbe ebe4 fdbd
00000270: 3b1e db3b afad 41be 4fc7 10be 4481 413d
00000280: 8c6f 283e 5efd 70bd 2639 873d aae5 67be
00000290: 73c1 663e 4c9e d83d 1b98 78bb 5e4a 873e
000002a0: e844 a8be 04cf b43c af9d a83e 9491 8fbd
000002b0: d1a5 9ebe b0d5 3abe b110 82bc 7d55 19be
000002c0: 40ce 08bc c829 4d3d 472b 9a3d 2ba7 7e3e
000002d0: 9bad 87bd 0c11 83be 8fef 45be d847 93be
000002e0: 476f 453d ff23 3f3e bf68 8abe 0b64 73bc
000002f0: 6c1a 463e a400 87bb f1c6 bb3c b117 bc3e
00000300: 0e5f 603e 75ca c33d 325c fa3d 2b0a 55bd
00000310: bfab e8bd fbdf 963c 9778 37be 6915 0f3e
00000320: 7532 6ebe 2d3f 38be 014f 00be 80b3 82bd
00000330: 4d0a 58bd 767e 3fbe 6449 3a3d 23cc 3c3d
00000340: 1238 5f3e 7d13 d53d 1b03 5f3e 995e 20be
00000350: 61a3 663c b4f4 883e cea9 ec3d a3c9 8b3e
00000360: 5951 5e3d df73 35be 9c02 47be 5677 80bd
00000370: 458b 83bd 5227 a6bd 97a2 063e 062b 843e
00000380: fbf7 81bd ba9d 9bbd 032e 8bbd 60c9 57be
00000390: a7f2 ba3d d131 c8bd 9eda 70bd bc01 28be
000003a0: 050e ccbd b11f 6bbe 6814 74be aa69 9abe
000003b0: b7a0 003e 4ecc 7f3d 987a 543c 80f8 7dbe
000003c0: ac61 cdbd 2073 343e 5cd7 ce3b 2f10 a03d
000003d0: 0445 6cbe cddb 07bf aeeb 003e 5289 11be
000003e0: 243e a2bc 3dcd a6bd 2d43 323e 208c dfbb
000003f0: d1da c13b bef8 9fbe 983d 82be f7b1 5f3c
0.20774992 -0.012878414 0.23359188 0.30675146 -0.16401383 -0.2780824 0.1843825 -0.047302984
-0.12800173 -0.14134486 -0.15394795 0.22599444 -0.48459867 -0.23058517 -0.046942756 -0.15069734
-0.1758518 -0.15880103 -0.066748254 -0.09026003 -0.21103771 -0.046482187 0.03850312 0.023254113
0.11901685 0.1469558 0.20467718 0.21703401 0.110676594 -0.16836414 0.27076304 -0.40608528
-0.10246483 -0.08339315 -0.3107936 -0.2116257 0.09129456 -0.056800984 0.17029561 -0.22350207
-0.2849791 -0.20304434 -0.21537894 0.35712585 -0.05812862 -0.10091789 0.0568074 0.009690022
-0.2895753 -0.19769852 -0.18567134 0.049799934 -0.0694998 -0.072264306 0.04332652 -0.20879716
-0.18643731 -0.30034763 -0.41588983 -0.32855645 -0.17266214 0.15057003 0.04268967 0.098688714
-0.2795974 -0.06844004 -0.1567604 -0.44863525 0.22369444 0.09998243 0.23961066 -0.09010772
-0.097897165 -0.012003072 -0.21040018 -0.2577143 -0.042127047 -0.16177161 -0.25270146 0.16663955
0.040418014 0.09838303 0.035862967 0.27529517 0.044754025 -0.15504897 -0.16449948 0.13134757
0.101044156 0.106165834 0.13125992 -0.3091756 0.08038605 -0.26067474 -0.047218315 0.19535603
-0.16326906 -0.27576277 -0.22588089 -0.114132546 -0.008685643 -0.0024041021 -0.09874553 -0.33700353
-0.293358 0.19001915 0.030623388 0.0710479 -0.0030972918 -0.20614035 0.15708694 -0.18453771
-0.36997476 -0.19728671 0.048745435 0.02387994 -0.03811215 0.36229917 0.14413694 0.15014915
0.12801154 -0.10249662 -0.2288549 -0.2750182 0.13435091 0.07235779 -0.055145316 0.046385873
0.07535036 -0.20414688 -0.006760059 -0.020891808 -0.31650883 -0.0064515825 -0.30425233 -0.10437826
-0.21197602 -0.0024319785 0.19057405 -0.1764554 -0.15143284 -0.10617715 0.044811826 0.369019
-0.15539654 0.07891507 -0.2013082 -0.17720655 0.2888215 -0.20465533 0.42924428 0.035925955
0.1757888 -0.09390291 -0.1523471 -0.12397178 0.0066869534 -0.18913911 -0.1413853 0.047242418
0.16448802 -0.05883538 0.06602697 -0.22646204 0.22534733 0.10577068 -0.0037932459 0.26423925
-0.3286507 0.022071369 0.32932803 -0.07010189 -0.30985883 -0.18245578 -0.0158771 -0.14974017
-0.008349955 0.050088674 0.07527786 0.24868457 -0.066249095 -0.25598943 -0.19329666 -0.2876575
0.048201825 0.18666075 -0.2703304 -0.014855395 0.19346017 -0.0041199494 0.022922011 0.36736825
0.2191126 0.095601 0.12224616 -0.05201165 -0.11360883 0.01841735 -0.17917095 0.13973011
-0.23261435 -0.1799285 -0.12530138 -0.06381893 -0.0527442 -0.18700585 0.045480147 0.046093117
0.21798733 0.10404108 0.21778528 -0.15661086 0.0140770385 0.26749194 0.11555825 0.27302274
0.054276798 -0.17719983 -0.19434589 -0.062727615 -0.06423048 -0.081129685 0.1314796 0.25814074
-0.06346127 -0.07598443 -0.067958854 -0.21072912 0.091283135 -0.09775127 -0.05880224 -0.16406912
-0.099636115 -0.22961308 -0.2383591 -0.3015874 0.12561308 0.0624507 0.012968682 -0.24801826
-0.10028395 0.17622042 0.006312294 0.07815587 -0.23073202 -0.53069764 0.12589905 -0.1421254
-0.019805022 -0.08144615 0.17408438 -0.006822124 0.0059159775 -0.31244463 -0.25437617 0.01365327

res_block1.fc.weight f4 [256, 256]
00000000: 012c 9abc db92 7e3e d518 a93e 3536 133e
00000010: e59a ac3c f769 6fbd 4878 593e d4c7 3b3d
00000020: 0b9c 933e 20f3 33bd 8250 7bbe aab7 69bd
00000030: 1a33 35be a59e 32bd 5f5f 113e 723c 75bd
00000040: f802 363c 7b4f 2d3e 8c73 043d af7d 4c3e
00000050: 8d50 26bd 637d 64bd 7281 1e3e e0be 583e
00000060: a47f 673e 9bc9 f33d a751 883e a32d 8b3d
00000070: ad3e e23d d9fd 953c 6383 613e ff84 2fbe
00000080: 901e a03e eb7e 033e 65a3 cfbd 0203 26be
00000090: 8caf ebbb 7ec1 f93d 8ced febb e494 2f3e
000000a0: 2688 febb a433 3c3d 0d04 133e 8141 813d
000000b0: ccc7 bb3d 6dc4 2d3e 0d37 9abc 1263 20be
000000c0: ec1e e8bd d6da 19bd 64cc 963e 98c9 0f3e
000000d0: 8316 d7bc 8c78 11be 19d3 68bc b642 1fbe
000000e0: fc3c a8bd 809d 403e fb05 0c3e 9dc3 1ebe
000000f0: ff35 493c 0aae 363e 5040 d33d 432f 293c
00000100: 80a7 e8bb f8bf ef3e d1e7 153d 2624 d5bd
00000110: f697 343e 4e78 203d 9e0a 513e 65c7 53bd
00000120: fbb5 083e 7cb7 3a3e cf7d 773b 1aff d93d
00000130: 4f0a 6cbc 9048 863e 1778 433e aa7b fe3c
00000140: 9f0c 903d f585 b1bc bcfb 523e 22f9 a53e
00000150: 4654 333d 9e5c 7abe 0afa 873d 91ca 123e
00000160: 3229 a03e 6c63 3c3e 88d3 28be e96b 9abd
00000170: 55de ed3d 4525 963d 7dd8 a0bc db4c 013e
00000180: 3452 06bd 0e5f c2bd d3cf 37be be6b 44bd
00000190: ab1f 7fbd e4ac 0b3e bd5a 6d3e e135 23be
000001a0: dad6 09be 4375 e73d 8e12 5f3d 930b ab3d
000001b0: 53de aebd 6755 a83b af86 813d 0389 a83d
000001c0: 636b 083e a8cf 85bc dabf 9cbc 84d2 123e
000001d0: ed10 9e3e 7178 433e d582 5e3e 0bd5 0d3e
000001e0: c7fa 063e e14f a73c 328e 083e d379 10bb
000001f0: 74ad 0e3e b4b7 a03c ddab 073e 3214 0a3e
00000200: 9107 02bc 3222 363d 2c57 0b3e 9464 213d
00000210: 5cb6 3ebd 1170 853d 79de a53b ad23 10be
00000220: 9d36 d0bd 8897 b33d 64dd 2c3e 6c03 1d3c
00000230: 2d79 243e 7ee6 7e3e db5e 5ebc 99ae 9f3d
00000240: f530 33bc 9640 883e 6e34 2f3e d94d 26bc
00000250: c361 513e d87a 3e3e 23f8 203e ceb4 613e
00000260: d5eb 1dbd f0e7 01be d32f ee3d 20d5 143c
00000270: 4a0e 96bd 20ea f43d 9a8a 763e 8d30 1a3e
00000280: fca3 173e 5cb6 7d3d 14a7 1c3d 348f c0bd
00000290: 6b05 e2bd 323a cc3e 3f33 55bd 1ee0 50bd
000002a0: 86b7 113e 9311 133e 6ed9 8c3d 317b a93e
000002b0: 4735 683c 1347 113e 35a3 963e d44d 8dbd
000002c0: 2f6b 6dbb ba5f 703d dfd3 8f3d 92b1 7a3e
000002d0: 8f99 ff3d 9e2e b33c 7007 0fbd a74b b8bc
000002e0: 793a ed3d e8b1 843e 82fd 76bd ef7b 9e3d
000002f0: 479d 113e 5c09 dd3c ca42 8f3d 65be 963e
00000300: 2d73 ca3d 7273 473e 0752 da3d 4d1d 023d
00000310: e2cf 4e3e 1654 23be 7530 c93e 57e1 88bd
00000320: 21dd c43d ecff ddbb e3ca 0a3e 37b0 ce3c
00000330: e3cb 0abd 36be 113c c4cd 503e 3204 293c
00000340: 0810 b83e ec78 d83c 9193 bf3d 8e06 2c3e
00000350: c438 2a3c 5449 2a3e e333 0ebe bb76 283e
00000360: 5aab 823d 8b57 033e 5650 773d d702 803d
00000370: 7473 e83b ce96 773e 6384 523e a006 f2bc
00000380: 7e4a 1c3d 2f93 33bd 208d bfbc 4f93 903e
00000390: 6fef 32be 76ef 03be 38ad 623e 0845 493e
000003a0: a8cc 263e 5d4c b1bd c369 673e 01d7 92bc
000003b0: d513 7c3e 5496 c2bd 2032 3b3d 85a6 cdbc
000003c0: 4a79 55bd 4c04 2dbe 3f23 813d 13cd a03d
000003d0: 03b8 d73d a65f 41be 809d 823e ebd8 bcbc
000003e0: 1772 733c a93d 89bc 3bd0 273c be87 17be
000003f0: 88e4 363e b0c4 073d cef4 78bd 6e49 d8bb
-0.01881981 0.24860708 0.33026758 0.14376147 0.021069953 -0.058450665 0.2123729 0.045844868
0.2882999 -0.043933034 -0.2454243 -0.05705992 -0.17695275 -0.043608326 0.14196537 -0.0598721
0.011109106 0.1692485 0.032336757 0.1996982 -0.040604163 -0.05578364 0.15479067 0.21166563
0.22607285 0.119036876 0.26624796 0.06795814 0.11047111 0.01830952 0.22022776 -0.17140578
0.31273317 0.12841384 -0.10138587 -0.16212085 -0.0071925577 0.12195109 -0.0077797826 0.17146641
-0.007767695 0.045947686 0.14357014 0.06311322 0.091689676 0.16969462 -0.018825078 -0.15662792
-0.11334023 -0.037562214 0.29452813 0.14041746 -0.026255852 -0.14206141 -0.014210486 -0.15552792
-0.08214757 0.18810081 0.13674156 -0.15504308 0.01228094 0.17839828 0.10315001 0.0103262095
-0.0071000457 0.46826148 0.03659803 -0.104072854 0.17636093 0.03917723 0.20414206 -0.05170383
0.1335067 0.18234056 0.0037764197 0.1064436 -0.014406755 0.26227236 0.1908878 0.031064827
0.07033657 -0.021670321 0.20603842 0.32416636 0.04378154 -0.24449393 0.06639488 0.14335085
0.3128143 0.18397301 -0.16486943 -0.075401135 0.11614672 0.07331327 -0.01963448 0.12626974
-0.03279324 -0.094907865 -0.17950372 -0.047954313 -0.06228606 0.13640171 0.23179145 -0.15938522
-0.13460866 0.11301663 0.054461055 0.08351817 -0.08538499 0.005137134 0.06324517 0.08229258
0.13322215 -0.01633437 -0.01913445 0.14338118 0.30872288 0.19088914 0.21729596 0.138508
0.13181601 0.020423831 0.13335493 -0.002204527 0.13933355 0.019618846 0.13249154 0.13484266
-0.007936374 0.044466205 0.13607472 0.03940256 -0.04656063 0.065155156 0.005061921 -0.14076109
-0.10166667 0.08769137 0.16881329 0.009583335 0.1606185 0.24892613 -0.01357242 0.07796974
-0.010936965 0.26611775 0.17109844 -0.010150396 0.2044745 0.18601549 0.15719657 0.22041628
-0.038554985 -0.12686133 0.116302155 0.009084016 -0.07326944 0.11958718 0.2407631 0.15057583
0.14808649 0.06194149 0.038245276 -0.09402314 -0.1103619 0.3988815 -0.052050825 -0.050994985
0.14230165 0.14362173 0.06877409 0.331018 0.014172859 0.14187269 0.29421392 -0.0689961
-0.0036227216 0.058685042 0.07022833 0.244818 0.12480461 0.021872815 -0.034919202 -0.022497011
0.115834184 0.25916982 -0.060300358 0.07738482 0.14220153 0.026982002 0.06995161 0.29442134
0.09885249 0.19477633 0.10660177 0.031766225 0.20196488 -0.15950045 0.39294782 -0.06683605
0.096124895 -0.006774893 0.13553958 0.02523051 -0.033885848 0.0088954475 0.20390993 0.010315942
0.3594973 0.026424848 0.09354318 0.16799375 0.010389511 0.16629535 -0.1388698 0.16451542
0.06380339 0.12826364 0.06037935 0.06250542 0.007093841 0.24178621 0.20558314 -0.029544175
0.03815698 -0.043841537 -0.023382723 0.28237388 -0.17474149 -0.12884316 0.2213639 0.1965524
0.16289008 -0.08657143 0.22598939 -0.017924787 0.2461694 -0.09501329 0.0457021 -0.025103817
-0.052117623 -0.1689617 0.06305551 0.07851615 0.10533144 -0.18884143 0.25510788 -0.023052653
0.014858744 -0.016753035 0.010242517 -0.14797875 0.17860615 0.03314656 -0.06078034 -0.0066005504

res_block1.fc.bias f4 [256]
00000000: b73f 583e 0e36 14bc 1f40 3d3e 0234 21be
00000010: 4cef 803e 0178 fe3d e94a 283e 19ce 2b3e
00000020: b0c6 56be fb14 963e 490b 5ebe 4b30 4a3e
00000030: da77 8f3e 2a1f 6ebe 0c58 853e 1f17 113e
00000040: 347f 4b3e 582b f23d 1e72 553e 4d8d 953e
00000050: 5f19 34bd c414 aa3e cda2 82be 49aa 3c3e
00000060: dfb3 1bbc 1c13 b63b 6782 28be c441 a83e
00000070: 2be6 8c3e d03c 873e 793d 00be c582 5b3e
00000080: 1a78 603e 3011 17be 42ef 02be 9f3a 3cbe
00000090: eb93 753e a356 923e 0b00 d5bd d5ac edbd
000000a0: 8af5 f8bd fbbb 803e 3ba4 213e e11b 2fbb
000000b0: 33a6 d13b 1bb2 593e 4029 6abc eaaa 413e
000000c0: 4cb4 7a3e 1a33 773e 65b1 ed3d b9dc a33e
000000d0: b1ff 253d 4c46 a93e 55c4 ad3e 2a41 683e
000000e0: 0367 5a3e 4101 883e 2ce2 613e 40d6 943e
000000f0: 3a61 b63e 61a7 e53d d4c7 993e afa3 9f3e
00000100: b061 913e 4dde bcbb 6490 c43e 9cc5 c23e
00000110: 5604 9e3e df4f 6a3e b9b3 ac3e 39ff b73c
00000120: 6dd0 563e e6a8 983e e622 813e 9686 5d3c
00000130: 881b 873e 4901 f13c 0cde 733e 1d7b 5c3e
00000140: 75e3 8dbd 833f 67be 3d67 a33e 1ef7 903e
00000150: 49e6 b9bd 5f35 27be 36a4 e3bd bd10 f03c
00000160: 188b 793e a4b7 12bd 3d5a 123e 58b8 9c3e
00000170: dd05 683e 835a 8e3e 0863 aa3e 2bc8 733e
00000180: ca88 193e 6017 8d3e 4b7a 2abe 688e 8d3d
00000190: bc83 b0bd d84d 69bd 199a 7e3e 5834 ac3e
000001a0: 19d3 fb3d 1ca2 29bd 89fd 983e df02 713e
000001b0: 5dd1 323c 2c32 453e 5c42 363e c004 863c
000001c0: 7698 873e 6cfe b9be 5a0b a03e 3f0d 723e
000001d0: 91bb e2bd 9e92 833e b2fd 543e 5ef8 0abd
000001e0: 2fe3 51be 0869 6b3e 414d 4b3e c210 693e
000001f0: f0f1 29bd d2e0 ddbe 628d 4e3e 1af3 143e
00000200: 5c9e 823e cb2a a33e d48b 8c3e 12dc 9e3e
00000210: 1b40 803e f6c4 873e 0199 9f3e 00f3 803e
00000220: fb86 713e 97e7 903e 9e92 a53e 6057 793e
00000230: 7886 92bd 3994 9a3e d888 913e d35b 093e
00000240: e514 3cbe 8d91 133e cc8b 173e bf16 af3e
00000250: 7253 a53e 7b6d bbba d1f6 5e3e 96ca e73d
00000260: bcf0 343e 85e7 a03e 7a61 4abd 5d9c 663e
00000270: 2e2b 6d3e 1a80 a13e c2e4 703e 6f98 483e
00000280: e4a9 2dbe 7bbc 8cbe 487e 873e d8a0 273d
00000290: 1dcd 35be f7ee 993e e405 983d 8464 963e
000002a0: 0a41 9d3e 163e febd d25c 56bd e190 893e
000002b0: c1ec 303e 8e2f 7abd 8266 9aba eeb0 763e
000002c0: 6597 773e d7eb 983d 3866 39be c68b b23e
000002d0: 9e45 a9be 5313 913e 8e98 483e c05f a63e
000002e0: 854a 843e 89d2 453e bfa0 563e 07f3 963e
000002f0: 7448 993e 3053 8ebe 6798 1ebe 3b84 503e
00000300: fc0d 423e b812 e0be 264b b73e df8f 4e3e
00000310: 69bb 7c3e 84b5 8f3e e42b 213e 933b cabd
00000320: cf69 9d3e d901 b7bd 6c03 8c3e 6262 443e
00000330: 67b1 4f3e 608c a33e b3c4 9d3e 3652 a43e
00000340: 946c aa3e ca31 bcbe 1801 2cbe abc9 e83d
00000350: d5fb ba3e 5097 04be fc7d 933d bfa4 a93d
00000360: 77ac 8f3e 5d71 b53e c2eb 973e bfb1 ed3c
00000370: a46c b13e b4c2 913e 3a09 7c3e 76ae 163e
00000380: 7224 843e 6d9b 833e 4c26 693e 708e e1bd
00000390: b04b a43e 36a1 6abe c62e 9c3e 793c 6d3e
000003a0: 6ac1 fabc 59e9 813e 6f9a 613e 3df0 c9be
000003b0: accb 1cbe adb8 7e3e c1e8 3abd 2ac9 903e
000003c0: 19a8 a73e 84a3 713e 3ab3 9e3c d265 843e
000003d0: 436b 433d 83dc 4d3e 0231 9ebd 831b 5e3e
000003e0: 033b 783e 8d73 9c3e e552 d5bd 9d58 49bd
000003f0: 9907 07bc dd41 443e 3490 b0bd 57c3 a53e
0.21118055 -0.009046091 0.18481492 -0.15742496 0.2518257 0.12425233 0.16434826 0.16777839
-0.20974231 0.29312882 -0.21683992 0.19744985 0.28021127 -0.23254076 0.26043737 0.14168976
0.19872743 0.118246734 0.20844314 0.29209366 -0.04396951 0.33218968 -0.25514832 0.18424334
-0.009503334 0.0055564772 -0.16455995 0.32862675 0.27519354 0.26413584 -0.1252345 0.21436603
0.21920815 -0.1475265 -0.12786582 -0.18381737 0.23982207 0.28581724 -0.10400399 -0.11605231
-0.12156208 0.25143418 0.15785305 -0.0026719498 0.0063979863 0.21259348 -0.014292061 0.18912855
0.2448284 0.24140587 0.11606101 0.32004336 0.04052705 0.33061445 0.33938852 0.22681108
0.21328358 0.26563457 0.22058934 0.2906971 0.35621053 0.112135656 0.3003527 0.31179568
0.28394842 -0.005763805 0.3839141 0.3804139 0.30862683 0.22882031 0.33730868 0.022460567
0.20977946 0.2981636 0.25221938 0.013520857 0.26388192 0.029419558 0.23815173 0.21531339
-0.069281496 -0.22582822 0.31914702 0.28313535 -0.090771265 -0.16328953 -0.11115305 0.029304856
0.24369466 -0.035819665 0.14292236 0.30609393 0.22658487 0.2780343 0.3327868 0.23806827
0.14993587 0.27556896 -0.16648214 0.069119275 -0.08618876 -0.056959003 0.24863471 0.33633685
0.12296123 -0.041414365 0.29880932 0.23536251 0.010914174 0.1925742 0.17798752 0.016359687
0.26483506 -0.3632692 0.3125866 0.23637865 -0.11070932 0.25697798 0.20799902 -0.033928268
-0.2049682 0.22989285 0.19853689 0.22760299 -0.041490495 -0.43335587 0.20171121 0.14545861
0.25511444 0.31868586 0.2745043 0.31027275 0.2504891 0.26517457 0.3117142 0.25185394
0.23586647 0.2830169 0.32338423 0.24349737 -0.07154554 0.3019121 0.28424716 0.13413934
-0.18367346 0.14410992 0.14799422 0.3419704 0.32290226 -0.0014299595 0.2177384 0.11317937
0.17669958 0.31426635 -0.049409367 0.22520585 0.23161003 0.31543046 0.23524764 0.19589399
-0.1695934 -0.2748755 0.26463532 0.040924877 -0.17754026 0.30065128 0.074229985 0.29373562
0.30713683 -0.12414186 -0.052334614 0.26868346 0.17277814 -0.061080508 -0.0011779817 0.24090931
0.24178846 0.07466858 -0.181054 0.34872264 -0.33060926 0.28335056 0.19589445 0.32494926
0.25838104 0.19318594 0.20959757 0.2948229 0.2993809 -0.27797842 -0.15487824 0.20362942
0.18950647 -0.4376428 0.3579952 0.2017207 0.24680866 0.28068173 0.15739399 -0.09874644
0.30744788 -0.08935899 0.2734636 0.19178155 0.20282517 0.31943035 0.30814132 0.32093972
0.33285964 -0.36756736 -0.16797292 0.1136659 0.36520258 -0.12948346 0.07201764 0.08283376
0.28061268 0.35438052 0.29672056 0.02901542 0.346532 0.2846886 0.24612895 0.14714989
0.25809056 0.25704518 0.22768515 -0.11013496 0.32088995 -0.2291306 0.30504435 0.231676
-0.030609805 0.25373343 0.22031568 -0.394411 -0.1531207 0.24875136 -0.045632128 0.28278476
0.32745436 0.23597533 0.019372571 0.25858933 0.047709715 0.2010365 -0.07724191 0.21690182
0.24241261 0.30556908 -0.104162015 -0.049156774 -0.0082415575 0.1916575 -0.086212546 0.32375595

res_block1.ln.weight f4 [256]
00000000: 72e9 c33e 9710 b83f 4c3f e53e 9e2b 1640
00000010: 0c7b c83e 4737 983f d7cb 513f a7be b03e
00000020: c483 0440 e526 0d3f ec6c fb3f 4e92 183f
00000030: 214e fa3e e16e 0940 cc78 e83e a228 883f
00000040: 21c5 f03d 966d 233f 4824 fa3e dd79 be3e
00000050: f0bc d43f 9777 013f fd03 1b40 1078 303f
00000060: e02b 9b3f cfae aa3f 9b4e 1940 4623 ac3e
00000070: 276e 013f 4b81 8c3e e412 e23f 2a8a cd3e
00000080: b412 453f e70f 0640 19b6 1740 0eac fe3f
00000090: d7a5 343f 7a4c 093f 8e1f cb3f 195a e73f
000000a0: b3e6 c23f 915d b43e ea53 b33e f207 d13f
000000b0: ac02 8c3f b6b2 913e bd12 ad3f 57b3 e23e
000000c0: fa69 fb3e fd6b d33e c45b 853f fde6 fb3e
000000d0: dd78 ae3f cf7a d53e 1d94 d73e 482e b33e
000000e0: cdd9 c33e 2f76 ed3e a8c1 083f 4571 f03e
000000f0: e1f0 dc3e bf83 c03e bfe4 b63e b30a da3e
00000100: 1fe1 c33e ce98 933f 6e7a ff3e ff8b 063f
00000110: 3f63 c73e 7e93 b53e 4760 b83e f210 c13f
00000120: 2ad3 933e 0408 aa3e 7841 a53e 732c 2340
00000130: 58e1 c63e 2f8b cf3f 15bd be3e 8ae2 d43e
00000140: 0051 d63f 2b62 0540 6b3c f33e bed7 fb3e
00000150: 05a1 c73f fe4b 1240 0190 0440 b0f7 c63f
00000160: bda0 b93e 0ba2 c53f e9fe 063f 28ed a33e
00000170: 677d 5d3f a78f 243f b8f4 f33e 7d87 ca3e
00000180: 72bd 0b3f 738c 853e 0663 0740 a8d2 a43f
00000190: 355d c33f 377b d63f 9994 de3e 2319 233f
000001a0: b2d4 543f c6dd c93f e05c 0c3f 57c0 883e
000001b0: e83d 933f ba0b e33e 0054 103f ccb6 b23f
000001c0: 551a b23e a9a0 2640 4d03 133f 1401 cd3e
000001d0: 79fc fc3f 8032 013f 81ed 563f 5e43 e63f
000001e0: 944c 1d40 eaf8 8d3e 3d65 8f3e 300c b43e
000001f0: 4e3e e03f cc74 1240 8cd9 8b3f ee08 653f
00000200: e177 cc3e 3798 9d3e 9d72 913e 538b 003f
00000210: 2faf 263f c21f cf3e 6067 ea3e 83e9 cb3e
00000220: 06f2 d43e 7dde e93e 409d e23e 728f c13e
00000230: 94d9 a53f 9f2d db3e e2f0 173f 8359 a03e
00000240: 8f55 e03f 3876 623f 8188 2a3f 11d3 f53e
00000250: 26ec 093f 68b4 0e40 a136 713e dfc3 333f
00000260: d95a 0c3f 93f4 e63e 16ef 0040 7a86 0c3f
00000270: 86aa e43e 026d ca3e 8d00 b83e ccb5 9c3e
00000280: 4e4e 2340 5875 1540 78a5 163f ae6c bf3f
00000290: ac2c 2f40 c7ea f03e 2eb1 8f3f dab4 e83e
000002a0: 7d3d f03e 768d 0440 ae8f 9b3f 4614 fc3e
000002b0: 14d4 393f 633c cf3f 9124 9d3f af8c c83e
000002c0: efa2 d93e 5866 c53f 0695 ea3f 52f7 7e3e
000002d0: 2a40 2b40 3c00 fb3e 49b3 f33e c9ac 913e
000002e0: 5c5c ac3e afcb 303f 2a9c c63e fb01 0b3f
000002f0: 0c21 f93e 1328 1240 169d 2040 1abf 3a3f
00000300: 3204 143f 02de 3340 c84f d03e 3552 133f
00000310: 9c41 8a3e 3b1e d03e 0efb 003f 444e da3f
00000320: 7c3a 003f 2169 1b40 9971 973e e881 733e
00000330: 78fc 0b3f c0ae de3e db17 e93e ff12 f53e
00000340: 1d5e 203f 2063 2e40 9daf f73f 4463 8a3f
00000350: 5f2f 1a3f 6db0 d53f 8c96 5a3f c433 c03f
00000360: c64f f03e 53bc b03e 4a2d c93e fdba b83f
00000370: be5a 193f d909 023f c429 d13e 42c5 c23e
00000380: 1ba3 113f 27a7 193f 00c4 033f b808 e13f
00000390: 786e 013f 6a2b 1a40 26ae d23e 83b8 383f
000003a0: 8d81 ae3f 0160 ff3e ca69 d13e b98e 5740
000003b0: ef2a 2940 c97a 953e 5498 e53f 6ee0 053f
000003c0: 2736 c63e f407 d83e 6df7 9f3f 47ff 9a3e
000003d0: 2276 b53f d01a 013f e05c cd3f 8391 5b3e
000003e0: b138 f73e b959 a63e 8d23 0440 db35 ef3f
000003f0: 94ea cd3f c921 6b3f 30ee cf3f c009 ad3e
0.38264042 1.4380063 0.44774854 2.3464122 0.39156377 1.1891869 0.8195166 0.34520456
2.0705423 0.55137473 1.9642615 0.59598243 0.48887733 2.1473925 0.4540466 1.06374
0.11756349 0.6383909 0.48855805 0.3720235 1.6620159 0.50573105 2.4221184 0.689332
1.2122765 1.3334597 2.3954227 0.33620661 0.50558704 0.27442393 1.7662015 0.40144473
0.76981664 2.0947206 2.3704894 1.9896257 0.7056555 0.5363232 1.5869005 1.8074371
1.5226654 0.35227636 0.3502496 1.633055 1.0938315 0.28456658 1.3521343 0.4427745
0.4910429 0.41293326 1.041863 0.49199668 1.3630635 0.41695258 0.4210519 0.34996247
0.38252106 0.4637923 0.53420496 0.46961418 0.43152526 0.37600514 0.35721394 0.42586288
0.3825769 1.1531007 0.49898094 0.5255737 0.38942906 0.3546409 0.36010954 1.5083296
0.28872043 0.3320924 0.3227651 2.549588 0.388438 1.621435 0.37253633 0.41579086
1.6743469 2.0841167 0.47507033 0.49188036 1.5596014 2.2858882 2.0712893 1.5544338
0.36255446 1.5440077 0.5273271 0.32016873 0.86519474 0.64281696 0.47647643 0.39556494
0.54585946 0.26083717 2.115419 1.2876787 1.526282 1.6756352 0.43472746 0.6371023
0.8313705 1.5770805 0.54829216 0.26709244 1.1503267 0.44344884 0.56378174 1.3962035
0.34785715 2.603556 0.5742691 0.40039885 1.9764549 0.5046768 0.8395615 1.7989309
2.457799 0.2772897 0.28006926 0.35165548 1.7519014 2.2883787 1.0925765 0.8946675
0.3993521 0.30780193 0.28407755 0.5021259 0.6511106 0.40453917 0.45781994 0.39826593
0.415909 0.45677558 0.44260597 0.37804753 1.2957025 0.42808244 0.59351933 0.31318292
1.752611 0.8846164 0.6661454 0.48012593 0.5387596 2.2297611 0.23555996 0.7022075
0.5482612 0.4510847 2.0145926 0.54892695 0.4466135 0.3953629 0.3593792 0.3060745
2.5516543 2.335287 0.58846235 1.4955041 2.7371016 0.4705412 1.1225946 0.4545048
0.46921912 2.071134 1.2153223 0.49234217 0.7258923 1.6190304 1.2276784 0.39169833
0.4250712 1.5421858 1.8326728 0.24899033 2.6757913 0.49023616 0.4759772 0.28452137
0.33664215 0.69060796 0.3879102 0.54299897 0.48658025 2.283696 2.5095878 0.7294785
0.578189 2.8104253 0.40685868 0.5754731 0.2700318 0.40648064 0.5038308 1.7055135
0.5008924 2.4282916 0.29578856 0.23780024 0.5468211 0.434927 0.45526013 0.47866055
0.62643605 2.7248 1.9350468 1.0811543 0.6022853 1.6694466 0.85385966 1.5015798
0.46935862 0.3451868 0.39292365 1.4432064 0.59904087 0.50796276 0.40852177 0.3804112
0.56889504 0.6002068 0.5147095 1.7580786 0.50559187 2.4088998 0.4114849 0.7215654
1.3633286 0.49877933 0.40901023 3.368086 2.6432455 0.2919524 1.7937112 0.5229558
0.3871319 0.42193568 1.2497383 0.30272886 1.4176676 0.5043154 1.6043968 0.21442227
0.4828544 0.32490328 2.0646698 1.868831 1.6087213 0.9184843 1.6244564 0.337965

res_block1.ln.bias f4 [256]
00000000: c218 bcbe c76a febe f575 78be 1a68 dabe
00000010: 714d 98be 65e4 d1be cc5a fabe f6c7 8ebe
00000020: b9be 0dbf 32da a5be b6d9 fbbe 6be1 a9be
00000030: eeeb 32be 561e 19bf 10b5 8cbe b23e eebe
00000040: b910 2fbd 26b6 aebe 404d 95be 4063 54be
00000050: da02 66be 9e3c a6be 9fe6 21bf e8c8 a2be
00000060: 329a 22bf 791e 31bf 6534 04bf 91b0 9fbe
00000070: 2d08 e0be a310 91bd 7923 0cbf 6d5d 10be
00000080: 66ec a7be 39a2 0bbf 69d2 e5bd e185 43bf
00000090: cdb3 9cbe 7fa9 6cbe 900c 2cbf 632d 02bf
000000a0: 8843 82be bb47 e0bd 3416 4abe 9aaf c5be
000000b0: 5c8b eebe 9239 fcbd 6032 20bf 8a4e a7be
000000c0: ad1c 7abe 2bf9 87be 23c6 0cbf 6b9c 55be
000000d0: 6a99 14bf 8c40 9bbe 86b1 c4be ef66 1ebe
000000e0: 4c6e 39be 253e 87be c786 42be bb43 97be
000000f0: 4098 7fbe 9e98 34be fe12 88be f06d a1be
00000100: d762 4bbe 86cf 2cbf 0901 aebe a2b3 8bbe
00000110: 3c38 acbe 4aa2 ccbe cdbc 8abe 570a 26bf
00000120: 2c87 0dbe efee 48be 343f 87be 17b6 f8be
00000130: 1c7a 63be b36f 06bf 41c9 20be 0629 84be
00000140: 95bf dcbe df47 19bf 005f a6be 1cfb b2be
00000150: 2fa1 91be a365 09bf 495b 31bf ba40 42bf
00000160: 0e40 39be ec98 08bf c911 79be 806c 63be
00000170: bb12 fdbe e580 99be 2991 acbe 08de c0be
00000180: e47f 70be 2f6b a5bd 81ac 53bf ef76 0abf
00000190: f1d5 71be b6c5 ebbe 5871 a1be 2801 8dbe
000001a0: e4c7 31be 9724 1bbf f680 79be 8b3d 43be
000001b0: bac2 dcbe 8d42 aabe 14b4 c9be 3e4b a5be
000001c0: f98f 6cbe 52eb 4bbf 4b8c 9dbe ef90 89be
000001d0: f605 d6be 5b25 bdbe c855 f3be 918f a5be
000001e0: e098 cebe 4cc3 f1bd 88f9 19be dcb5 3bbe
000001f0: c040 38bf e598 52bf 997b 11bf a0df a8be
00000200: 5c5f b7be c4e0 9ebd acc3 64be 638c 79be
00000210: 5a1f 93be 0128 40be 3f5b 79be 0841 bbbe
00000220: f908 45be a07a 91be f1c3 9dbe 8c67 38be
00000230: e729 66be 31f8 81be dfcc 73be 086d 81be
00000240: 7e65 0bbf 7407 eebe cb72 d3be 6558 94be
00000250: 9f4d 75be c5c7 05bf c141 56be 13c4 b4be
00000260: b6b8 babe 5180 80be 9e97 07bf 325b 9ebe
00000270: 5896 2dbe 7301 80be e1a6 23be 07df 14be
00000280: 135a e0bd c219 31bf 19ff c8be 146a 2bbf
00000290: 775b ddbe f452 6cbe 435f b3be c3fe a6be
000002a0: 7fe3 b7be 4073 2dbe 4a60 20bf a51a 90be
000002b0: b570 b8be 9e1e e2be 6a26 d1be 7c54 5abe
000002c0: 40f6 66be edab e5be c356 0ebf 9426 36be
000002d0: b180 03bf 6160 6cbe 8db6 25be f8dc fbbd
000002e0: 9acc 23be 0643 03bf d349 24be ebbc 46be
000002f0: 6b93 80be 32d4 44bf 73dc 11be 4068 cebe
00000300: 5741 b4be e252 17bf 249d 8ebe 6a93 8dbe
00000310: bcd9 31be fafe aebe a19b 30be 716b 1abf
00000320: 33e3 c4be a731 13be 7509 1bbe e829 4cbe
00000330: cac5 8ebe 0c34 76be 35bf b7be 2484 8ebe
00000340: 259d d1be 8b5f 4abf c00b 03bf 6fa3 c1be
00000350: e93c 81be 099c 07bf 9c75 cbbe af70 f3be
00000360: 3b9d 81be 1eeb 5fbe 7691 48be 4fef dabe
00000370: df65 82be f177 8dbe 4b9f a9be c145 87be
00000380: 7ae0 c6be bc91 96be 1880 aabe 4ba4 0bbf
00000390: 7d05 74be 8f0b f6be bb76 58be ff90 d6be
000003a0: 49ae 78be 8e98 4dbe 1fb6 16be 43da f4be
000003b0: b5cb bebe 6adf 7cbe a75c 20be f208 91be
000003c0: 0a13 67be c189 b0be ba8e f0be 97f9 34be
000003d0: 4988 cebe 42af 8cbe 4129 c6be b01c dcbd
000003e0: 3b5f 65be 7f59 24be 215f 0cbe 25e6 28bf
000003f0: b339 17bf 6fff bdbe 662e 37be 370b 81be
-0.3673764 -0.4969084 -0.24263747 -0.42657548 -0.29746583 -0.40994564 -0.48897398 -0.27886933
-0.55369145 -0.32393032 -0.49189538 -0.33179793 -0.17472813 -0.59811914 -0.2748189 -0.46532208
-0.042740557 -0.34123343 -0.291605 -0.20740986 -0.22462025 -0.32468122 -0.63242525 -0.31793904
-0.63516533 -0.6918712 -0.5164245 -0.31189397 -0.43756238 -0.07083251 -0.54741627 -0.14098139
-0.32797545 -0.5454441 -0.11221773 -0.7637616 -0.30605927 -0.23111533 -0.6720667 -0.50850505
-0.25442147 -0.109511815 -0.19735032 -0.38610536 -0.46590698 -0.12315668 -0.62576866 -0.32677108
-0.24425001 -0.26557288 -0.5498983 -0.2086045 -0.5804659 -0.30322683 -0.3841669 -0.15468954
-0.18108481 -0.264146 -0.18996726 -0.29543862 -0.24960423 -0.17636344 -0.2657699 -0.31529188
-0.19861923 -0.67504156 -0.33985165 -0.27285486 -0.33636653 -0.39967567 -0.2709717 -0.6485953
-0.13821095 -0.19622396 -0.26415408 -0.48576424 -0.2221455 -0.5251419 -0.15701772 -0.25812548
-0.43114915 -0.5987529 -0.32494354 -0.34957206 -0.28443286 -0.5367071 -0.69279915 -0.75880015
-0.18090841 -0.5335834 -0.24323191 -0.22209358 -0.49428353 -0.2998115 -0.33704498 -0.37669396
-0.23486286 -0.08077084 -0.82685095 -0.5408773 -0.23616768 -0.4604928 -0.31531787 -0.27539945
-0.17361408 -0.60602707 -0.24365601 -0.19066446 -0.43117315 -0.332539 -0.393952 -0.32283968
-0.23101796 -0.79655945 -0.30771098 -0.26868388 -0.41801423 -0.36942562 -0.47526383 -0.32336095
-0.4035101 -0.11804828 -0.15036595 -0.18331093 -0.719738 -0.8226455 -0.5682922 -0.32983112
-0.3581494 -0.077577144 -0.22340268 -0.2436996 -0.28734857 -0.1876526 -0.24351214 -0.36573052
-0.19241704 -0.28413868 -0.30813554 -0.1800825 -0.22476922 -0.25384668 -0.23808621 -0.25278497
-0.5445174 -0.4649006 -0.41298518 -0.2897369 -0.23955391 -0.5225795 -0.2092352 -0.35305843
-0.36469048 -0.25097898 -0.52965724 -0.30928952 -0.16951883 -0.25001106 -0.15981628 -0.14538203
-0.1095468 -0.6917993 -0.39257124 -0.6695874 -0.43233845 -0.23078519 -0.35033616 -0.32616243
-0.35915753 -0.16938496 -0.62646925 -0.28145328 -0.3602349 -0.44163984 -0.4084962 -0.2132129
-0.22554874 -0.4485773 -0.5560114 -0.17788154 -0.5136824 -0.2308364 -0.16182919 -0.12298006
-0.15996018 -0.51274145 -0.16043787 -0.19408004 -0.2511247 -0.76886284 -0.14244251 -0.4031391
-0.352061 -0.59110844 -0.27854264 -0.2765153 -0.17368215 -0.34178907 -0.17246868 -0.6032019
-0.3845459 -0.1437441 -0.15140326 -0.19937861 -0.27885276 -0.24043292 -0.35888067 -0.2783519
-0.40940204 -0.79052037 -0.51189804 -0.37820002 -0.25241783 -0.52972466 -0.39738166 -0.47546908
-0.2531527 -0.21867034 -0.19586739 -0.42760703 -0.25468346 -0.2763057 -0.33129343 -0.26420406
-0.38843137 -0.29408062 -0.33300853 -0.54547566 -0.23830219 -0.48055694 -0.21139042 -0.41907498
-0.24285235 -0.20077726 -0.14717911 -0.4782277 -0.3726479 -0.246946 -0.15660344 -0.28327137
-0.22565857 -0.34480098 -0.46983892 -0.17673336 -0.40338352 -0.2747746 -0.3870335 -0.10747659
-0.22399609 -0.16049765 -0.13708164 -0.6597617 -0.5907242 -0.37108943 -0.17888793 -0.2520387

res_block2.fc.weight f4 [128, 256]
00000000: 56e6 213c ec4b 9b3e 894d 90be 295d 183f
00000010: e54e 2d3b a2de 67bd 67b9 1abe e05f 8d3d
00000020: 8d2b fabe cb6e 5a3e 410a 55bd e481 4d3c
00000030: d643 2ebe b91c e0be 3975 00be db02 21be
00000040: f384 4dbe 4ad4 20be 7001 8abe f519 163e
00000050: 7184 01bd aa32 173d eabb cfbd 1542 1cbe
00000060: 45a1 5abe 2450 0e3e 15cc 53bd 73fa 583d
00000070: aae3 d1bd af52 a7be 13f2 aebe 248e 12bd
00000080: c0fb 423c 69fd 9e3e 055e 49be 9883 fa3d
00000090: 9d12 eabe 9b8c 2cbd 7234 0fbe 059c 22be
000000a0: 0e95 83be c1f9 f7bc f64c bfbe f6ea f5bc
000000b0: bde5 60bd 2b27 c0bd 0c3a 463d 23d8 b5bd
000000c0: 0169 76be 563b b1be 5e9e c23d cf54 34be
000000d0: 1e73 94bc c386 8cbe 5130 ffbd c6e6 eabd
000000e0: 5aea a2be e24b 48be e429 523c c3df 79be
000000f0: f174 883d ec36 ee3c d4ec 42be 62d9 5fbe
00000100: 4c12 9cbd 7515 f0bd 179b 06be 525a 33bc
00000110: c691 8abe ec8c f4bd 9168 acbd f831 80bd
00000120: 2357 003d 88ba 81bd 0ff8 423e cd18 073f
00000130: bcb4 51be 5554 693e 09cd b0bc 76df 3dbe
00000140: fb3b 3ebe c064 103d 980d 05be 2b80 98be
00000150: 7247 3cbe 3ddf 4bbd aec0 06be 6555 0d3e
00000160: fc2c 9bbd cce3 c03e fb78 303d 54d7 93be
00000170: c362 71be 9144 d5bd 8cd2 803d 34c2 c2be
00000180: d800 45be 1a70 ab3c 92e0 2fbe c503 8b3e
00000190: b926 dd3c 26e1 a6be a972 e0be f9b0 363e
000001a0: a063 56be e6f7 523e b0bf 93be 1d7a 5bbd
000001b0: c8d0 22be 1c11 71be 8410 a33c 3fbb b4bd
000001c0: ade8 f93d b871 22be ff5f 86be fd51 33be
000001d0: 70d3 8c3e d1b1 ed3c e359 093c 7562 9eb9
000001e0: eb04 9f3e 6c6a e03b d048 a4bd da4c 5dbe
000001f0: b17c 94be 37c3 d0be 4e54 bbbd 24a8 2dbe
00000200: 9063 963c 3c53 983d 456d e3bd 6fab 34be
00000210: 5c4a c8bd 50bb acbe 5d4d 96be 06eb 23be
00000220: 4fa8 79be e7af 803d 4f99 fbbc 999e cfbe
00000230: f33a a73d bc63 f8bd 3bba d5bc e0c1 dc3c
00000240: 0f6a a03c ee3f e93c f1de a6bd ebb1 9b3d
00000250: 1520 3dbe a010 e33e ba5d a53d f437 1fbe
00000260: 83a0 9fbc 495e 86bc 1808 6ebd 56b5 97be
00000270: f043 38bd 8399 34be bc1c c3bd 75d8 84be
00000280: 51e1 ffbd 7749 b0be f254 073e d176 613c
00000290: 5381 7fbe 16c1 40be 2ea3 52be c6d8 633e
000002a0: e977 94be fa3c 5bbe 4652 003b 55b4 d9bd
000002b0: c552 04bc 7317 9e3d eb90 74bd 8cdf 1bbe
000002c0: 7c9f 743d d8dd 86be e63c 333d 5008 c53c
000002d0: fb70 2ebe 535f a33d b825 f0bc 3268 bbbc
000002e0: c249 f43d 962a 4fbc 3463 e5bd c956 b2bd
000002f0: 5de8 1dbc 3fa2 28bd 1126 c1bc eea9 50be
00000300: 89c2 25be 6134 cf3c 0eba ddbd b68c acbd
00000310: 9366 9bbe f762 0bbe 85d5 31be 6f76 b3be
00000320: 1c0d 88be a5ae 28be 181c 84be 6d3e 933d
00000330: 97f4 abbe 2ce9 fc3c 9816 8ebd 6768 db3e
00000340: e241 abbd 4d33 aebe 6952 333e 8c43 63be
00000350: 566a 48be 9aed a5be dd68 513d 249a be3d
00000360: 4c10 40be 0be2 df3d 9d00 32be dd55 7d3d
00000370: de88 9c3e e137 303e 5b03 bc3d a6da 46be
00000380: 9e55 90bd 89b3 ad3e c254 8dbe e9b1 a5be
00000390: 675d 0dbe 55ce fbbc 6ac6 eb3d 403f 23bd
000003a0: 8078 52be 82dd c8bd 5eac 5ebe 8751 9fbe
000003b0: 0a91 503e 99e1 e0bc 184d 02be 7a89 8ebe
000003c0: e4c3 0c3b 5df2 7abe 408a 72be b092 cabd
000003d0: df13 a1bd 0f72 da3b bfbb 4a3c 2e18 fbbc
000003e0: bf73 16bd c7ea 303d 3212 9e3e aa99 bf3e
000003f0: 675f 8bbd c631 afbc b4d7 8a3d e427 c0be
0.0098815765 0.3033136 -0.28184155 0.5951715 0.002644473 -0.056608804 -0.15109788 0.06903052
-0.48861352 0.21331327 -0.052011732 0.012543175 -0.17018065 -0.43771914 -0.12544717 -0.15723746
-0.20070247 -0.15705982 -0.26954222 0.1465834 -0.031620447 0.03691355 -0.10143264 -0.15259583
-0.21350582 0.13897759 -0.0517083 0.052973222 -0.102485016 -0.3268027 -0.34169063 -0.035780087
0.011900842 0.31052712 -0.19664772 0.12232131 -0.45717326 -0.04212628 -0.1398485 -0.15879829
-0.25699657 -0.03027046 -0.37363404 -0.030019265 -0.054906595 -0.09382471 0.0483952 -0.088791154
-0.24063493 -0.34615582 0.095028624 -0.17610477 -0.018121298 -0.27446565 -0.124603875 -0.11469798
-0.3181942 -0.19560197 0.01282737 -0.24401765 0.0666293 0.029078923 -0.19035655 -0.21860269
-0.07620677 -0.117228426 -0.131451 -0.010946827 -0.2706434 -0.11940941 -0.08418382 -0.06259531
0.0313331 -0.06334406 0.1903994 0.5277222 -0.20479101 0.22786076 -0.021582143 -0.18542275
-0.18577568 0.035252333 -0.12993467 -0.29785284 -0.18386629 -0.049773443 -0.13159439 0.13802107
-0.075769395 0.37673795 0.043084126 -0.2887522 -0.23572831 -0.10413469 0.06290159 -0.3803879
-0.19238603 0.020927478 -0.1717551 0.27151313 0.026996003 -0.3259365 -0.4383748 0.17840947
-0.20936441 0.20602378 -0.28857183 -0.053583253 -0.15899956 -0.23541683 0.019905336 -0.08824777
0.122025825 -0.15863693 -0.26245114 -0.17511745 0.27505064 0.029015454 0.008383247 -0.00030209465
0.3105844 0.006848624 -0.080217004 -0.21611348 -0.29001382 -0.40773937 -0.09146939 -0.16958672
0.018358022 0.07437751 -0.11104826 -0.17643522 -0.09779808 -0.33736658 -0.29355898 -0.16007623
-0.24380611 0.06283551 -0.030712752 -0.40550688 0.081655405 -0.12128398 -0.026089778 0.026947916
0.019581823 0.028472867 -0.081479914 0.076022945 -0.1846927 0.4434862 0.080745175 -0.15548688
-0.019485718 -0.01640238 -0.058113188 -0.29630536 -0.044986665 -0.17636685 -0.09526965 -0.25946394
-0.124941476 -0.3443105 0.13215998 0.013761238 -0.24951677 -0.18823656 -0.2057006 0.22250661
-0.28997734 -0.2140998 0.0019580289 -0.10630099 -0.008076374 0.07719316 -0.059708517 -0.15221995
0.05972241 -0.26341128 0.04375925 0.024051815 -0.17035286 0.07977166 -0.02931486 -0.022876833
0.11928131 -0.012644431 -0.11200562 -0.08707959 -0.009637919 -0.041170355 -0.023577722 -0.20377323
-0.1618749 0.02529353 -0.10826503 -0.08425276 -0.30351695 -0.13611971 -0.17366607 -0.35051295
-0.26572502 -0.16472872 -0.25802684 0.07189641 -0.33585045 0.030872904 -0.06937903 0.4285309
-0.083621755 -0.34023514 0.17511906 -0.22193736 -0.19571814 -0.32407838 0.051125396 0.09306744
-0.18756217 0.10931786 -0.17383046 0.061849464 0.3057317 0.17208816 0.091803275 -0.19419345
-0.0704758 0.33926037 -0.27603728 -0.32362297 -0.13805161 -0.030738035 0.11512454 -0.03985524
-0.2055378 -0.09807874 -0.2174544 -0.31116888 0.20367828 -0.027451323 -0.12724721 -0.2783926
0.0021479065 -0.24506517 -0.2368555 -0.0989126 -0.07865118 0.006666429 0.012373864 -0.030651178
-0.036731478 0.04319265 0.30873257 0.37421924 -0.06805306 -0.021386039 0.06779423 -0.37530434

res_block2.fc.bias f4 [128]
00000000: d70e 903e 5a7f 693e d420 843e 2232 84be
00000010: 9845 bb3e 3e8a 9c3e 572c cc3e b4ef 4fbe
00000020: 8ee1 4abe cbe7 86bc 0344 b83e f083 9d3c
00000030: 0016 703e aa9a 993e 2816 b93e 2e79 263e
00000040: 9a0d 003e 89ea 083e bc91 1f3c 4402 923e
00000050: 076f b4bd 6ab2 523e 8d90 d53c f68d df3d
00000060: 4eee d73e 5b16 e2bd a0d9 d53e 2149 d93d
00000070: f54c bc3d 68e7 cf3e bd42 073e 6a85 2d3e
00000080: d1ab ad3e 61b2 983d a381 133d 129e c33e
00000090: 8815 4c3e b1bf f4bd 5809 b23e fd49 ab3e
000000a0: d5da ac3e bf0d 523e c729 4fbc 1e2c 8e3d
000000b0: ec07 543e 17a1 92bd 83b7 ac3e f3c9 5c3e
000000c0: 184f 6bbc 6682 bc3e 734d 633e d1a7 9a3e
000000d0: 40ec 963c 6df3 9a3e 4cab ab3d 97f7 6a3e
000000e0: eaae 9b3e 26a9 913e 203f f03e 32be 4a3e
000000f0: 4b4b dc3d cbac ad3e b808 8b3e 9bc9 d7be
00000100: 48a6 373e 9c25 213e 612e a73c ec34 b9bd
00000110: dc7e adbc dd8a c63d 2310 02be 40c2 803e
00000120: 1a00 c2be 7cc2 a03e c1e6 0b3e b1df a83e
00000130: 6779 b43e 9251 a63d 0cf7 5abe 47e4 8f3e
00000140: 57eb 9c3e e448 6d3e a496 1bbe e834 823e
00000150: 3436 05bf 3e55 273e fbc3 5abd 2cdf f93d
00000160: 3049 7a3e 93d8 933e 660b 8fbe edd8 db3d
00000170: 0794 223e 6acb ccbc e997 b73d ed9b 813e
00000180: 5e59 813e 2dda 47bd 7456 a6bc 7ec7 973d
00000190: c033 55bd 459f d33e 6547 8d3e 966d c53e
000001a0: 9376 413e 7428 473e eb88 0bbf adad dfbd
000001b0: 811d ba3e 7189 433d b702 b83e 9029 9e3e
000001c0: a2c5 093f 6919 41bd d795 b33e 454a 2dbe
000001d0: 58ca ca3e 23df b23e bcf5 e83d 31ed db3e
000001e0: e400 873d b2a0 933e a5fb 9cbe 642e 953d
000001f0: 630e 543d b40f c93e f2ff 303e 827c 1cbe
0.28136322 0.22802487 0.25806296 -0.25819498 0.36576533 0.3057422 0.3987758 -0.20306283
-0.19812605 -0.01646795 0.3598939 0.019227952 0.23445892 0.30000812 0.36149716 0.16257164
0.12505189 0.13370718 0.009739336 0.28517354 -0.08810239 0.20575872 0.026069904 0.10915749
0.42174 -0.1103942 0.41767597 0.10609651 0.09194366 0.40606236 0.13209052 0.16945425
0.33920148 0.07455898 0.036012303 0.38206536 0.19930089 -0.11950625 0.34772754 0.33454886
0.33760706 0.20513056 -0.012644238 0.069420084 0.20706147 -0.07159632 0.33733758 0.21561413
-0.014362119 0.36818236 0.22197513 0.3020616 0.0184232 0.30263844 0.08382282 0.2294601
0.30406886 0.28449363 0.4692316 0.19799116 0.107565485 0.33920893 0.2715509 -0.42146
0.17934525 0.15737003 0.020407857 -0.09043297 -0.021178655 0.09694455 -0.12701468 0.251482
-0.37890702 0.3139838 0.13662244 0.32983163 0.35248873 0.08121027 -0.21383303 0.2810385
0.306483 0.23172337 -0.15194184 0.2543099 -0.5203583 0.16341111 -0.053409558 0.1220077
0.24441981 0.2887617 -0.27938384 0.10734735 0.1587678 -0.02499934 0.089645214 0.25314274
0.25263494 -0.048792053 -0.020304896 0.07411097 -0.052051306 0.4133245 0.27593532 0.3856017
0.18892889 0.19449025 -0.54505795 -0.10921798 0.36350635 0.047738496 0.3593957 0.30891085
0.5381719 -0.047143374 0.35075256 -0.16922863 0.396075 0.34935865 0.11374995 0.429544
0.06591967 0.28833538 -0.3066074 0.07284239 0.051771533 0.39269793 0.17285135 -0.15281871

res_block2.ln.weight f4 [128]
00000000: 105f 403f 19cc f53e 80b6 3a3f 09a4 0d40
00000010: 4b41 1d3e 0cc2 213f 568b 4e3f 9082 ee3f
00000020: b163 e03f e3b1 a93f 4a51 5f3f 6794 b13f
00000030: 8bdc 6a3f b721 a73e 2e0e 033f 86bc a53f
00000040: 372a 963f 68ea 653f 6312 a13f d579 5b3f
00000050: f56b a73f e81c 923f 25de b83f 30d1 933f
00000060: 9e5b ed3e d93d c03f ff15 cb3e f262 8b3f
00000070: 833e 8f3f 02c7 e33e 4feb f33f 9cdf cc3f
00000080: 9583 803f a4f5 973f d8fe d13f 0a5a 223f
00000090: 4056 c93f dbaa d93f a094 ce3e 40b3 733f
000000a0: e318 0a3f 7093 193f 1883 bd3f 68ef cf3f
000000b0: ee6a 153f a355 b03f 24ff 313f 6944 4f3f
000000c0: 0a8e be3f 58a1 d73e b5e9 543f 79af b83e
000000d0: 1f53 a53f cb50 153f a252 a63f 3126 143f
000000e0: 6cb9 4d3f abc5 2f3f bc2d 033f 27e2 833f
000000f0: 8be2 b23f 0021 813f b1e8 8a3f dcff 0e40
00000100: b821 8d3f db9a 543f d632 f43f 6a88 af3f
00000110: 57f3 ed3f fda8 9e3f 9f04 e53f 4bc2 853f
00000120: 2f46 f23f b2c3 e63e 6c7f 953f 02a4 3a3f
00000130: 173a ea3e 391c a73f 6c10 a83f 6618 993f
00000140: 436e 043f 2e3a 913f 3290 da3f cd6a 763f
00000150: 2957 f63f f586 8f3f 22e3 ae3f 04b4 863f
00000160: c409 5b3f d2e3 d03f e46e d23f 781b ae3f
00000170: 8872 9a3f fd9f e13f ddbb 9d3f eca5 1b3f
00000180: 27fb 273f 8d48 c93f c1c8 bb3f 5286 923f
00000190: eaa3 a83f d7c9 c13e 5a0b 2b3f 1609 6c3f
000001a0: 74be 963f 6800 343f 1aea e33f 2869 b83f
000001b0: 931e 253f ca21 ac3f fef8 103f 99db 343f
000001c0: f301 073f 0e6b d23f e4e2 073f 9534 e03f
000001d0: af61 953e 151a 003f dfb5 eb3f 25d0 f43e
000001e0: 07e7 a93f ea71 053f 1b54 1540 9ecc a23f
000001f0: 5056 c03f 9940 c83e 9f67 943f 3b71 e03f
0.75145054 0.48007277 0.7293472 2.213137 0.15356939 0.6318672 0.8068136 1.8633595
1.7530423 1.3257412 0.8723341 1.3873414 0.9174277 0.3264291 0.5119351 1.2948158
1.1731633 0.898108 1.2583736 0.85732776 1.3079821 1.1415071 1.4442793 1.1548214
0.4635896 1.5018874 0.3966522 1.0889571 1.1190952 0.44487768 1.9056185 1.600574
1.0040156 1.1871839 1.6405897 0.6341864 1.5729446 1.7005266 0.40347767 0.9519539
0.53944224 0.59990597 1.4805632 1.6244936 0.58366287 1.3776134 0.6952994 0.8096376
1.4887097 0.42115283 0.8316911 0.36071375 1.2915992 0.58326405 1.2993968 0.57870775
0.80361056 0.6866099 0.5124166 1.0303391 1.3975385 1.0088196 1.0852262 2.2343664
1.1025915 0.8304879 1.9078014 1.3713505 1.8589886 1.2395321 1.7892035 1.0449919
1.8927668 0.4507118 1.1679511 0.72906506 0.45747444 1.3055488 1.3130012 1.1960571
0.51730746 1.134588 1.7075255 0.96256715 1.9245349 1.1213061 1.3663065 1.0523686
0.85561776 1.6319525 1.6440091 1.3602133 1.2066202 1.762695 1.2322956 0.6080005
0.65617603 1.5725266 1.467064 1.1447241 1.3175023 0.37849304 0.66814196 0.92201364
1.1776872 0.7031312 1.7805817 1.4407091 0.6449978 1.3447812 0.5662993 0.7064758
0.5273735 1.643892 0.5308058 1.7516047 0.2917609 0.500398 1.8414878 0.47815052
1.3273629 0.52126944 2.3332584 1.2718694 1.502634 0.39111784 1.1594123 1.7534555
