TESS_best_residual_mlp_model.pth (torch, 730577 bytes, 24 tensors)

entry.weight f4 [256, 55]
-0.013950348 -0.098680146 -0.08769111 0.12184018 -0.10117247 -0.33588263 0.052539956 0.09975688
-0.007857233 -0.15898462 0.05954305 0.0005102205 0.0102286935 0.040552936 0.00572352 0.118796974
-0.11187604 0.0015608342 0.060509514 -0.14032939 0.088651866 -0.22853315 0.2152703 -0.13667697
0.020924121 -0.37632117 -0.0006684244 -0.03945631 0.0703294 0.011241354 -0.079652 0.12648065
-0.03692978 0.17160407 0.0007895164 0.11147162 0.029479206 -0.016836729 0.09335224 -0.15801258
0.07433391 -0.0980159 -0.039220124 0.041395072 -0.07475671 -0.09454285 -0.016009428 0.015458851
-0.005224925 0.08039258 -0.13265318 0.5287151 -0.016276447 -0.20372835 0.0867012 -0.2851691
-0.33108452 0.17426078 0.04113311 -0.08477124 -0.19741495 0.077806085 -0.016672827 -0.075570635
0.23377644 0.010710487 -0.05882358 -0.04027187 -0.2336661 0.35365394 -0.142225 -0.13406244
0.31314912 0.20553352 -0.07456404 0.12510152 0.042981997 -0.061488796 -0.084465586 0.016419545
-0.047902446 -0.2420676 0.25821778 -0.09338842 -0.0033311045 -0.18840104 0.09517772 -0.09869295
-0.10060267 0.27493504 -0.041727465 0.11061293 -0.20000304 0.12673755 0.19635534 0.103569575
-0.081017576 -0.12715681 -0.04052228 -0.16890642 0.35863984 -0.037352107 -0.105808824 -0.05267985
-0.08043849 -0.050028495 -0.006521987 -0.003909733 -0.13193828 -0.049250506 0.075259976 -0.13149512
-0.21425837 0.040880367 0.16511184 0.1706868 0.06530581 -0.053790413 0.13417159 -0.17242542
0.056089588 0.10579713 0.10164885 -0.15871789 0.059156578 -0.10512646 0.065322995 -0.047396857
-0.13201106 0.17208737 0.015462309 0.025698932 -0.4497626 0.42278674 -0.09855306 0.02042319
0.09232028 -0.17915362 0.114038244 -0.20597292 0.15584858 -0.16825522 -0.13160148 0.060568143
0.2773362 0.053820714 -0.14386825 0.07395953 -0.07193572 0.23965172 -0.02824286 0.068753056
-0.114287876 -0.13541795 -0.23553948 0.10799502 -0.06357115 0.05304355 0.026608586 -0.14953364
-0.07560465 -0.25220165 0.17205669 -0.046899624 0.08301523 -0.03963247 0.03269878 -0.022003254
-0.16973606 0.11643686 0.28372553 0.011990453 -0.087938994 0.091240495 -0.023365432 0.1493498
0.022242017 -0.05613342 0.054158818 0.08478204 0.022309883 0.018280983 0.16420007 -0.01898551
0.06211173 -0.098849386 0.019158084 0.061426852 -0.16559757 -0.11036117 -0.1751185 -0.019930193
-0.09780525 -0.09744997 0.111220926 -0.12552458 0.002723591 -0.12077146 0.15116993 -0.19314103
-0.2229296 -0.051731627 -0.15368894 -0.014468335 -0.14428113 -0.024621163 -0.21517092 -0.0091086775
0.062058914 -0.072296396 -0.17358549 0.044195205 -0.074428186 -0.06626081 -0.11969762 0.039959192
-0.26179442 0.1204013 -0.007464959 -0.07251428 -0.0021974796 0.02867369 -0.0791022 0.10276369
-0.014077431 0.20048785 -0.07691633 0.09593807 0.11450711 -0.028582316 -0.17392877 0.078785904
-0.025329895 0.004685935 -0.18491606 0.0008891541 0.10726291 0.06418894 -0.41629058 0.33042914
0.107053116 -0.09902988 -0.3386599 0.28321263 0.07026185 -0.0011293831 -0.18593353 0.3646058
-0.041530192 0.20104535 -0.36420128 0.34577173 0.018627867 0.36963192 0.15801749 0.054061465
00000000: 0090 64bc d118 cabd 6697 b3bd 5887 f93d
00000010: 8333 cfbd cff8 abbe 2334 573d 564d cc3d
00000020: a0bb 00bc ddcc 22be 6ae3 733d 51c0 053a
00000030: 4096 273c d61a 263d 5e8c bb3b d44b f33d
00000040: 441f e5bd e894 cc3a d3d8 773d 82b2 0fbe
00000050: 1c8f b53d 9804 6abe d16f 5c3e 0cf5 0bbe
00000060: 1069 ab3c 2bad c0be 3439 2fba f19c 21bd
00000070: dc08 903d a82d 383c 9620 a3bd 2584 013e
00000080: ae43 17bd fab8 2f3e 8cf7 4e3a 3c4b e43d
00000090: 607e f13c 2eed 89bc 762f bf3d 0dce 21be
000000a0: 613c 983d 8fbc c8bd 48a5 20bd e18d 293d
000000b0: 0c1a 99bd af9f c1bd 3426 83bc 1f47 7d3c
000000c0: d935 abbb dda4 a43d 3cd6 07be df59 073f
000000d0: 2f56 85bc 2a9e 50be 6690 b13d af01 92be
000000e0: e983 a9be 6b71 323e 317b 283d 8b9c adbd
000000f0: 2527 4abe cc58 9f3d 7495 88bc c7c4 9abd
00000100: 1763 6f3e 0a7b 2f3c fff0 70bd 1ef4 24bd
00000110: 2b46 6fbe 2112 b53e 6ea3 11be aa47 09be
00000120: 1555 a03e 6177 523e 08b5 98bd 9d1a 003e
00000130: e40d 303d addb 7bbd 4bfc acbd 4882 863c
00000140: 5b35 44bd 92e0 77be 1f35 843e 6e42 bfbd
00000150: a94e 5abb 34ec 40be 89ec c23d 881f cabd
00000160: c608 cebd 49c4 8c3e 6bea 2abd 0889 e23d
00000170: 99cd 4cbe 7dc7 013e 6011 493e 491c d43d
00000180: 8bec a5bd 6535 02be b1fa 25bd cef5 2cbe
00000190: a49f b73e 86fe 18bd 4cb2 d8bd d4c6 57bd
000001a0: efbc a4bd aeea 4cbd 64b6 d5bb 381d 80bb
000001b0: d41a 07be e6ba 49bd e721 9a3d a8a6 06be
000001c0: 8c66 5bbe 2c72 273d 1413 293e 85c8 2e3e
000001d0: 0dbf 853d 5653 5cbd 4764 093e 4a90 30be
000001e0: 32be 653d 2aac d83d 462d d03d f186 22be
000001f0: 2b4e 723d 8b4c d7bd 10c8 853d 3523 42bd
00000200: e82d 07be ac37 303e a055 7d3c 9186 d23c
00000210: 4947 e6be 8177 d83e 30d6 c9bd 894e a73c
00000220: 6a12 bd3d 0c74 37be e28c e93d 91ea 52be
00000230: c596 1f3e 194b 2cbe 8ac2 06be 4d16 783d
00000240: 03ff 8d3e 1c73 5c3d 3352 13be 1878 973d
00000250: 0953 93bd 4367 753e 925d e7bc 67ce 8c3d
00000260: c30f eabd 01ab 0abe 4331 71be 7e2c dd3d
00000270: 9731 82bd 3244 593d 40fa d93c 591f 19be
00000280: 9cd6 9abd 9320 81be a12f 303e d219 40bd
00000290: e403 aa3d a855 22bd 28ef 053d 2b40 b4bc
000002a0: 4acf 2dbe 7376 ee3d 7944 913e 9b73 443c
000002b0: 5c19 b4bd 4cdc ba3d dd68 bfbc 27ef 183e
000002c0: e434 b63c 28ec 65bd a3d5 5d3d 35a2 ad3d
000002d0: 37c3 b63c 00c2 953c 1024 283e 8087 9bbc
000002e0: df68 7e3d 8c71 cabd 6af1 9c3c b99a 7b3d
000002f0: 6992 29be 0905 e2bd 4452 33be a544 a3bc
00000300: 1e4e c8bd da93 c7bd ccc7 e33d 8489 00be
00000310: 467e 323b 0757 f7bd 4acc 1a3e c3c6 45be
00000320: a847 64be 8be4 53bd a260 1dbe 980c 6dbc
00000330: 6fbe 13be 52b2 c9bc c455 5cbe 903c 15bc
00000340: 7d31 7e3d 2210 94bd 65c0 31be 0806 353d
00000350: ce6d 98bd bfb3 87bd 0724 f5bd 40ac 233d
00000360: eb09 86be f594 f63d 9d9c f4bb 5e82 94bd
00000370: 9703 10bb 16e5 ea3c 5600 a2bd c575 d23d
00000380: 06a5 66bc b04c 4d3e 4f86 9dbd 2e7b c43d
00000390: b482 ea3d 7625 eabc 621a 32be 815a a13d
000003a0: a480 cfbc 798c 993b a35a 3dbe 1f16 693a
000003b0: a8ac db3d 7e75 833d 0a24 d5be 022e a93e
000003c0: aa3e db3d 2dd0 cabd d564 adbe 3f01 913e
000003d0: 72e5 8f3d cf07 94ba 5c65 3ebe 9dad ba3e
000003e0: 901b 2abd d5de 4d3e 9778 babe fe08 b13e
000003f0: 7899 983c 6540 bd3e 56cf 213e 8e6f 5d3d

entry.bias f4 [256]
-0.08370183 -0.4051174 -0.083497494 -0.13443646 -0.26609588 -0.02667566 -0.059301123 -0.18612084
-0.26327497 -0.11816439 -0.23283705 -0.20374791 -0.06429281 -0.19293484 -0.019898018 -0.05187941
-0.123992644 -0.21749432 -0.19327141 -0.1332665 -0.03714173 -0.19678012 -0.13072331 -0.1646205
0.14487278 0.20996226 -0.0823964 0.008929122 -0.2579289 -0.16146015 -0.12540385 -0.2088504
-0.086562835 -0.2521613 -0.24404988 0.013320086 -0.021156423 -0.15380561 -0.1724503 -0.047472652
-0.26951417 -0.17971627 -0.21331316 -0.14301921 -0.20975769 -0.19970764 -0.0027232335 -0.042408634
-0.1382477 -0.029057983 -0.15238425 -0.12519293 0.039185952 -0.033022624 0.028460957 -0.11979624
-0.10917311 -0.21176799 -0.22951154 -0.08323144 -0.077124834 -0.29425257 -0.060666036 -0.19189839
-0.2260164 -0.1695634 -0.077834845 -0.2694014 -0.13279971 -0.034434676 -0.2283745 -0.2390989
-0.019568788 -0.15187913 -0.10174853 -0.22705998 -0.0994245 0.010048674 -0.2370537 -0.2790728
-0.27502602 -0.13921355 -0.079250105 -0.14186883 -0.09494521 -0.1697071 -0.22242926 -0.02033118
-0.06214843 0.048572347 -0.1457021 -0.037615873 0.04669231 -0.110546894 0.019852208 -0.21435995
-0.124752365 0.07738959 -0.0941847 -0.08406822 0.09827837 -0.087071605 -0.22699574 -0.010407076
-0.093053326 -0.2788692 -0.0445978 -0.02571891 -0.15048712 -0.24716273 0.11640277 -0.075260945
0.15030852 -0.07597603 -0.20585899 -0.14169775 -0.057332937 -0.098782815 -0.110157534 -0.2047977
-0.10201812 -0.17027456 -0.12007865 -0.18393473 -0.2386356 -0.14515908 -0.16388378 -0.105723515
-0.11674794 -0.17420827 -0.15199558 -0.15101674 -0.083226986 -0.08720918 -0.029226972 -0.2163394
0.09453905 -0.27901915 -0.06532415 -0.20674506 -0.05037259 -0.055148907 -0.22111125 -0.25396454
0.018161943 -0.15631652 -0.26603833 -0.16730379 -0.22567907 -0.03995085 -0.19752385 -0.18871751
-0.018132564 0.020648798 -0.18453725 -0.34023696 -0.096862614 -0.05138042 -0.18225707 -0.0011188294
-0.16923901 -0.15633467 -0.06724023 0.053612016 -0.11072079 0.09923533 -0.18662795 -0.10637808
-0.051852003 -0.1090746 -0.16451226 -0.3270904 -0.049659185 0.09676894 0.053434994 -0.17010552
0.002077563 -0.18387526 -0.22348344 0.09174683 -0.024352133 -0.12541455 -0.0012870936 -0.15225509
-0.12873836 -0.25236914 -0.030192142 -0.11969818 -0.021352338 -0.13653918 -0.048909865 -0.26523292
-0.2114707 -0.17005491 -0.039834406 -0.25065297 -0.1246909 -0.05366691 -0.24148189 0.01518558
-0.05251012 -0.1952094 -0.0034892326 -0.1791002 -0.07980172 -0.294635 -0.019963041 -0.017464798
0.114045314 -0.1843481 -0.11609746 -0.1149418 -0.11640494 -0.019123454 -0.2408164 -0.18455069
-0.08572092 -0.03863747 -0.25775492 0.054481182 -0.20809962 0.041863136 -0.018108817 -0.014389606
0.07991205 -0.071782604 -0.045889754 -0.05389597 -0.13281184 -0.2512309 -0.21636778 -0.17397794
0.010125372 -0.10732053 -0.13829747 -0.11283425 -0.35505068 -0.15005964 0.21281722 -0.11340238
0.029580442 -0.07167296 -0.038052768 -0.16937888 -0.080978006 -0.062004063 -0.15084878 -0.13263254
-0.086829685 -0.14010173 -0.062355135 -0.08256219 -0.065427184 -0.092030376 -0.044909425 -0.00036443165
00000000: dd6b abbd 8c6b cfbe bc00 abbd b6a9 09be
00000010: b83d 88be ea86 dabc bce5 72bd 7696 3ebe
00000020: facb 86be 2c00 f2bd d66c 6ebe 4ba3 50be
00000030: f3ab 83bd b690 45be 2b01 a3bc 817f 54bd
00000040: dbef fdbd d5b6 5ebe f1e8 45be 0377 08be
00000050: ed21 18bd ba80 49be 55dc 05be 4792 28be
00000060: 8859 143e 5900 573e 72bf a8bd 744b 123c
00000070: 420f 84be cf55 25be de69 00be e1dc 55be
00000080: db47 b1bd 491b 81be 36e8 79be 7d3c 5a3c
00000090: 3c50 adbc 387f 1dbe d096 30be af72 42bd
000000a0: c3fd 89be 8b07 38be c46e 5abe a173 12be
000000b0: b8ca 56be 2980 4cbe 4778 32bb adb4 2dbd
000000c0: ce90 0dbe 020b eebc 9e0a 1cbe 9332 00be
000000d0: 7381 203d bb42 07bd f426 e93c bb57 f5bd
000000e0: 2796 dfbd b5d9 58be 1305 6bbe 3f75 aabd
000000f0: a0f3 9dbd 46a8 96be f37c 78bd 0381 44be
00000100: d870 67be 07a2 2dbe e067 9fbd fbee 89be
00000110: a6fc 07be 600b 0dbd 01db 69be 58d6 74be
00000120: b94e a0bc 3486 1bbe 8961 d0bd 6982 68be
00000130: 129f cbbd 32a3 243c 35be 72be a1e2 8ebe
00000140: 36d0 8cbe ff8d 0ebe e14d a2bd 1046 11be
00000150: a272 c2bd b3c7 2dbe 7fc4 63be 938d a6bc
00000160: 5a8f 7ebd ccf3 463d ee32 15be 1a13 1abd
00000170: 7040 3f3d 6966 e2bd 19a1 a23c 2d81 5bbe
00000180: 2b7e ffbd 6f7e 9e3d e8e3 c0bd f52b acbd
00000190: 2c46 c93d 9952 b2bd 9271 68be 7182 2abc
000001a0: be92 bebd f2c7 8ebe 2fac 36bd 77b0 d2bc
000001b0: 4c19 1abe 3a18 7dbe 9364 ee3d 6922 9abd
000001c0: 7aea 193e 5299 9bbd b3cc 52be 3719 11be
000001d0: f1d5 6abd a54e cabd 469a e1bd 7db6 51be
000001e0: e0ee d0bd 745c 2ebe cceb f5bd 6359 3cbe
000001f0: e45c 74be 95a4 14be 26d1 27be 9285 d8bd
00000200: 8b19 efbd a763 32be bba4 1bbe 22a4 1abe
00000210: e972 aabd ba9a b2bd 676d efbc 1388 5dbe
00000220: b09d c13d 99db 8ebe abc8 85bd fab4 53be
00000230: 7d53 4ebd d2e3 61bd fd6a 62be a407 82be
00000240: 5bc8 943c 7011 20be 2d36 88be af51 2bbe
00000250: 6a18 67be 81a3 23bd b143 4abe 2a3f 41be
00000260: be8a 94bc ab27 a93c 55f7 3cbe 8a33 aebe
00000270: e85f c6bd 4674 52bd 99a1 3abe afa5 92ba
00000280: fe4c 2dbe 3216 20be 3fb5 89bd 4698 5b3d
00000290: 95c1 e2bd e53b cb3d 661b 3fbe c0dc d9bd
000002a0: c462 54bd 8162 dfbd e775 28be 6578 a7be
000002b0: 6e67 4bbd cb2e c63d a7de 5a3d 2430 2ebe
000002c0: b927 083b cc49 3cbe d8d8 64be c3e5 bb3d
000002d0: 207e c7bc ac6c 00be b2b3 a8ba c2e8 1bbe
000002e0: fdd3 03be 8736 81be 8355 f7bc 5224 f5bd
000002f0: 19eb aebc edd0 0bbe b655 48bd 9ccc 87be
00000300: c68b 58be e022 2ebe 6729 23bd 9655 80be
00000310: f15d ffbd d5d1 5bbd 0747 77be f0cc 783c
00000320: da14 57bd f9e4 47be 9cab 64bb 0b66 37be
00000330: 166f a3bd 66da 96be 8889 a3bc 5612 8fbc
00000340: 9790 e93d c0c5 3cbe 81c4 edbd 9b66 ebbd
00000350: b765 eebd caa8 9cbc 9398 76be dbfa 3cbe
00000360: 738e afbd 5342 1ebd 74f8 83be a927 5f3d
00000370: 1118 55be ae78 2b3d f158 94bc 62c2 6bbc
00000380: eea8 a33d c202 93bd e5f6 3bbd 05c2 5cbd
00000390: d4ff 07be 56a1 80be 848f 5dbe 4627 32be
000003a0: e3e4 253c deca dbbd da9d 0dbe a515 e7bd
000003b0: 34c9 b5be 3ca9 19be c2ec 593e 823f e8bd
000003c0: af52 f23c 46c9 92bd 38dd 1bbd a871 2dbe
000003d0: ccd7 a5bd f9f7 7dbd 1a78 1abe d3d0 07be
000003e0: c3d3 b1bd d476 0fbe 1968 7fbd 5e16 a9bd
000003f0: b0fe 85bd 6c7a bcbd f2f2 37bd 3011 bfb9

res_block1.fc.weight f4 [256, 256]
-0.06416903 -0.14983499 0.16009751 -0.12601185 0.06049529 0.0043701595 0.037034206 0.047598552
-0.0025775887 0.063000716 -0.041923113 0.021840053 -0.013727989 -0.023748722 0.16929595 -0.020099208
-0.037515 -0.03731401 -0.14661503 0.16098528 -0.079214096 -0.014348923 -0.008006274 -0.04351482
0.12686725 0.13333982 -0.0017469883 -0.0018534856 -0.14770159 -0.002671026 0.09974581 0.055725385
-0.07346182 0.026815956 0.010197525 0.05114371 0.2230238 0.049507443 -0.057118002 0.08585885
-0.04360765 -0.043206662 0.03583862 0.009897739 -0.08408131 0.12264923 -0.035817225 0.1492566
0.015179839 -0.06546586 0.13522065 0.015376629 0.09141797 0.12421041 0.114385866 0.13282093
-0.017494995 -0.06416179 0.011098778 0.060519703 0.05829979 -0.15083916 -0.08193641 0.15380302
-0.19400336 -0.03442559 0.13047601 -0.06922333 0.03744643 0.03298579 0.12043899 0.061706625
-0.116424054 0.11222151 0.042412452 -0.002473572 0.06012761 0.22875386 0.18753451 0.121921636
-0.12368186 -0.1771715 -0.017721971 -0.021475924 0.017721646 -0.03249285 -0.03555916 0.005054901
0.06959774 0.060927227 0.046251833 0.040151395 0.09427066 0.027621474 0.09526771 0.1106647
0.031723313 0.121623136 0.024462573 0.047626514 0.034660976 0.012927034 -0.023587838 0.025135504
0.0791002 0.028420893 0.04734976 0.005894618 -0.097265616 -0.10886727 0.0632252 0.15567201
0.13255915 -0.022373965 -0.022312697 -0.015071551 0.0037078485 0.12975347 0.07220194 0.052951686
0.107425556 0.033446055 0.037610807 0.028180258 -0.18922475 -0.0069477344 -0.10155347 0.032414064
0.08086897 0.02966164 -0.05243542 0.083514534 0.051205188 0.085168846 -0.039004754 -0.044136744
0.1195446 0.1731354 0.13268724 -0.16813524 0.013899855 0.11104511 -0.04479627 0.032267325
0.11079954 -0.13082518 0.0021183426 0.00901696 0.08670839 -0.004041125 0.09237362 0.031214109
0.027126202 0.08935869 0.033828825 -0.017152397 -0.018746868 0.047711268 0.05351944 0.17287955
0.18307903 0.124320515 0.042235333 0.094906814 0.03773929 0.12890273 -0.03365163 -0.0006530487
0.10092236 0.14838326 -0.03439699 -0.055965383 0.16448434 0.027789628 0.05074999 0.07187795
0.10626488 0.008836692 0.13568608 0.117444135 0.017557066 0.06378087 -0.076934494 -0.036941666
-0.0316979 0.021426853 -0.026469454 0.09875641 0.012539257 0.08751637 0.04610199 -0.106389046
-0.1626989 -0.09406796 -0.08840751 -0.06177173 0.0967388 0.07875763 -0.04281982 -0.031393066
0.040379174 -0.055377856 0.083355464 0.02432019 -0.054243144 -0.20438285 0.054524776 0.073492475
0.10989918 -0.068039656 -0.021352509 0.08050549 0.117831565 0.012980971 0.020442529 0.10177869
0.024569243 0.004038183 -0.038589343 0.16655546 -0.03746996 -0.01826944 0.0810518 -0.063302316
-0.1100374 0.13506216 0.1342628 0.032563247 -0.0729856 0.0036185237 0.021866472 0.031586897
0.034766547 0.003995011 0.059780426 0.0005999569 -0.082328804 -0.04307979 0.13659213 -0.0449715
-0.03409728 0.11538779 0.044355147 0.16849287 0.054432422 0.09891639 0.046122883 -0.1995798
0.057875838 -0.037248455 -0.0024715015 0.029848782 0.04749457 0.09895836 0.100776486 0.026504682
00000000: 0d6b 83bd 586e 19be 9af0 233e 4009 01be
00000010: e9c9 773d 8e33 8f3b 2eb1 173d b3f6 423d
00000020: c3ec 28bb 8506 813d 92b7 2bbd e9e9 b23c
00000030: 5ceb 60bc ae8c c2bc eb5b 2d3e 18a7 a4bc
00000040: 54a9 19bd 93d6 18bd 4022 16be 53d9 243e
00000050: 003b a2bd bf17 6bbc bf2c 03bc 993c 32bd
00000060: 7de9 013e 3c8a 083e 33fb e4ba a8f0 f2ba
00000070: 163f 17be 610c 2fbb 8847 cc3d 4d40 643d
00000080: 2773 96bd 23ad db3c 8513 273c 117c 513d
00000090: 5a60 643e 51c8 4a3d 91f4 69bd c4d6 af3d
000000a0: ef9d 32bd 78f9 30bd 84cb 123d 202a 223c
000000b0: d232 acbd 852f fb3d 15b5 12bd b9d6 183e
000000c0: dcb4 783c f712 86bd 4877 0a3e 42ee 7b3c
000000d0: 5839 bb3d 0762 fe3d 2343 ea3d 3602 083e
000000e0: aa51 8fbc 4267 83bd a6d7 353c 82e3 773d
000000f0: c3cb 6e3d 9575 1abe 47ce a7bd 8a7e 1d3e
00000100: d1a8 46be d901 0dbd 819b 053e f6c4 8dbd
00000110: 6e61 193d 1c1c 073d b8a8 f63d 16c0 7c3d
00000120: bc6f eebd 64d4 e53d aeb8 2d3d a71b 22bb
00000130: 5e48 763d 743e 6a3e 0c09 403e 0db2 f93d
00000140: ea4c fdbd 726c 35be ab2d 91bc 47ee afbc
00000150: fc2c 913c 3917 05bd 7ba6 11bd 95a3 a53b
00000160: 4389 8e3d d48e 793d 9072 3d3d ca75 243d
00000170: fa10 c13d 6e46 e23c b81b c33d 2da4 e23d
00000180: 4ef0 013d 8d15 f93d bc65 c83c 0514 433d
00000190: abf8 0d3d e9cb 533c 483b c1bc f9e8 cd3c
000001a0: 49ff a13d efd2 e83c d2f1 413d a427 c13b
000001b0: 3233 c7bd cef5 debd 377c 813d 7c68 1f3e
000001c0: 96bd 073e 9b49 b7bc 1ec9 b6bc abee 76bc
000001d0: 60ff 723b 18de 043e 9cde 933d dee3 583d
000001e0: ee01 dc3d bbfe 083d ca0d 1a3d 49da e63c
000001f0: 22c4 41be d2a9 e3bb 44fb cfbd 9cc4 043d
00000200: a19e a53d f8fc f23c 86c6 56bd ab09 ab3d
00000210: 88bc 513d 016d ae3d 73c3 1fbd bbc8 34bd
00000220: cdd3 f43d 684a 313e 2adf 073e a52b 2cbe
00000230: 38bc 633c 9e6b e33d 4b7c 37bd be2a 043d
00000240: dfea e23d 09f7 05be e4d3 0a3b dfbb 133c
00000250: 2b94 b13d 6a6b 84bb 612e bd3d bbb4 ff3c
00000260: c537 de3c b001 b73d 1890 0a3d 2f83 8cbc
00000270: 0893 99bc e46c 433d 3337 5b3d 5607 313e
00000280: 1279 3b3e c19b fe3d f5fe 2c3d 815e c23d
00000290: 8494 1a3d 14ff 033e 4bd6 09bd 5b31 2bba
000002a0: 62b0 ce3d c8f1 173e dce3 0cbd f53b 65bd
000002b0: 956e 283e 13a7 e33c 39df 4f3d bf34 933d
000002c0: 67a1 d93d c6c7 103c 4bf1 0a3e 8d86 f03d
000002d0: d6d3 8f3c 8b9f 823d d58f 9dbd 2550 17bd
000002e0: a8d5 01bd 5e87 af3c 78d6 d8bc cd40 ca3d
000002f0: 7571 4d3c c83b b33d 71d5 3c3d 80e2 d9bd
00000300: 8a9a 26be b4a6 c0bd ff0e b5bd 5b04 7dbd
00000310: fe1e c63d ae4b a13d d663 2fbd 0496 00bd
00000320: a264 253d e4d3 62bd 45b6 aa3d 233b c73c
00000330: 0f2e 5ebd bd49 51be 5f55 5f3d 3983 963d
00000340: d212 e13d 6058 8bbd 75eb aebc 10e0 a43d
00000350: ad51 f13d 23ae 543c 1777 a73c 5971 d03d
00000360: 7045 c93c bc52 843b dc0f 1ebd 848d 2a3e
00000370: 1a7a 19bd cba9 95bc 7cfe a53d a5a4 81bd
00000380: 4a5b e1bd bc4d 0a3e 307c 093e 0a61 053d
00000390: 7979 95bd c124 6d3b 5121 b33c 4361 013d
000003a0: 5e67 0e3d 95e8 823b 52dc 743d 6d46 1d3a
000003b0: 019c a8bd 6f74 30bd cfde 0b3e 0934 38bd
000003c0: 97a9 0bbd 6f50 ec3d bead 353d 6589 2c3e
000003d0: 88f4 5e3d ad94 ca3d 59eb 3c3d a65e 4cbe
000003e0: 370f 6d3d d691 18bd eaf8 21bb 6f85 f43c
000003f0: ab89 423d aeaa ca3d e763 ce3d 5920 d93c

res_block1.fc.bias f4 [256]
0.16439715 0.14760503 0.045032937 -0.13222449 -0.014364403 -0.098882556 -0.059847794 0.108744696
0.15604836 0.22636749 0.11180113 0.19337662 0.07539896 0.13512717 0.05992325 0.19220486
0.22870423 0.13516387 -0.10721119 0.13514529 0.13984077 0.005379065 0.021821884 0.15560797
0.23598684 0.030683879 -0.08107431 0.088198856 0.015198532 0.23237574 -0.018206464 -0.10266993
-0.021048881 -0.013000834 0.121843375 0.11826424 0.040922947 0.06465098 0.19808488 0.17476238
0.13031748 0.15659276 0.12612061 0.060294792 0.18820222 0.061458424 0.22613172 -0.099184915
0.18660474 0.04719177 0.07671499 -0.001790449 0.13778123 0.24190266 -0.026293488 0.17106906
0.22497171 -0.05994083 -0.16218811 0.00526137 0.12783311 -0.1738866 0.14356942 0.18229002
0.06166663 0.075840175 0.06171755 0.011987083 0.004331184 0.08518723 -0.09972311 0.13490264
0.07172895 0.22156474 -0.045263607 0.18134348 0.21964863 0.024453362 0.06913541 0.013390551
0.15180187 0.16262023 0.1954036 -0.009515323 0.009419064 -0.2550163 -0.00545256 -0.05783633
0.16127963 0.14313735 0.23249021 -0.10164176 0.16635062 0.08176378 0.16138203 -0.10747464
0.22541788 0.16935425 0.18320294 0.18160002 -0.13563539 -0.15425013 -0.08695411 0.21669893
0.12915282 -0.14003685 0.0706759 -0.07144011 -0.038828343 0.18203603 0.11658767 0.019281894
-0.029031666 0.13314468 -0.041546147 0.22436063 0.22709815 0.18338628 -0.3086867 -0.05732481
-0.0067386944 0.06710623 0.2237701 -0.044302445 -0.03980991 0.037334777 0.1801103 0.13471541
0.039193463 0.18930136 0.18550289 0.19945504 0.028315779 -0.008110887 0.17336755 0.1523464
-0.060830478 0.118841395 0.13329376 0.084891506 -0.18083768 0.011737475 0.04205622 -0.093937136
-0.106687486 0.09331289 0.08252997 -0.058583017 -0.025414757 -0.010738256 -0.03673483 0.0471701
0.24551697 0.24322559 0.11922967 -0.01212117 0.027352836 -0.0032523829 0.24380308 0.09084425
0.22132514 -0.09247105 0.11457945 0.25767043 -0.24787523 0.16607843 0.21269162 0.16679327
-0.1702111 0.17815478 0.17538117 0.15137203 0.2093813 -0.098321095 0.22213697 0.16220401
0.20850466 0.18578903 -0.0822873 0.19138856 0.1413941 0.21983373 -0.019442506 0.20523325
0.16765414 0.16046755 0.07252076 0.12862118 0.01022999 0.054473564 -0.1046934 0.057949673
0.10804051 0.107685216 -0.11674513 0.049833752 0.17202647 0.13893403 -0.15114266 0.09024313
0.22824623 -0.023989812 0.1311269 0.15454681 0.074689545 -0.03425215 0.16474071 0.15540823
0.1632747 -0.029758425 0.13726012 -0.097436994 -0.094781876 0.101762444 0.100434996 0.19002771
0.15126193 -0.046098765 0.10331815 0.11502309 0.18490496 0.16010901 0.021252662 -0.12748894
-0.15103504 0.07674775 0.20935553 0.20196965 0.12866454 -0.118444495 0.047563057 -0.13083516
0.22852191 0.034160372 -0.09984009 0.14473063 0.18478645 0.20904382 0.12304179 0.18568538
-0.034378976 -0.13192382 0.15066996 0.1732616 0.17459933 -0.12187987 0.19453868 0.005490362
-0.006418258 -0.038242817 -0.0030885132 -0.035517342 -0.18801078 -0.078138545 0.21672747 0.115705684
00000000: ba57 283e c625 173e 7574 383d db65 07be
00000010: ac58 6bbc f082 cabd f622 75bd 8ab5 de3d
00000020: 24cb 1f3e e1cc 673e fef7 e43d 8504 463e
00000030: c56a 9a3d c75e 0a3e 1572 753d 5ad1 443e
00000040: 7131 6a3e 6668 0a3e 8a91 dbbd 8763 0a3e
00000050: 6b32 0f3e de42 b03b cfc3 b23c b257 1f3e
00000060: 89a6 713e c25c fb3c 4a0a a6bd 9aa1 b43d
00000070: 4303 793c e8f3 6d3e b925 95bc 9d44 d2bd
00000080: b46e acbc 7301 55bc 0589 f93d 8634 f23d
00000090: d29e 273d bc67 843d c3d6 4a3e e9f4 323e
000000a0: f271 053e da59 203e c325 013e acf7 763d
000000b0: 15b8 403e d4bb 7b3d 138f 673e 7621 cbbd
000000c0: 5015 3f3e 284c 413d c01c 9d3d 80ad eaba
000000d0: 8616 0d3e 55b5 773e 7165 d7bc ba2c 2f3e
000000e0: fc5e 663e 8484 75bd a414 26be 9267 ac3b
000000f0: afe6 023e 540f 32be dd03 133e 3caa 3a3e
00000100: 2696 7c3d 1852 9b3d 8bcb 7c3d 7865 443c
00000110: 9bec 8d3b a476 ae3d a13b ccbd eb23 0a3e
00000120: a1e6 923d dee1 623e 5566 39bd 1bb2 393e
00000130: 92eb 603e 6b52 c83c de96 8d3d 0b64 5b3c
00000140: f371 1b3e eb85 263e e217 483e 28e6 1bbc
00000150: 6b52 1a3c 7f91 82be 63ab b2bb cae5 6cbd
00000160: 7d26 253e 9992 123e ea11 6e3e 8e29 d0bd
00000170: d157 2a3e c573 a73d 5541 253e aa1b dcbd
00000180: f2d3 663e 336b 2d3e 8d99 3b3e 5bf5 393e
00000190: 01e4 0abe bff3 1dbe ff14 b2bd 53e6 5d3e
000001a0: a340 043e d265 0fbe 87be 903d 314f 92bd
000001b0: 780a 1fbd a767 3a3e 84c5 ee3d 10f5 9d3c
000001c0: d1d3 edbc 1457 083e 4b2c 2abd cbbe 653e
000001d0: 6b8c 683e 9dc9 3b3e 2f0c 9ebe 6ccd 6abd
000001e0: 44d0 dcbb fe6e 893d fd23 653e 7b76 35bd
000001f0: b70f 23bd 5aec 183d d66e 383e d6f2 093e
00000200: 5389 203d 37d8 413e 78f4 3d3e f13d 4c3e
00000210: 7ef6 e73c 87e3 04bc 4387 313e b200 1c3e
00000220: 6129 79bd 1e63 f33d 297e 083e 99db ad3d
00000230: 832d 39be 8a4e 403c 2543 2c3d 1d62 c0bd
00000240: f87e dabd d41a bf3d 7905 a93d bff4 6fbd
00000250: 9c32 d0bc 83ef 2fbc 4377 16bd 6f35 413d
00000260: cd68 7b3e 2110 793e af2e f43d df97 46bc
00000270: 0e13 e03c ee25 55bb 84a7 793e 8d0c ba3d
00000280: 0fa3 623e 7661 bdbd a1a8 ea3d 61ed 833e
00000290: 01d3 7dbe 7710 2a3e d5cb 593e dbcb 2a3e
000002a0: d24b 2ebe 356e 363e 1f97 333e 4501 1b3e
000002b0: 0d68 563e 925c c9bd e077 633e cf18 263e
000002c0: 3f82 553e 7b3f 3e3e 3e86 a8bd 5dfb 433e
000002d0: 9dc9 103e 181c 613e e445 9fbc aa28 523e
000002e0: 87ad 2b3e 9b51 243e c485 943d 45b5 033e
000002f0: b09b 273c ac1f 5f3d 7e69 d6bd a35c 6d3d
00000300: 5844 dd3d 118a dc3d 1218 efbd 7a1e 4c3d
00000310: b527 303e b944 0e3e 24c5 1abe 64d1 b83d
00000320: 61b9 693e 4886 c4bc 2146 063e 8541 1e3e
00000330: d5f6 983d fc4b 0cbd cab1 283e 5623 1f3e
00000340: 7c31 273e f1c7 f3bc eb8d 0c3e 0c8d c7bd
00000350: 001d c2bd d468 d03d ddb0 cd3d a096 423e
00000360: 68e4 1a3e 0fd2 3cbd 7798 d33d 3a91 eb3d
00000370: ba57 3d3e 9ef3 233e 101a ae3c 768c 02be
00000380: eea8 1abe ed2d 9d3d 4c61 563e 22d1 4e3e
00000390: a3c0 033e 0793 f2bd 7bd1 423d a7f9 05be
000003a0: a601 6a3e bfeb 0b3d f678 ccbd 4434 143e
000003b0: a938 3d3e 950f 563e 56fd fb3d 4f24 3e3e
000003c0: f8d0 0cbd 0a17 07be 3a49 1a3e 7d6b 313e
000003d0: 2bca 323e 279c f9bd 2635 473e 7fe8 b33b
000003e0: 4050 d2bb 80a4 1cbd a768 4abb a27a 11bd
000003f0: e685 40be 1a07 a0bd ceed 5d3e 1af7 ec3d

res_block1.ln.weight f4 [256]
0.70954406 0.81949776 0.9308672 1.2573917 0.87064236 1.4809717 1.5622776 0.8620124
0.5479332 0.64787394 0.806779 0.5710752 0.8936967 0.7717552 1.0516272 0.65845495
0.48878047 0.7128069 1.3549535 0.9040237 0.5789022 1.2571269 1.2058777 0.56187606
0.5099254 1.0884132 1.2089769 0.936781 0.8954603 0.76705766 1.1639401 1.4251724
1.1877432 1.098149 0.6343237 0.7517037 0.9513655 0.9445182 0.5105341 0.700783
0.6856389 0.7638929 0.8236389 1.0419594 0.536336 0.8853685 0.71090305 1.300254
0.50943464 1.1055799 1.1812444 1.2273659 0.6280291 0.52661806 1.2528499 0.51296896
0.43745124 1.1062849 1.4748085 1.1880633 0.9906274 1.439025 0.5218138 0.838397
0.88110745 0.8856506 1.2829084 0.9743823 1.2006361 0.7096478 1.2549925 0.6272196
1.094894 0.7066798 1.2516847 0.8176709 0.5559081 1.1186988 1.088479 1.2027864
0.46470556 0.61972433 0.566701 1.2986892 0.8767501 1.6797428 1.0976535 1.2764269
0.8742868 0.86060697 0.5355654 1.2128356 0.7459354 0.97896886 0.6863427 1.4305484
0.718194 0.6355811 0.53101516 0.76458687 1.4315553 1.3458025 1.3129317 0.64080626
0.72198194 1.2954519 0.95898813 1.3392203 1.2241668 0.5918797 0.7315342 1.2847508
1.1043957 0.6970631 1.2942274 0.47602382 0.6119795 0.8503035 1.578229 1.2337369
1.127309 1.3296264 0.47416976 1.346429 1.4731214 0.93745553 0.62771356 0.89338654
1.1691655 0.5092951 0.6011398 0.4119591 1.1711907 1.164888 0.61684203 0.6176697
1.0443476 0.76059294 0.56032765 0.61275774 1.5384194 1.1963375 1.1646321 1.3308028
1.3577303 1.0085642 0.9055302 1.2618707 1.2944543 1.0698196 1.4228282 1.1423275
0.6809864 0.5934648 0.6167193 1.2869855 0.90413815 1.0594041 0.70446634 0.8567294
0.80262005 1.5127323 0.89939886 0.68417764 1.6544502 0.9119375 0.79141057 0.5059564
1.3841397 0.59942555 0.6146049 0.582592 0.57713455 1.27424 0.71113676 0.666302
0.86750376 0.7143406 1.1063042 0.6412454 0.584728 0.70822936 1.2438035 0.60464203
0.53541327 0.7198253 0.93925965 0.84658056 1.1453375 0.8970703 1.3793298 1.0018356
0.8195331 0.9370185 1.3238833 1.140884 0.76736426 0.8165331 1.4196174 0.6213145
0.6758042 1.194882 0.88288224 0.781239 0.762798 1.1730561 0.7194108 0.507897
0.6089757 0.98636395 0.8542041 1.2978352 1.1839545 0.90448284 1.1415731 0.47997662
1.0593566 1.2229279 0.8388162 0.71109897 0.5778465 0.7202615 1.1367542 1.4101921
1.273265 0.98404306 0.4918722 0.70316064 0.74047613 1.2566526 1.263362 1.4005919
0.5272861 0.8524986 1.3211192 0.6875747 0.6203318 0.63078684 0.8630763 0.67095345
1.1319095 1.4957966 0.74776196 0.67045766 0.7379117 1.2273945 0.7360415 1.3637834
1.3934255 1.2199103 1.1638706 1.1833848 1.4447932 1.1013206 0.5162495 0.85902303
00000000: aea4 353f 9bca 513f 504d 6e3f 36f2 a03f
00000010: 6be2 5e3f 7b90 bd3f b6f8 c73f d8ac 5c3f
00000020: 5a45 0c3f 11db 253f 1289 4e3f fc31 123f
00000030: 4fc9 643f c091 453f b89b 863f 8190 283f
00000040: 6f41 fa3e 837a 363f 1e6f ad3f 196e 673f
00000050: ef32 143f 89e9 a03f 335a 9a3f 1cd7 0f3f
00000060: 798a 023f 2051 8b3f c1bf 9a3f e1d0 6f3f
00000070: e33c 653f e45d 443f fdfb 943f 0d6c b63f
00000080: f807 983f 2590 8c3f 0a63 223f a76f 403f
00000090: b08c 733f f2cb 713f 5db2 023f 8466 333f
000000a0: 0886 2f3f 7c8e 433f 00da 523f ed5e 853f
000000b0: 514d 093f 83a7 623f befd 353f b96e a63f
000000c0: 4f6a 023f a483 8d3f 0433 973f 531a 9d3f
000000d0: 84c6 203f 71d0 063f 635d a03f ef51 033f
000000e0: 9cf9 df3e be9a 8d3f 86c6 bc3f 7512 983f
000000f0: c299 7d3f f931 b83f 9795 053f 30a1 563f
00000100: 4290 613f ffb9 623f 5836 a43f 1e71 793f
00000110: 72ae 993f 7aab 353f 98a3 a03f 7791 203f
00000120: 7d25 8c3f f8e8 343f 3437 a03f e152 513f
00000130: fe4f 0e3f 8631 8f3f 4853 8b3f e8f4 993f
00000140: e3ed ed3e 41a6 1e3f 5113 113f 733b a63f
00000150: b272 603f d001 d73f e97f 8c3f f561 a33f
00000160: 42d1 5f3f bd50 5c3f d01a 093f 323e 9b3f
00000170: 9ff5 3e3f b49d 7a3f 28b4 2f3f 361c b73f
00000180: 90db 373f 71b5 223f 9cf0 073f f7bb 433f
00000190: 343d b73f 4243 ac3f 250e a83f e10b 243f
000001a0: cfd3 383f 5ed1 a53f 3f80 753f 926b ab3f
000001b0: 7fb1 9c3f 6e85 173f d345 3b3f b772 a43f
000001c0: d75c 8d3f ba72 323f 3ea9 a53f 65b9 f33e
000001d0: b0aa 1c3f 7dad 593f 6803 ca3f 17eb 9d3f
000001e0: a94b 903f 3331 aa3f 61c6 f23e c957 ac3f
000001f0: 3e8f bc3f 16fd 6f3f d6b1 203f fbb4 643f
00000200: 37a7 953f 2a61 023f 4ce4 193f 4eec d23e
00000210: 94e9 953f 0d1b 953f 5ce9 1d3f 9a1f 1e3f
00000220: 2fad 853f 38b6 423f a271 0f3f b1dd 1c3f
00000230: edea c43f 9621 993f aa12 953f bf57 aa3f
00000240: 1bca ad3f a218 813f d4d0 673f fb84 a13f
00000250: aeb0 a53f d9ef 883f 3c1f b63f ca37 923f
00000260: 2055 2e3f 4fed 173f 51e1 1d3f f1bb a43f
00000270: 9975 673f 8e9a 873f e857 343f 9e52 5b3f
00000280: 8278 4d3f 36a1 c13f 013f 663f 4426 2f3f
00000290: 06c5 d33f bc74 693f e299 4a3f 5c86 013f
000002a0: 7d2b b13f f473 193f bf56 1d3f c024 153f
000002b0: 17bf 133f 4c1a a33f 0f0d 363f c592 2a3f
000002c0: ba14 5e3f 07df 363f 609b 8d3f a928 243f
000002d0: bcb0 153f 854e 353f f434 9f3f d2c9 1a3f
000002e0: d810 093f 7946 383f 5273 703f 81b9 583f
000002f0: 6b9a 923f 66a6 653f e18d b03f 263c 803f
00000300: eccc 513f 72e0 6f3f 0275 a93f 7d08 923f
00000310: fc71 443f 5008 513f 06b6 b53f 780e 1f3f
00000320: 8101 2d3f e5f1 983f 9204 623f 47ff 473f
00000330: bb46 433f b426 963f 4e2b 383f 8a05 023f
00000340: d5e5 1b3f 5982 7c3f 1fad 5a3f 771f a63f
00000350: d28b 973f 308c 673f 111f 923f 7fbf f53e
00000360: ff98 873f e788 9c3f a9bc 563f 950a 363f
00000370: c0ed 133f 0f63 383f 2981 913f 2d81 b43f
00000380: 59fa a23f 3fea 7b3f acd6 fb3e 5602 343f
00000390: d88f 3d3f fed9 a03f d9b5 a13f 9846 b33f
000003a0: 39fc 063f 593d 5a3f 6f1a a93f e504 303f
000003b0: 11ce 1e3f 3f7b 213f 92f2 5c3f 9bc3 2b3f
000003c0: 69e2 903f 4376 bf3f 546d 3f3f 1da3 2b3f
000003d0: c8e7 3c3f 431b 9d3f 376d 3c3f 7490 ae3f
000003e0: c45b b23f 0526 9c3f b6f9 943f 2779 973f
000003f0: fcee b83f 13f8 8c3f ed28 043f efe8 5b3f

res_block1.ln.bias f4 [256]
-0.3654741 -0.36563787 -0.32036573 -0.3439085 -0.3676394 -0.34290484 -0.40617403 -0.38603967
-0.39974236 -0.40828824 -0.35030118 -0.36935708 -0.30749208 -0.33979675 -0.37901506 -0.36547732
-0.41971448 -0.3030968 -0.22853994 -0.2984768 -0.42979035 -0.3476729 -0.3476204 -0.35391173
-0.5280304 -0.20166096 -0.25080478 -0.26713732 -0.3409023 -0.28316313 -0.33828086 -0.24466464
-0.24487588 -0.3671101 -0.34705594 -0.26489788 -0.30991626 -0.374132 -0.33551523 -0.2825664
-0.30131468 -0.30429292 -0.36530462 -0.23660286 -0.41460916 -0.33110815 -0.3552865 -0.2759513
-0.38296637 -0.20048541 -0.31510717 -0.3179446 -0.2916106 -0.5243194 -0.240017 -0.39075294
-0.44178253 -0.28239125 -0.4213834 -0.38435575 -0.26972935 -0.46238166 -0.39779884 -0.37212053
-0.35303327 -0.3704288 -0.29021665 -0.3655287 -0.2524609 -0.33172387 -0.33050996 -0.3320573
-0.3798294 -0.3920428 -0.27098498 -0.29379302 -0.27984726 -0.2792075 -0.3404173 -0.41235045
-0.37285164 -0.34521773 -0.3574484 -0.3213274 -0.41783133 -0.31458774 -0.314391 -0.3574187
-0.36091864 -0.23958844 -0.44250575 -0.36131647 -0.36310664 -0.28366733 -0.45421213 -0.45654327
-0.31460905 -0.43618694 -0.4120078 -0.42613026 -0.23591888 -0.24814501 -0.27315846 -0.40453294
-0.22554886 -0.42841068 -0.31065193 -0.27347577 -0.32728702 -0.4193967 -0.33667406 -0.2925816
-0.24848084 -0.4216234 -0.4352384 -0.48496342 -0.38006237 -0.24532083 -0.4196275 -0.19883738
-0.3155514 -0.28376025 -0.46745312 -0.38202062 -0.38244447 -0.32668644 -0.35458612 -0.2254264
-0.28968966 -0.44578 -0.2944895 -0.45833796 -0.26626268 -0.29996312 -0.36102542 -0.40666538
-0.37713605 -0.2978955 -0.381079 -0.37651166 -0.30364355 -0.2417558 -0.3443073 -0.20728801
-0.40645564 -0.31487635 -0.24682534 -0.3456662 -0.37716737 -0.32463306 -0.33696172 -0.35511023
-0.31613168 -0.31303594 -0.3398933 -0.28233746 -0.31626028 -0.26026216 -0.3018539 -0.34607226
-0.34584737 -0.47469997 -0.27507213 -0.41194972 -0.30386084 -0.3112671 -0.2636048 -0.40128976
-0.27663937 -0.34407738 -0.23702018 -0.27555385 -0.42905462 -0.2623559 -0.3048084 -0.3880623
-0.28426862 -0.4139228 -0.3828211 -0.43611524 -0.37756097 -0.2978626 -0.31982854 -0.38600963
-0.4492344 -0.3156496 -0.33524132 -0.30138114 -0.36286327 -0.37612796 -0.40246043 -0.3331494
-0.24217583 -0.3335466 -0.31328788 -0.35301706 -0.31806254 -0.2957311 -0.4362611 -0.39553717
-0.346829 -0.34626257 -0.28407606 -0.27168214 -0.3898576 -0.39612922 -0.3110033 -0.35061514
-0.4166789 -0.36924225 -0.33576065 -0.25621477 -0.35911053 -0.30831957 -0.30389574 -0.45811662
-0.4335687 -0.45911556 -0.36882252 -0.42245287 -0.26883906 -0.29256815 -0.47263998 -0.31230095
-0.27715713 -0.22566801 -0.4345421 -0.28964233 -0.23634285 -0.3519957 -0.33249912 -0.3972815
-0.43254536 -0.30215433 -0.32183716 -0.35415784 -0.466488 -0.22490561 -0.46449584 -0.28475982
-0.27075455 -0.2712963 -0.29063624 -0.3562627 -0.3493535 -0.24572699 -0.30564886 -0.29172608
-0.3173062 -0.3587558 -0.30323344 -0.26661325 -0.31532297 -0.37289986 -0.314843 -0.50157666
00000000: 6c1f bbbe e334 bbbe fa06 a4be c614 b0be
00000010: 3b3b bcbe 3991 afbe 0bf6 cfbe fea6 c5be
00000020: 08ab ccbe 280b d1be ad5a b3be 5f1c bdbe
00000030: 9a6f 9dbe d7f9 adbe 430e c2be d81f bbbe
00000040: d1e4 d6be 812f 9bbe 6006 6abe f3d1 98be
00000050: 7b0d dcbe 2f02 b2be 4dfb b1be eb33 b5be
00000060: 002d 07bf 3680 4ebe 7c69 80be 39c6 88be
00000070: bf8a aebe c2fa 90be 2633 adbe 5e89 7abe
00000080: bec0 7abe dbf5 bbbe 51b1 b1be b2a0 87be
00000090: 58ad 9ebe 3b8e bfbe a7c8 abbe 8bac 90be
000000a0: eb45 9abe 48cc 9bbe 3509 bbbe 0548 72be
000000b0: a747 d4be 0287 a9be 1de8 b5be 7d49 8dbe
000000c0: 2b14 c4be 0c4c 4dbe ba55 a1be a2c9 a2be
000000d0: fc4d 95be cc39 06bf 04c7 75be c510 c8be
000000e0: 5231 e2be 9695 90be 91bf d7be 47ca c4be
000000f0: f719 8abe 4abd ecbe 4aac cbbe 9586 bebe
00000100: c7c0 b4be d8a8 bdbe 4797 94be 9426 bbbe
00000110: 8e42 81be b6d7 a9be 9a38 a9be 6a03 aabe
00000120: 0079 c2be d5b9 c8be 8bbe 8abe 0a6c 96be
00000130: 2448 8fbe 49f4 8ebe 2d4b aebe 991f d3be
00000140: 69e6 bebe 61c0 b0be 7a03 b7be 0685 a4be
00000150: fded d5be a511 a1be dbf7 a0be 95ff b6be
00000160: 54ca b8be ac56 75be 1d90 e2be 79fe b8be
00000170: 1de9 b9be d83c 91be 7e8e e8be 0ac0 e9be
00000180: 7014 a1be e553 dfbe b0f2 d2be bf2d dabe
00000190: b894 71be ba19 7ebe 6ddb 8bbe f11e cfbe
000001a0: 48f6 66be a558 dbbe c50d 9fbe 0405 8cbe
000001b0: 2a92 a7be 2abb d6be 8b60 acbe 41cd 95be
000001c0: c371 7ebe 06df d7be 91d7 debe 204d f8be
000001d0: 8997 c2be 6235 7bbe 6ad9 d6be 079c 4bbe
000001e0: f48f a1be 0649 91be 0456 efbe 3598 c3be
000001f0: c3cf c3be 7243 a7be 508c b5be 2ed6 66be
00000200: 3452 94be 473d e4be 54c7 96be 46ab eabe
00000210: 9553 88be c494 99be 53d8 b8be 7236 d0be
00000220: fa17 c1be c285 98be c91c c3be 23c6 c0be
00000230: 2b77 9bbe d58e 77be 0c49 b0be 4f43 54be
00000240: f41a d0be 7937 a1be c8bf 7cbe 29fb b0be
00000250: 151c c1be 4e36 a6be 3f86 acbe 02d1 b5be
00000260: 03dc a1be 3f46 a0be 7f06 aebe 898e 90be
00000270: deec a1be 1541 85be 988c 9abe 6230 b1be
00000280: e812 b1be e00b f3be 41d6 8cbe 13eb d2be
00000290: a693 9bbe 675e 9fbe 35f7 86be da75 cdbe
000002a0: ada3 8dbe e92a b0be 6bb5 72be 6515 8dbe
000002b0: 0cad dbbe 8353 86be d90f 9cbe 1ab0 c6be
000002c0: a88b 91be b0ed d3be 2101 c4be 7f4a dfbe
000002d0: ac4f c1be 7281 98be 91c0 a3be 0ea3 c5be
000002e0: 0d02 e6be d39c a1be c0a4 abbe a14e 9abe
000002f0: 37c9 b9be d893 c0be 4b0f cebe 8f92 aabe
00000300: f1fc 77be 9fc6 aabe 4567 a0be a7be b4be
00000310: 18d9 a2be 116a 97be 9d5d dfbe d983 cabe
00000320: 9293 b1be 5449 b1be 6b72 91be ec19 8bbe
00000330: 6a9b c7be 73d1 cabe d33b 9fbe d483 b3be
00000340: f056 d5be 520d bdbe d2e8 abbe 952e 83be
00000350: 56dd b7be 10dc 9dbe 3998 9bbe 438e eabe
00000360: b7fc ddbe 3211 ebbe 4ed6 bcbe be4b d8be
00000370: 46a5 89be 7ecb 95be defd f1be e9e5 9fbe
00000380: 8ae7 8dbe 8415 67be 4d7c debe 004c 94be
00000390: dc03 72be c838 b4be 533d aabe 7b68 cbbe
000003a0: 9676 ddbe f9b3 9abe d7c7 a4be 2d54 b5be
000003b0: 84d7 eebe a84d 66be 66d2 edbe 0acc 91be
000003c0: 57a0 8abe 59e7 8abe 46ce 94be 1168 b6be
000003d0: 76de b2be db9f 7bbe 027e 9cbe 1f5d 95be
000003e0: f575 a2be d7ae b7be 6a41 9bbe 8881 88be
000003f0: 0372 a1be bbec bebe 1a33 a1be 5467 00bf

res_block2.fc.weight f4 [128, 256]
-0.0030029716 0.014847166 0.17146905 0.09056937 0.20397559 -0.010203275 -0.24753304 -0.037438907
-0.064095795 0.054447122 -0.08619889 0.082576014 0.100086145 -0.0302909 0.0425873 -0.033026703
0.035267793 0.074565075 -0.18088566 -0.035988722 0.13386051 0.07848599 0.0012753626 -0.11765653
0.08176684 -0.19804326 -0.074297965 0.06129101 -0.090490736 -0.00092870684 -0.16691369 0.18596084
0.048892178 -0.15970995 0.16646299 -0.04059566 -0.06993475 0.085301556 0.10627201 0.0963196
0.0012980057 0.07731188 0.08514703 -0.13197273 0.091488935 -0.11040654 -0.22705413 0.0322493
0.09253782 -0.006170941 -0.09511145 0.049111363 -0.03448316 0.1592856 0.067304015 0.019765286
0.052842025 0.017791 -0.18407366 -0.07674874 -0.028443862 0.13811107 -0.03482744 -0.055932246
0.026832314 -0.05598973 0.05655321 -0.0600032 -0.020562626 -0.10355246 -0.012604041 0.09376561
0.022677187 -0.14523293 -0.13560167 -0.029446833 -0.020937651 0.041533586 -0.06578913 -0.1134187
0.036542047 -0.16042916 0.044314034 0.10553389 -0.07531781 0.0028691986 0.1610595 0.018048733
-0.16388573 0.056749407 0.05818639 0.101947114 -0.03311748 -0.049078926 0.052825596 -0.27535808
0.10702632 -0.11117354 -0.021120852 0.06972864 -0.103409134 -0.1001883 -0.34749362 -0.09915721
0.08344165 0.052300878 -0.13345574 0.0145830605 -0.20167641 0.013093445 -0.103312165 0.11627591
-0.09410418 0.031913742 0.14892733 -0.027538717 -0.11161493 -0.08370753 0.07263 -0.15110879
-0.0848899 0.112996176 0.045738544 -0.021435376 0.08816773 0.06485675 -0.08794265 0.005039658
0.039343245 0.22400029 -0.16435555 -0.24221429 0.05166203 0.121759966 0.11863233 -0.08445955
-0.07506813 0.08374748 0.13586533 0.04387359 -0.3452195 -0.11071637 -0.1340141 -0.044466577
0.07494512 0.21704161 0.1256749 0.12457054 0.092710376 -0.1604913 0.072853945 0.11439555
-0.07607555 -0.011051823 0.041104693 0.047953375 -0.08126418 0.17347898 -0.021417364 0.061496045
-0.059326313 -0.181134 0.06530232 0.014968833 0.027362453 -0.01985957 0.1891193 -0.10498446
-0.18195084 -0.16597223 -0.093386404 -0.2448942 -0.21752961 -0.111797005 -0.14766775 0.03253408
-0.02114685 0.121969625 0.11147039 -0.043512005 -0.053907853 -0.16515172 -0.06403785 0.008110904
0.103036284 0.02410308 -0.003996548 0.18665306 0.11803552 0.11126026 -0.15111099 -0.06810185
0.101403356 0.046904534 0.061025973 0.09630199 -0.003273029 -0.02778723 -0.04520578 -0.06849274
-0.0038324231 -0.018746054 0.0105445525 -0.02896219 -0.009226449 -0.1368619 -0.14885303 -0.17439663
-0.088189624 -0.13616487 -0.04408411 0.018608548 0.14247555 0.014685854 -0.14066674 0.038652807
0.023593277 -0.103324525 0.12289708 -0.19632365 -0.020637274 -0.13634837 0.1288437 -0.09551298
-0.00873804 0.0871946 -0.094896056 -0.060962625 0.07898848 0.20334588 -0.03545676 -0.022693517
-0.0067324894 0.011034517 -0.097986594 -0.04948279 0.010301177 -0.015345169 0.013124365 0.30054453
-0.030155456 -0.13176167 0.1081001 0.03829906 0.059816986 -0.015716908 -0.0005398832 -0.07611737
0.082363755 0.037874784 -0.087972775 0.09783264 0.07281743 0.06717547 -0.020205699 -0.021584373
00000000: 81cd 44bb 8741 733c 9595 2f3e 6f7c b93d
00000010: fade 503e a32b 27bc 4d79 7dbe 8a59 19bd
00000020: a844 83bd f203 5f3d 0b89 b0bd 9d1d a93d
00000030: f7f9 cc3d 9f24 f8bc 0570 2e3d 0247 07bd
00000040: f674 103d 93b5 983d 173a 39be e968 13bd
00000050: bb12 093e 43bd a03d 112a a73a e8f5 f0bd
00000060: 5f75 a73d dacb 4abe 8829 98bd 480c 7b3d
00000070: 3553 b9bd 7674 73ba 6ceb 2abe 856c 3e3e
00000080: 2a43 483d 018b 23be 4675 2a3e a347 26bd
00000090: f339 8fbd 95b2 ae3d 24a5 d93d 3643 c53d
000000a0: d821 aa3a b155 9e3d 9161 ae3d dc23 07be
000000b0: 8d5e bb3d d31c e2bd e180 68be d817 043d
000000c0: 7884 bd3d 9b35 cabb cbc9 c2bd ff28 493d
000000d0: 373e 0dbd c41b 233e b0d6 893d cfea a13c
000000e0: e170 583d 6ebe 913c ce7d 3cbe 722e 9dbd
000000f0: 1a03 e9bc fd6c 0d3e 38a7 0ebd 3619 65bd
00000100: 71cf db3c 7d55 65bd 57a4 673d eac5 75bd
00000110: f472 a8bc 5013 d4bd 2e81 4ebc 2f08 c03d
00000120: 82c5 b93c f1b7 14be 2adb 0abe 7c3a f1bc
00000130: 7085 abbc 1f1f 2a3d 74bc 86bd 1048 e8bd
00000140: 1dad 153d 8b47 24be a282 353d 2722 d83d
00000150: 3940 9abd 2a09 3c3b c8ec 243e f0da 933c
00000160: a9d1 27be 1172 683d da54 6e3d a6c9 d03d
00000170: 32a6 07bd fc06 49bd a75f 583d bcfb 8cbe
00000180: 9e30 db3d f4ae e3bd a305 adbc e4cd 8e3d
00000190: 2bc8 d3bd 862f cdbd afea b1be ef12 cbbd
000001a0: 75e3 aa3d 7239 563d 9fa8 08be caed 6e3c
000001b0: 4384 4ebe e485 563c 5495 d3bd 1022 ee3d
000001c0: b1b9 c0bd fcb7 023d 6880 183e e098 e1bc
000001d0: 5e96 e4bd da6e abbd 0abf 943d 43bc 1abe
000001e0: c2da adbd 8a6a e73d 5758 3b3d 3e99 afbc
000001f0: 4891 b43d 9ed3 843d 471b b4bd b723 a53b
00000200: 6226 213d 5560 653e d24c 28be 0607 78be
00000210: 919b 533d 4a5d f93d 82f5 f23d 21f9 acbd
00000220: 52bd 99bd cc83 ab3d 4820 0b3e cbb4 333d
00000230: 9cc0 b0be 44bf e2bd fe3a 09be 9622 36bd
00000240: d47c 993d 2840 5e3e ecb0 003e d71e ff3d
00000250: f0de bd3d d557 24be 7334 953d 3748 ea3d
00000260: 7fcd 9bbd b512 35bc 655d 283d c26a 443d
00000270: d66d a6bd 79a4 313e 7873 afbc 47e3 7b3d
00000280: 2600 73bd 317b 39be 39bd 853d d63f 753c
00000290: 3927 e03c 89b0 a2bc 7da8 413e 1802 d7bd
000002a0: 5251 3abe a0f4 29be 5f41 bfbd 8cc5 7abe
000002b0: 15c0 5ebe d4f5 e4bd 3736 17be 7542 053d
000002c0: 293c adbc 36cb f93d 964a e43d a539 32bd
000002d0: 7bce 5cbd 881d 29be 4726 83bd 99e3 043c
000002e0: b004 d33d d373 c53c 79f5 82bb fb21 3f3e
000002f0: 9bbc f13d 6bdc e33d d7bc 1abe fc78 8bbd
00000300: 90ac cf3d f81e 403d 5ff6 793d fa39 c53d
00000310: 5180 56bb 0ca2 e3bc b229 39bd ec45 8cbd
00000320: 6429 7bbb 5391 99bc 0fc3 2c3c 1d42 edbc
00000330: 882a 17bc 8725 0cbe ee6c 18be 0895 32be
00000340: c39c b4bd ce6e 0bbe 8a91 34bd f470 983c
00000350: 1ce5 113e f09c 703c f10a 10be 6852 1e3d
00000360: b046 c13c cf9b d3bd 77b1 fb3d 1109 49be
00000370: 800f a9bc e89e 0bbe 9aef 033e 4f9c c3bd
00000380: ff29 0fbc 1593 b23d dd58 c2bd f2b3 79bd
00000390: b6c4 a13d e739 503e 1c3b 11bd c1e7 b9bc
000003a0: 379c dcbb 1eca 343c 32ad c8bd 77ae 4abd
000003b0: 45c6 283c 4e6a 7bbc 9407 573c f9e0 993e
000003c0: 9308 f7bc 88ec 06be 9663 dd3d 7adf 1c3d
000003d0: a802 753d bfc0 80bc f386 0dba 6ce3 9bbd
000003e0: 54ae a83d 9722 1b3d 122b b4bd 7b5c c83d
000003f0: 4e21 953d 4b93 893d 6c86 a5bc b6d1 b0bc

res_block2.fc.bias f4 [128]
-0.10533332 0.13794817 0.09572055 0.13217156 0.13669963 0.09036216 0.035722338 0.05815976
-0.1405788 0.041533254 0.027686102 -0.044654433 0.16206798 0.07165358 0.0030782649 0.114135474
0.13248959 0.04489534 0.08014033 0.12588567 0.07004835 -0.086256 0.13565263 0.018584194
0.10417482 0.0030726814 0.18582585 0.07215994 0.052940782 0.06002114 0.012421353 0.14258206
0.054126043 0.028286817 0.073678404 0.08180068 0.12929678 0.15614575 0.060048677 0.05497931
-0.038884915 -0.15929696 0.04660152 0.14709266 -0.14532289 0.1101216 -0.024637975 0.090912275
-0.035371337 0.059651528 -0.008543011 0.22561894 0.11721313 0.10928169 0.24474727 0.15766487
0.10974549 0.070127055 0.14581098 0.0009816281 0.03671099 0.101032086 0.10997265 0.14780538
0.003986323 0.017778069 -0.103310525 0.12334593 0.061472613 0.09980551 0.07677554 -0.028623769
0.0722804 -0.045814224 0.08366306 0.1059706 0.08547924 0.010153422 0.103626885 0.02558542
0.038188186 0.12643884 -0.16626929 -0.013948499 0.02315931 0.069159396 -0.1360856 0.16528718
0.1330864 0.12758988 0.13410483 0.18849505 0.2520841 -0.070941694 -0.13552485 0.05201541
0.124490246 0.13481666 -0.006911598 0.04287612 0.033342604 0.096589066 0.059602734 0.07300677
0.0074802446 0.07725481 0.20407219 -0.05675301 -0.0013153619 -0.18834417 0.052598845 -0.0425477
0.07315587 0.037134077 0.027941803 0.068361476 0.107821316 0.07943355 0.20449609 0.051397678
0.0062818006 0.053496294 0.12783542 -0.03295605 0.036831334 0.14343067 0.06805152 -0.14728372
00000000: ffb8 d7bd 4942 0d3e 2309 c43d fb57 073e
00000010: fdfa 0b3e cc0f b93d 9651 123d ee38 6e3d
00000020: e4f3 0fbe c61e 2a3d f7cd e23c 91e7 36bd
00000030: 26f5 253e 1dbf 923d b7bc 493b dcbf e93d
00000040: 5aab 073e 2de4 373d 9d20 a43d 2ce8 003e
00000050: 8275 8f3d fca6 b0bd 86e8 0a3e e13d 983c
00000060: 9c59 d53d 0a5f 493b 2249 3e3e 97c8 933d
00000070: 6fd8 583d bad8 753d ee82 4b3c 0801 123e
00000080: 45b3 5d3d c1b9 e73c b4e4 963d 1d87 a73d
00000090: 6066 043e ace4 1f3e 9af5 753d fc31 613d
000000a0: ca45 1fbd be1e 23be 3ce1 3e3d 759f 163e
000000b0: 86cf 14be 6f87 e13d 94d5 c9bc 3730 ba3d
000000c0: 89e1 10bd 2955 743d fcf7 0bbc a708 673e
000000d0: 700d f03d 14cf df3d 079f 7a3e e672 213e
000000e0: 3ec2 e03d c69e 8f3d 794f 153e f9a9 803a
000000f0: 435e 163d e9e9 ce3d 5739 e13d 4b5a 173e
00000100: b39f 823b 50a3 913c 7894 d3bd ca9c fc3d
00000110: b5ca 7b3d d566 cc3d 7f3c 9d3d 657c eabc
00000120: bf07 943d b2a7 3bbd 8a57 ab3d 1d07 d93d
00000130: bd0f af3d 8a5a 263c 553a d43d 8498 d13c
00000140: 376b 1c3d 2f79 013e 7f42 2abe 3f88 64bc
00000150: 98b8 bd3c 71a3 8d3d 065a 0bbe 0b41 293e
00000160: cd47 083e eca6 023e c752 093e d904 413e
00000170: 2b11 813e e149 91bd 07c7 0abe 1c0e 553d
00000180: bef4 fe3d 610d 0a3e b07a e2bb df9e 2f3d
00000190: 4192 083d 7dd0 c53d ff21 743d 9384 953d
000001a0: d71c f53b c537 9e3d 4df8 503e d875 68bd
000001b0: 3968 acba 4bdd 40be e371 573d 7f46 2ebd
000001c0: bfd2 953d e719 183d 35e6 e43c 1a01 8c3d
000001d0: 6cd1 dc3d 0fae a23d 6c67 513e 5f86 523d
000001e0: 90d7 cd3b ee1e 5b3d 4ae7 023e ecfc 06bd
000001f0: 74dc 163d 7ddf 123e 985e 8b3d 8bd1 16be

res_block2.ln.weight f4 [128]
1.2171211 0.7688597 0.9227586 0.7041743 0.71910423 1.115485 1.0184993 0.961647
1.1848745 0.9685984 1.0305454 1.1848027 0.8298152 0.96548736 0.77094376 0.8287284
0.72633743 0.81815755 0.7090557 0.8995134 0.85827774 1.2241789 0.91398257 1.2016737
0.9229744 0.7335796 0.640363 0.75670564 1.0585449 0.9836762 0.70331115 0.77053237
1.0787002 0.84764516 0.8252951 1.1974672 0.7920715 0.80190176 0.9287237 0.89070994
1.388017 1.6515894 0.8910663 0.6577912 1.3896506 0.66543686 1.0145693 1.0365787
1.2715783 0.8463785 1.2211491 0.7426346 0.8149954 0.88640887 0.74972564 0.8339099
0.86536545 1.0565591 0.69246376 1.2283267 0.9125531 0.8070407 0.7322283 0.7345628
1.1232806 1.1336842 1.2639635 0.6802598 1.078634 0.6780482 0.96414506 1.3293768
0.8357195 0.77054936 0.71554804 0.8127188 0.8980992 1.1079029 1.1908984 0.9432592
1.2095753 0.79084194 1.3455651 0.89697134 1.0137879 1.0145613 1.2302151 0.8290971
0.86688244 1.1631886 0.69534016 0.81081414 0.9962784 1.0677968 1.3638109 0.9852085
0.8894545 0.94495714 1.0255954 1.1902764 0.9891349 0.77930886 0.8443822 0.8850916
1.027327 0.95678115 0.8138815 1.0978911 1.0702829 1.5720465 1.0208157 1.0544324
0.97316647 0.8356167 1.2346995 0.73482543 0.6524583 0.8583155 0.9586315 1.0341706
0.927245 0.90622836 0.64296556 1.3219306 1.0607123 0.75713754 1.0529865 1.501794
00000000: a0ca 9b3f fdd3 443f e839 6c3f c444 343f
00000010: 3717 383f 36c8 8e3f 2f5e 823f 7f2e 763f
00000020: f8a9 973f 11f6 773f e9e8 833f 9da7 973f
00000030: c56e 543f 2e2a 773f 925c 453f 8b27 543f
00000040: 40f1 393f c672 513f ad84 353f 8346 663f
00000050: 17b8 5b3f e5b1 9c3f c3fa 693f 72d0 993f
00000060: 0d48 6c3f dfcb 3b3f d4ee 233f 76b7 413f
00000070: 667e 873f 34d2 7b3f 330c 343f 9c41 453f
00000080: d912 8a3f 46ff 583f 8a46 533f 9b46 993f
00000090: 33c5 4a3f 6f49 4d3f d6c0 6d3f 9105 643f
000000a0: 8baa b13f 4867 d33f ec1c 643f 0165 283f
000000b0: 12e0 b13f 125a 2a3f 68dd 813f 9cae 843f
000000c0: 14c3 a23f 43ac 583f 9d4e 9c3f 4d1d 3e3f
000000d0: 8aa3 503f b1eb 623f 05ee 3f3f 1f7b 553f
000000e0: 9788 5d3f 543d 873f 4e45 313f cf39 9d3f
000000f0: 149d 693f 389a 4e3f 5073 3b3f 4f0c 3c3f
00000100: a9c7 8f3f 901c 913f 8ec9 a13f 8225 2e3f
00000110: ae10 8a3f 9194 2d3f 36d2 763f 0529 aa3f
00000120: b7f1 553f b942 453f 282e 373f 570e 503f
00000130: d4e9 653f c3cf 8d3f 5c6f 983f 6f79 713f
00000140: 5dd3 9a3f 9e74 4a3f 7a3b ac3f ea9f 653f
00000150: cdc3 813f 25dd 813f b077 9d3f b53f 543f
00000160: 02ec 5d3f 5de3 943f d001 323f 8491 4f3f
00000170: 1a0c 7f3f 91ad 883f 5b91 ae3f a036 7c3f
00000180: 4ab3 633f b6e8 713f b646 833f fa5a 983f
00000190: f237 7d3f c980 473f 6f29 583f 5d95 623f
000001a0: 737f 833f 9cef 743f 8a5a 503f b287 8c3f
000001b0: 08ff 883f d238 c93f 17aa 823f a4f7 863f
000001c0: 7021 793f faea 553f a20a 9e3f 851d 3c3f
000001d0: 8207 273f 91ba 5b3f e068 753f b45f 843f
000001e0: ee5f 6d3f 95fe 673f 6499 243f 0635 a93f
000001f0: 6cc5 873f c4d3 413f 43c8 863f c93a c03f
